models/auto-3.pth (torch, 11794 bytes, 15 tensors)

pre_mono.0.weight f4 [16, 4]
000000 00 1a c1 3e d7 5d b8 be 93 37 c6 be 84 02 00 bf
       0.3771515 -0.36009094 -0.38714275 -0.5000384
000010 fe 7f 0d be e8 bc 0b 3c 78 6f 1f 3f a1 d0 8b be
       -0.13818356 0.0085289255 0.6227946 -0.2730761
000020 ef 28 c7 3e c3 36 9b be a6 d9 39 be b6 c7 9d 3d
       0.38898417 -0.30315217 -0.18149433 0.077041075
000030 51 df 19 3d 15 1a 73 be fe d8 40 be 92 bc ef 3d
       0.037566487 -0.23740418 -0.18832776 0.11705889
000040 ad cb 31 be 61 b2 99 bd 2b c2 99 3b 93 a4 f7 3e
       -0.17362852 -0.07504726 0.004692336 0.48367748
000050 25 03 11 bf df 27 4f 3e d5 f4 ad 3e be 4b bd 3e
       -0.56645423 0.20230053 0.33975855 0.3697185
000060 bd 5b fd 3e a7 4d c4 3e ab 50 d3 3d 15 9d 81 3d
       0.49484053 0.38340494 0.103181206 0.06328789
000070 e7 a1 e5 3e 41 57 30 be 4a ee 1a 3e 54 92 1a bd
       0.44850084 -0.17220785 0.15129963 -0.037737206
000080 2b 2b 84 3d aa 18 ec be d0 f4 de be c1 77 82 be
       0.06453546 -0.46112567 -0.43546152 -0.2548199
000090 df af 7f 3d 59 93 bd 3e 7d 6d 3a be 87 65 b2 3e
       0.062423583 0.3702648 -0.18205829 0.34843084
0000a0 6a 56 d6 be 27 5c b7 be 32 65 bf bd 8b 49 a1 3e
       -0.41862804 -0.35812494 -0.09345473 0.3150142
0000b0 95 16 04 bf a8 23 c3 bd e5 ad b9 be db 10 68 3e
       -0.5159696 -0.09528285 -0.36265483 0.2266268
0000c0 4a 35 54 bd eb df 28 be 50 93 20 be 2b e3 af 3e
       -0.051808633 -0.16491668 -0.15681195 0.34353003
0000d0 6b b1 ec 3e 37 6a b5 3e 22 eb 8d 3e 49 7c 52 be
       0.4622911 0.35432598 0.27718455 -0.20555224
0000e0 ff 82 c4 3e 5a ae 8e be 2a 98 13 be 9d ea 6e be
       0.38381192 -0.27867395 -0.14413515 -0.23331685
0000f0 89 33 d6 3e 33 59 87 3e 80 d2 6a 3d 0a df 20 3e
       0.41836193 0.2643524 0.057329655 0.15710083

pre_mono.0.bias f4 [16]
000000 ce d8 16 be 38 fd 14 3f 43 6c 60 be 23 ab 57 3d
       -0.14731142 0.5819888 -0.21916299 0.052653443
000010 65 24 b1 3e 12 65 a5 bd 94 76 f6 bd d7 3f af 3e
       0.3459808 -0.08075918 -0.12034336 0.34228393
000020 44 68 7d be 98 8c 99 be ca f5 bf be d0 29 e9 3e
       -0.24746805 -0.29990077 -0.3749221 0.45539713
000030 91 4f 2c 3e f0 2f cd be 4e 05 e6 bc e0 8e b0 be
       0.16827227 -0.40075636 -0.028078701 -0.34484005

pre_mono.1.weight f4 [16, 16]
000000 24 17 00 3e 9a 98 44 be 7e f1 45 3e 87 fa b5 3c
       0.12508827 -0.19198838 0.19330403 0.022214187
000010 29 29 bb bc 2e d8 52 3e c8 e9 79 3d ee f7 80 be
       -0.022846775 0.20590279 0.061013967 -0.25189155
000020 16 82 de 3d 04 20 16 be bf af ce bd 5b 94 08 be
       0.10864656 -0.1466065 -0.10092115 -0.13337843
000030 4a 51 39 be a0 76 d6 bd 15 75 ec bd ce 1f 6e be
       -0.18097416 -0.10471845 -0.11545769 -0.2325432
000040 dc 30 d8 bd 30 86 9d 3e 3c ec 12 be ff 28 14 be
       -0.10556194 0.3076644 -0.14347929 -0.14468764
000050 87 3c 3b 3e 47 9f 69 3e 09 8e 8e bd 69 2b f8 3d
       0.18284808 0.22814666 -0.06960685 0.12117655
000060 92 49 01 3e 63 0e 33 3e 25 b5 44 3e bb 10 6a 3e
       0.12625721 0.17485957 0.19209726 0.22857945
000070 09 e6 22 be 5b 13 d2 bd 3f 4a 2e bd 26 90 ec 3c
       -0.15908064 -0.10257598 -0.042551275 0.02887733
000080 1d 7b 56 3e d7 19 9d 3e fc b1 e3 3d 45 b6 9f bc
       0.20945401 0.30683777 0.11117932 -0.019496093
000090 44 e0 97 3e 2c 98 3b 3e 30 61 fa 3d 85 a0 00 be
       0.2966329 0.18319768 0.12225568 -0.12561233
0000a0 78 39 8b bd bf 7d 52 3e 5c d9 90 3c d1 1c af 3d
       -0.06798071 0.20555781 0.01768177 0.08550418
0000b0 16 65 54 be 48 db 14 bd 6b 90 23 be 48 8e 6c 3e
       -0.20741686 -0.036341935 -0.1597306 0.23101151
0000c0 49 aa 26 be 20 b7 5f 3d 66 bc 1c be 7b 0c 3d 3d
       -0.16275896 0.054618 -0.15306243 0.04615448
0000d0 dc ad 23 be 96 e9 9c bc 64 f2 fe bd 85 26 ad 3d
       -0.15984291 -0.019154351 -0.12448576 0.08454613
0000e0 c4 a1 0a bd bb 6d 90 be 1f 7e 58 bd d5 08 2c bd
       -0.033845678 -0.28208718 -0.052854653 -0.04200061
0000f0 60 25 c5 3d 05 b1 56 be 7f ef 09 bd 7c a4 61 bd
       0.09626269 -0.20965965 -0.033675667 -0.055088505
000100 00 21 d1 3b 30 0a d8 bd 80 c5 0c 3b c8 53 8c bd
       0.0063821077 -0.10548818 0.0021480024 -0.068519175
000110 92 df 63 be f0 23 98 bc 57 9a 45 be 08 c0 08 3d
       -0.22253254 -0.018571824 -0.19297157 0.03338626
000120 f3 d8 5b be 82 57 31 be 6c 39 76 3e 40 47 b0 bc
       -0.21469478 -0.17318538 0.24045342 -0.02151835
000130 27 c3 32 be 48 c3 0d be 22 98 0b be 76 9d 35 3e
       -0.17457257 -0.13844025 -0.13632253 0.17735848
000140 c7 87 8b bd c7 1f 90 bb 80 f9 f0 bc 77 85 22 be
       -0.06813007 -0.0043983194 -0.029415846 -0.15871225
000150 a0 f8 02 be a0 58 2f 3c eb fa 8d 3d 1a ac ab 3c
       -0.12790155 0.010702282 0.069326244 0.020956088
000160 02 71 2c be a0 0d fc bd c6 82 3a be 48 2c 01 3e
       -0.16839984 -0.12307286 -0.18213949 0.12614548
000170 c0 75 21 be a7 24 5f 3e ec 64 f8 3b c4 88 8c 3d
       -0.15767574 0.21791326 0.00758039 0.068620235
000180 c5 5b 9a 3e f2 85 7c 3e 5a 84 1c be a1 6a 34 3e
       0.3014814 0.24660471 -0.15284863 0.176188
000190 39 ca 3a be 37 5a 32 be c6 7e 03 3e 01 3b 95 3e
       -0.18241204 -0.17417227 0.12841329 0.2914658
0001a0 8a de b8 bd 18 5e 79 3e c2 74 19 be 5f 40 94 3e
       -0.09026821 0.243523 -0.14985946 0.2895536
0001b0 67 ba 1a be 13 d4 8f 3e 9b ba 92 bd db 72 ad bd
       -0.1511017 0.28091487 -0.071644984 -0.084691726
0001c0 90 1d fc bc d8 69 94 3e b1 62 fb 3d bd 58 43 3e
       -0.030775815 0.28987002 0.12274683 0.1907682
0001d0 75 5c 2a 3c f6 ce b5 3e dd 96 17 be a1 88 7b 3e
       0.01039802 0.3550946 -0.14803644 0.24563839
0001e0 85 8a 53 be 75 fb da bd 89 ad 4e be 49 ed 0a be
       -0.2065831 -0.10692493 -0.20183386 -0.1356708
0001f0 d8 af d8 3c 5c 23 08 be 4d 70 dd 3d 1d de 02 be
       0.026451036 -0.13294739 0.10812435 -0.12780042
000200 45 05 4c 3e 1a 75 98 3e 64 32 83 3e ab be 9a bd
       0.19923885 0.2977684 0.25624382 -0.07555898
000210 95 7f 19 bd c1 9b a6 3e f4 08 fe bd c8 fd 8a bc
       -0.037475187 0.32540706 -0.124040514 -0.016966715
000220 76 9e 3f bd 65 bc e0 3d 87 67 26 3e 0a af 2a 3e
       -0.04678198 0.109734334 0.1625043 0.16668335
000230 99 4c 45 3e cc 86 5b bc 2d e8 70 3d cc 05 c8 bd
       0.19267501 -0.013398837 0.05881517 -0.09766731
000240 48 d0 a4 3d 96 4f 9a 3d 36 14 00 be 87 2d 4d be
       0.08047539 0.07534711 -0.1250771 -0.20036899
000250 bb b4 22 be 98 f2 3a bd 47 7f 1a 3e 5f c4 8b be
       -0.15889256 -0.04564151 0.15087615 -0.27298257
000260 83 78 d5 bd 16 f3 88 be ab f7 2d 3e f0 04 b7 3d
       -0.104233764 -0.2674796 0.16989009 0.08936489
000270 af 1e fe 3d ab 97 7e 3c ab b3 13 3d a6 26 17 3e
       0.12408196 0.01553909 0.036060017 0.14760837
000280 b9 f3 54 be 0a d9 03 3e c2 c3 85 bd 5b 7c 05 bd
       -0.20796098 0.12875763 -0.065314785 -0.032589298
000290 3e 75 90 3e a1 11 51 3e 34 6d 23 be 01 d9 28 be
       0.2821445 0.20416881 -0.15959626 -0.1648903
0002a0 7c a7 50 be 2b eb 23 be 76 05 44 be 4e 81 2a be
       -0.2037639 -0.16007678 -0.19142708 -0.16650888
0002b0 84 62 f5 bd ca 0b 9a 3d c3 9e 74 be 3e b2 1a 3e
       -0.11981681 0.0752178 -0.23888688 0.15107056
0002c0 21 b6 1b 3d 4a 70 6c 3d a0 22 7f bd 29 cc 3f 3e
       0.03801549 0.057724275 -0.06228888 0.18730225
0002d0 d0 94 87 bd 8b ce 21 3e 40 ed d3 3c 72 d5 4c 3e
       -0.066201806 0.15801446 0.025869966 0.20003298
0002e0 1a b1 5d 3e cc 07 11 3e 89 7e 9a bd e5 86 0d be
       0.2164959 0.1416313 -0.07543666 -0.1382099
0002f0 46 ef af bd f5 90 7b bd 31 72 97 bd 1b 53 85 3e
       -0.0859056 -0.06141754 -0.07394827 0.26039967
000300 6b 9b 56 be 3f d6 0b 3e 85 cf 9c 3c 70 96 95 3d
       -0.20957725 0.13655947 0.019141922 0.07304084
000310 38 43 16 be a8 cf 05 be b8 f4 f1 3d 5b 5f 73 3d
       -0.1467408 -0.13067496 0.118142545 0.05941711
000320 98 64 40 bd 2e 81 ec 3d 6b 16 1b be cf 74 8c 3d
       -0.046970934 0.115480766 -0.1514527 0.06858217
000330 85 e1 08 be 03 0a 9d bd 13 2f 83 bd 69 9c 8f bd
       -0.13367279 -0.07667925 -0.06405463 -0.07012255
000340 97 11 1f bd 30 0c 25 be 5a a8 ff bd cf 98 06 3e
       -0.038835134 -0.1611793 -0.124832824 0.1314423
000350 0e 2b b1 bc 8c 83 1c bc d2 4f 2d be 1b 2b 46 be
       -0.021626975 -0.009552848 -0.1692498 -0.19352381
000360 fa 89 ea 3d 9c 06 3c be e2 8c 59 be 14 c8 1f 3d
       0.11452098 -0.18361896 -0.21245149 0.03900917
000370 6a 49 d8 3d d7 4f 17 be 1e 57 11 3e ac d9 b3 bd
       0.105608776 -0.1477655 0.14193389 -0.08781752
000380 b8 05 2d 3e 71 71 13 be 0e f6 9d 3b 17 7a 9a bd
       0.16896713 -0.14398743 0.004820592 -0.07542818
000390 36 23 91 3c c6 9a 1c be a2 3e 12 3e 17 ad 55 bd
       0.017716985 -0.15293416 0.14281705 -0.052167024
0003a0 e8 6c e0 3d 47 13 a8 bd 18 20 2c bd 39 42 21 be
       0.10958272 -0.08206802 -0.042022794 -0.15747918
0003b0 90 da 0d 3e 9d 03 08 3e 51 a3 92 3c 76 85 56 3d
       0.13852906 0.13282628 0.017900141 0.052373372
0003c0 6f 72 11 3e de cb f8 3d 5b ff ba 3d 43 7c 76 3e
       0.14203809 0.121482596 0.091307364 0.2407084
0003d0 7a 71 b4 3d cd 30 6b 3d ff f9 9e 3e 99 ce 89 3d
       0.088107064 0.057419587 0.31050107 0.067288585
0003e0 aa 9a 10 3e 44 a9 58 3e 63 a4 d8 bc 44 1d 6e 3e
       0.141215 0.2115832 -0.026445573 0.23253351
0003f0 bd 7a 12 be d6 c7 07 be 7b 5d ca bd 92 02 c1 bd
       -0.14304633 -0.13259825 -0.09881111 -0.094243184

pre_mono.1.bias f4 [16]
000000 94 2f 42 be 69 58 ae 3d 33 b7 4b bd 90 ea 07 3e
       -0.18963462 0.08512957 -0.04973526 0.13273072
000010 d8 af 13 3d 91 41 78 3e 28 ed 41 3d 72 12 15 be
       0.03605637 0.24243762 0.04734531 -0.14557818
000020 9b 73 5d 3e a5 b1 1e be d6 5f c0 bd b6 52 a0 3e
       0.21626131 -0.15497454 -0.09393279 0.31313103
000030 13 46 40 be 0f 5e 22 3c 6d 07 05 be 66 64 a7 3e
       -0.18776731 0.009910121 -0.12991114 0.32693785

pre_mono.2.weight f4 [16, 16]
000000 4d e4 4a 3e b0 1d a7 3e 4c 42 e2 bd 31 31 3f 3e
       0.19813652 0.32639837 -0.110478014 0.18671109
000010 46 59 54 3e 94 ef e1 3d 91 2a 01 3e be e0 65 bd
       0.2073718 0.11032024 0.12613894 -0.056122534
000020 ed e3 8f 3c a5 13 34 3e 2e ea eb 3d bc dc a3 3e
       0.017564738 0.17585619 0.115192756 0.32004344
000030 24 b6 e9 bd d8 4e c7 3d 1c f3 5b be 66 26 2b 3e
       -0.11411694 0.09731835 -0.21479458 0.16713867
000040 7e 03 35 3e b8 db 0c 3e 57 e4 c3 bd 9b 2b 0b be
       0.17677113 0.13755691 -0.09565037 -0.13590853
000050 4c 7a b1 bd 83 16 0a 3e a1 54 b3 bc 78 29 35 bd
       -0.086659044 0.1348515 -0.02189094 -0.044229
000060 18 47 7c 3c 2f 50 3b 3d ae 5a 61 bd 8e 92 a3 3e
       0.015397809 0.045730766 -0.05501812 0.3194775
000070 82 5c 4f be 6f d2 9e bd 98 07 13 be 7b 3f d2 3d
       -0.20250133 -0.07754981 -0.14358366 0.10266014
000080 4e 3a fc bd 3e c3 47 3e 3f fa 15 bd de 3d a9 3d
       -0.12315808 0.19508073 -0.036615606 0.08263753
000090 a0 14 be 3c da 4c 9e 3c 32 2b 8e 3e 15 05 f4 bd
       0.023203194 0.019323755 0.2776733 -0.11915032
0000a0 36 7c 81 3c 9e 50 3d bc 96 5b d7 3d 0e 00 ba 3d
       0.015806299 -0.011554865 0.105155155 0.09082042
0000b0 35 0d 56 bd af 74 1a be 39 5e 85 3e dc 81 03 3e
       -0.05225869 -0.15083574 0.2604845 0.12842506
0000c0 80 9a 31 3e 5c 36 1e be 68 d1 d4 bd 60 2e 0b bc
       0.17344093 -0.15450424 -0.103915036 -0.008494943
0000d0 34 74 fc 3d be 19 57 3e f8 8f c5 3d b0 d6 6c 3d
       0.123268515 0.21005914 0.096466005 0.05782193
0000e0 28 48 02 3d 48 7f d0 3d 1e fe 40 be ae b5 78 be
       0.031807095 0.10180527 -0.18846938 -0.24288055
0000f0 d8 ee 11 be 42 2a 21 be 34 bf 15 3e 46 be d4 bd
       -0.14251268 -0.15738776 0.1462372 -0.10387854
000100 d6 bd bf bd 9e bb 71 3d a6 96 b3 bd 99 9e a0 bd
       -0.0936238 0.059016816 -0.08768968 -0.0784275
000110 28 65 42 be bb de 4e 3e 89 37 3a 3e 45 11 71 3e
       -0.189839 0.20202152 0.18185247 0.23541744
000120 1a d8 8d 3e a0 f9 32 be 6a 4c 25 3e 45 ff 04 3e
       0.27703935 -0.17478037 0.16142431 0.12988003
000130 f9 1c a4 bc f3 9c 25 bd 52 d9 e8 ba 3f c9 40 bd
       -0.020033346 -0.04043288 -0.0017764962 -0.047066923
000140 fc 30 54 be 4f 78 7d 3e a3 73 d0 bd 4a 00 cb 3d
       -0.20721811 0.24752925 -0.10178306 0.099121645
000150 84 d4 1f be 8e 77 02 bd a1 02 7d be 3f af c2 bc
       -0.15608412 -0.031852297 -0.24708034 -0.023765204
000160 79 e9 95 b7 b4 96 47 be e0 2c 80 3d 84 3c 05 be
       -1.7870903e-05 -0.19491082 0.06258559 -0.13011366
000170 58 21 d0 bd cf f2 1c be bc 67 04 bd ca 1d 1b be
       -0.1016261 -0.15326999 -0.03232549 -0.15148082
000180 df c1 64 3e 10 85 8b 3c 81 06 ee 3d a9 e6 67 3c
       0.22339581 0.017031223 0.11622334 0.014154115
000190 00 ec 5d 3a cf 6d 83 3e 85 1b d3 bd 07 37 2f 3e
       0.00084656477 0.25669715 -0.10307983 0.17110835
0001a0 7c 8a 0f bd 5c 90 d9 bd a0 c7 6b bd d7 6c 65 3d
       -0.03504418 -0.106232375 -0.057563424 0.056012
0001b0 b5 ac ac bd 88 be c3 bd 42 9f fc bd cb 36 9f 3b
       -0.08431379 -0.09557825 -0.123350635 0.0048588268
0001c0 02 c3 6c 3e d4 c8 2b be 84 7f cd bd 40 95 e6 bd
       0.23121265 -0.16775829 -0.10034087 -0.11258936
0001d0 79 20 18 be 30 c0 d6 3d 18 48 db 3d 94 75 04 bd
       -0.14856137 0.104858756 0.1070711 -0.032338694
0001e0 40 5c d7 3c be 28 7d 3e b1 a4 5a be 86 25 27 3e
       0.026289105 0.24722573 -0.21351887 0.16322908
0001f0 60 b6 89 3d f0 68 1e be 26 0e 7b be eb be 12 be
       0.067242384 -0.15469718 -0.24517116 -0.14330642
000200 6f 38 13 3d 92 49 9c 3e 77 d6 62 3e 94 68 62 3c
       0.03594249 0.3052488 0.22152124 0.013818879
000210 e6 5e 45 3e de 1c 88 3d f8 10 a3 3e 6b 01 4b 3e
       0.19274482 0.06646131 0.31848884 0.1982476
000220 18 93 9c 3e a3 a5 96 bd cb 5d 5c 3e 6d fb 20 3e
       0.30580974 -0.073558114 0.21520154 0.15720911
000230 13 63 0f 3d c0 00 a9 3d c6 e1 70 3e 7e eb 55 3e
       0.035006594 0.08252096 0.23523626 0.20890614
000240 30 a2 84 be 0f d2 a3 3e e6 49 9b 3e f0 38 a9 3d
       -0.2590499 0.319962 0.30329818 0.08262813
000250 40 db 53 3d d0 27 ff bd 02 06 29 3e e7 92 71 3e
       0.051722765 -0.124587655 0.16506198 0.23591195
000260 46 18 a8 3e 9c 26 82 3e a1 c3 76 3c f3 ae 53 3e
       0.3283102 0.25420082 0.01506129 0.20672207
000270 fc 49 79 bc 65 6c 17 be 06 86 b3 3d e5 dd 02 bd
       -0.015215393 -0.14787443 0.08765797 -0.031949896
000280 fd e9 64 be ed 6d e4 bb 8f 09 01 be 01 67 32 3e
       -0.22354884 -0.006971112 -0.12601303 0.17422105
000290 70 b1 3e bd d4 e2 61 3e 3a b3 4b bd b4 55 9f 3e
       -0.046555936 0.22059184 -0.04973147 0.31120074
0002a0 5a 2d 96 3e f9 b2 16 be 3d 5e 28 bd ac 8d 9d 3d
       0.29331475 -0.1471671 -0.041105498 0.076930374
0002b0 78 19 1f 3e ce d6 55 3e ea d3 15 3e e9 88 89 3e
       0.1553706 0.20882723 0.1463162 0.26862267
0002c0 e5 e4 79 3d a2 87 b4 3d 6d a9 5d 3e 7b 64 2e be
       0.061009306 0.088149324 0.21646662 -0.17030518
0002d0 41 09 0c be 32 ba 2f 3c 95 b3 af 3c a3 4a 24 bd
       -0.13675405 0.010725545 0.021447936 -0.04011024
0002e0 3c ec 5f 3e 7e e6 ce bc 48 a0 6d bd a7 80 63 3e
       0.2186746 -0.025256392 -0.058014184 0.22217046
0002f0 71 d2 3b bd 31 4f 40 bd 63 6f 33 be ab 08 94 3c
       -0.04585499 -0.046950523 -0.1752296 0.01807054
000300 01 13 0e 3c 6d 49 a1 3e c2 ff 82 3e 38 8a 80 3e
       0.008671523 0.31501332 0.25585753 0.25105453
000310 f0 2d 66 bd b6 62 75 bd 43 53 8e bd f4 6c 11 3d
       -0.056196153 -0.05990859 -0.06949475 0.035504296
000320 89 ff 75 3e 35 bf 82 3e a7 29 88 3e 32 2c 77 3d
       0.2402326 0.25536504 0.26594278 0.060344882
000330 3f 52 8a 3d 8c cc 24 3e b8 b7 cb bd a7 a4 1d 3e
       0.067539684 0.16093653 -0.09947151 0.15394841
000340 48 7f eb bd a0 42 83 3d 9e bc ed 3d ca dd 0b bc
       -0.11498886 0.06409192 0.116082415 -0.008536765
000350 70 b7 eb 3d 3d f7 0b 3e 28 17 8b 3e 7b 9f b9 3e
       0.11509597 0.13668533 0.27166104 0.36254486
000360 05 ff 9b 3e 02 17 8f bd 66 d9 f3 3c 4a d8 9e 3e
       0.30468002 -0.0698681 0.02976675 0.3102439
000370 37 be 0d be 6e 74 44 be 57 18 41 3e d6 d2 0c be
       -0.13842092 -0.1918504 0.18856941 -0.13752303
000380 3b 39 67 3e f9 61 5d 3e b5 4a 80 3e d8 8f 0a be
       0.22580425 0.21619405 0.25056997 -0.13531435
000390 c8 6a 4d bd 97 c0 f7 3d 46 94 87 3e 4d f0 37 3d
       -0.050150663 0.120972805 0.2648031 0.044906903
0003a0 b1 2b 57 3e 91 8b 76 bb 65 19 ed 3d 70 9e d1 3d
       0.2101276 -0.003761981 0.11577109 0.10235298
0003b0 2a 3a fb 3d 24 4b 91 3e c1 10 dd 3d b1 0b 97 3e
       0.12266953 0.2837764 0.10794211 0.29501107
0003c0 a0 1d 6f be 6a 95 80 3e 21 39 f9 bc f4 82 a6 bd
       -0.23351145 0.25113994 -0.030422749 -0.08130446
0003d0 1c b7 09 3e 7e 4c c6 3c eb f7 46 3b b4 27 29 3e
       0.13448757 0.024206396 0.0030360173 0.16519052
0003e0 73 c9 5d 3e b5 06 38 be b6 9f 9f 3d 55 d1 89 bd
       0.21658878 -0.17971309 0.07794134 -0.0672938
0003f0 90 dc d7 bd cd a5 27 bd 32 06 ec 3d 37 2f 19 3e
       -0.10540116 -0.040929604 0.11524619 0.14959417

pre_mono.2.bias f4 [16]
000000 ba e0 cf 3d 8f 7e 5c 3e 22 58 2a 3e f9 b7 42 be
       0.10150285 0.21532653 0.16635182 -0.19015492
000010 cf 3a 2e bc d9 de 29 3d 79 b1 99 3e e9 a0 71 be
       -0.010634138 0.04147229 0.30018213 -0.23596539
000020 0c 2c 54 3e fa fb 8a 3e a2 9f d5 3d 80 02 a3 3e
       0.20719928 0.27145368 0.10430838 0.31837845
000030 40 72 f6 bd 89 b3 47 3d a0 b3 6c 3e dc 5f 2a bd
       -0.1203351 0.048755202 0.23115396 -0.041595325

mono.0.weight f4 [16, 19]
000000 ed 13 9e be b2 49 87 be 82 23 36 be d5 41 5e be
       -0.30874577 -0.26423413 -0.17786983 -0.217048
000010 e2 eb a2 bd 9b 7f 6e be 11 d1 56 3e 47 00 e5 3d
       -0.07955147 -0.23290865 0.2097819 0.111816935
000020 6b 56 fe 3d c0 10 85 3e aa 56 d1 bd e1 4b 60 3e
       0.12418827 0.25989342 -0.10221608 0.21903946
000030 0a 28 73 be 01 44 09 be 1c 92 91 be 4b 8f b8 bd
       -0.23745742 -0.13404848 -0.28431785 -0.09011706
000040 fc c4 63 be 70 3f 93 3e 54 07 77 3e 6b e0 81 3e
       -0.22243112 0.28759336 0.24123889 0.2536653
000050 d1 4b 1b 3e 51 f4 57 be 5e 1a 53 3e 5c a3 94 be
       0.1516564 -0.21089293 0.20615527 -0.29030883
000060 1c 14 36 be b3 2a 6a be 4d c1 c2 bd 2f 0f 02 3e
       -0.17781109 -0.22867851 -0.095095254 0.12701105
000070 fe 1e 83 be 95 8b 83 be 42 59 44 be 63 51 5e 3e
       -0.25609583 -0.2569243 -0.19174674 0.21710734
000080 0b 4d 82 be fd 67 92 be ab 8a 8a be 5a 4e 3f be
       -0.25449404 -0.28594962 -0.2705892 -0.18682232
000090 94 5f 11 be e6 68 9e be d5 f5 41 be 12 ac b4 3d
       -0.14196616 -0.30939406 -0.18941434 0.08821882
0000a0 0d cc f1 3d 67 b6 06 bd 98 81 bc bd 52 e4 38 be
       0.11806498 -0.032888796 -0.092044055 -0.18055847
0000b0 26 75 50 3e 0c 60 62 bd 76 65 74 be d9 84 0d be
       0.20357189 -0.05526738 -0.2386683 -0.13820209
0000c0 92 ed e6 bd 4e e3 96 3e de 85 49 3e 23 04 3a be
       -0.11275782 0.29470295 0.19679973 -0.1816564
0000d0 0a f3 e7 bd 8e 75 8c 3e 21 13 64 3e a4 1f 10 3e
       -0.11325653 0.27433437 0.22272922 0.1407457
0000e0 97 28 2a be 30 ab 8b 3e 69 65 3a 3e 89 b6 3a be
       -0.16617046 0.27279043 0.18202747 -0.18233694
0000f0 de b6 26 3e 69 6a a8 3d f2 c9 4d be d9 27 40 be
       0.16280696 0.08223421 -0.20096567 -0.187652
000100 31 f1 2f be 46 1f 8b be bd 24 b5 3d 5a e2 7a be
       -0.17181851 -0.27172297 0.08844898 -0.24500409
000110 c2 ad 51 3e 5e 1c 38 3e 50 8f 0d 3e 91 0f 8a 3e
       0.2047644 0.17979571 0.138242 0.26965
000120 4d e1 33 be b5 fb a0 3d 1f b9 65 3e c2 e2 26 3e
       -0.17566414 0.07860509 0.224339 0.16297439
000130 7b 52 e0 3d 84 0b 8d 3e b9 86 07 3e 0a 10 1e 3e
       0.10953232 0.27547848 0.13234986 0.15435806
000140 d8 4f 87 be 00 8d 6a be 4c ca 95 be 10 c6 54 3c
       -0.26428103 -0.2290535 -0.29255903 0.012986675
000150 6a 55 8d 3e 33 b6 90 be e1 a4 2f 3e 2f b3 91 be
       0.27604228 -0.28264007 0.1715274 -0.2845702
000160 0f 18 6b be 89 67 2b be f9 b4 31 be 9f d9 0e 3e
       -0.22958396 -0.16738714 -0.17354192 0.13950203
000170 20 71 88 be 4a 20 9e 3e dc f3 ec 3d cd a3 25 3e
       -0.26648808 0.3088401 0.1156995 0.16175766
000180 02 4b 74 be d6 8e 53 3e 42 69 5b bd 72 47 38 be
       -0.23856738 0.20659956 -0.05356718 -0.17996004
000190 12 a2 8f 3d 6b c4 39 3e 66 07 c7 3c 4c bb 25 be
       0.07013334 0.18141334 0.02429552 -0.1618473
0001a0 ae 70 00 3e a5 40 2d be ab e3 23 be f6 21 26 be
       0.12542984 -0.16919191 -0.16004817 -0.16223893
0001b0 1a fc 66 3e 38 94 76 be 81 10 2f 3e 80 fc 46 3e
       0.22557107 -0.24079978 0.1709614 0.19432259
0001c0 cf e4 71 be db 40 84 be 69 43 70 be 83 3d 8e be
       -0.2362244 -0.2583073 -0.23463215 -0.27781305
0001d0 b9 a6 8b 3e 2a 13 4f 3e 2a 7f c9 bd f1 67 7c 3e
       0.27275637 0.20222154 -0.09838708 0.24649025
0001e0 08 50 1a 3e bb 75 66 be fe 3c 95 be f8 15 46 be
       0.15069592 -0.22505848 -0.29148096 -0.19344318
0001f0 a3 5d 9e be 81 15 40 be e3 9b 0e 3e 0d 0c c1 bd
       -0.30930814 -0.18758203 0.13926654 -0.09426127
000200 fc 8d fc bd 7e b6 af 3d fe 98 91 3e 1b 43 ae 3d
       -0.12331769 0.085797295 0.28437036 0.08508893
000210 bc 0d 4b 3e 31 5f 0c be 1d f7 82 be fb f0 ff 3d
       0.19829458 -0.13708188 -0.25579157 0.12497135
000220 3b 61 d8 3d 92 80 4c 3e 74 0e 7d be d8 bd ed bd
       0.1056542 0.1997092 -0.24712545 -0.116084754
000230 c1 59 62 be a9 9f ac 3d af d9 bd 3d c5 c4 1e 3e
       -0.22104551 0.0842889 0.092700355 0.15504749
000240 2d d9 24 be 2c 94 e2 bd f8 d0 14 3e 8c ef 9a be
       -0.16098471 -0.11063418 0.1453284 -0.30260885
000250 9e f2 3c 3e 1b ac 97 3e 3c ab 7b be 81 ee 9c 3e
       0.18451926 0.29623494 -0.2457704 0.30650714
000260 ff f7 f0 3d c0 60 9f 3e e3 40 90 3e a7 23 49 be
       0.117660515 0.31128502 0.28174505 -0.19642507
000270 4c 27 74 3e bc f3 1f 3d 9e 0e 15 3e b4 7f aa bd
       0.23843116 0.039050803 0.14556357 -0.08325139
000280 85 a1 88 be 5b 9e d9 3d 1c 35 15 3e b4 db 4b 3e
       -0.2668573 0.10625907 0.14571041 0.19908029
000290 00 35 8a be 9c 58 9f be cd 81 43 3e 55 09 f0 bd
       -0.2699356 -0.3112229 0.19092484 -0.1172053
0002a0 2b 43 a7 bd 82 83 16 be 34 e1 b4 3d 95 94 f4 3d
       -0.08167108 -0.14698604 0.088320166 0.11942402
0002b0 f4 3a 97 be fb 82 28 3e 3d af ce 3c be b6 30 3e
       -0.29537165 0.16456215 0.025230044 0.1725721
0002c0 20 85 19 be a1 19 81 3e 23 a8 1c 3e 0a 00 49 be
       -0.1499219 0.25214866 0.15298514 -0.19628921
0002d0 25 e0 90 3e 18 54 e0 3d bd 99 91 3e b5 38 92 3e
       0.2829601 0.109535396 0.28437606 0.2855889
0002e0 41 e9 ff 3d 2f d7 ef 3d fe 20 13 3e db 0b 62 3e
       0.124956615 0.11710965 0.14368054 0.22074835
0002f0 31 ba 94 be ad 60 a9 3d b5 26 9a 3e 8f 9c 7b be
       -0.29048303 0.082703926 0.30107656 -0.24571441
000300 23 62 56 be d2 88 c4 3c 0f f4 18 3e e8 2f 1e 3e
       -0.20935874 0.023991022 0.14936851 0.15447962
000310 ad 2b ca 3d 04 ac 5d 3d e3 fe 3d be c6 a1 99 3e
       0.09871612 0.054119125 -0.18554263 0.30006236
000320 89 2a 6d be 9a 16 6d 3e 4b 80 4e 3e 34 3c 94 3e
       -0.23160757 0.23153153 0.20166127 0.2895218
000330 44 70 91 3e 89 49 17 be 76 60 74 3e 25 34 80 be
       0.28405964 -0.14774145 0.23864922 -0.25039783
000340 e0 10 79 3e f0 a7 64 be a4 8d 75 be 10 3b 71 be
       0.24322844 -0.22329688 -0.23979813 -0.23557687
000350 9f 8f 64 3e a5 57 09 3e f3 cc 43 be f4 31 84 be
       0.22320412 0.1341234 -0.1912115 -0.2581936
000360 29 59 c2 3c 38 7b 06 be c1 2f 12 3e f0 8b 66 3e
       0.023724156 -0.13132942 0.14276029 0.2251432
000370 d2 ff 68 be ba 36 92 be e8 fd e6 3d 0a 48 6f 3e
       -0.22753838 -0.28557378 0.112788975 0.23367324
000380 ef 54 58 3e 0f 07 a1 bd 1a 3c 14 be ed c8 20 3e
       0.2112615 -0.078626744 -0.14476052 0.15701647
000390 a6 02 77 3e 78 01 90 be 96 6e d0 bd 5a 9f 31 3e
       0.24122104 -0.2812612 -0.101773426 0.17345944
0003a0 33 ff 78 3e 07 b1 79 3e 8a 46 32 3e 73 f8 67 3e
       0.24316101 0.24383937 0.17409721 0.2265337
0003b0 5b 3e 9b be 17 db 00 3e 1b f1 e7 3d d4 1e 76 3e
       -0.3032101 0.12583576 0.11325284 0.24035197
0003c0 61 92 fb 3d a0 9c 71 3e 9e 2c 90 be e2 dc c5 bd
       0.12283779 0.23594904 -0.2815904 -0.09661271
0003d0 b5 f9 23 3e a5 9a 6a 3e 73 e7 0b 3e 97 c2 6b 3e
       0.16013224 0.22910555 0.1366251 0.23023449
0003e0 f8 36 1f be c4 d3 cc bd b6 69 5c 3e ef a5 60 3e
       -0.15548313 -0.100013286 0.215247 0.21938299
0003f0 8e 07 45 3e d4 ce 91 be a6 a1 4a bb 48 ef 8f be
       0.19241163 -0.2847811 -0.0030919104 -0.28112245

mono.0.bias f4 [16]
000000 b3 b6 db 3d 23 71 cf 3c db fc 58 3c a2 8e ab bd
       0.107282065 0.025322502 0.013243879 -0.083768144
000010 08 a4 0f bc 3c 3d a1 bd a8 68 c0 3d 39 f6 59 3e
       -0.008767135 -0.07873008 0.093949616 0.21285333
000020 a2 e7 41 3e 5e 8e f3 3d 10 24 ba bd 1b 2b 51 3d
       0.18936017 0.11892389 -0.090889096 0.0510665
000030 10 5c 7b 3d a2 ea 7d 3e 0c cd ef 3d ba 20 5e 3e
       0.061367095 0.24796537 0.117090315 0.21692172

mono.1.weight f4 [16, 16]
000000 e3 91 97 3e cb 02 3c bb 3b e1 2b be c1 2c 23 be
       0.2960349 -0.0028688188 -0.16785137 -0.15935041
000010 06 72 8e 3e 1a 49 78 bd 93 4a b7 3d 38 f7 2d 3e
       0.27821368 -0.06061659 0.08949771 0.16988838
000020 00 06 fa bb 57 4b 5d be 97 35 88 ba 90 45 09 3e
       -0.00763011 -0.21610771 -0.0010391948 0.13405442
000030 dd 9b c8 bd ea 4a c6 3d af 13 fe 3d 88 84 36 3e
       -0.097953536 0.096822575 0.12406098 0.17823994
000040 52 66 ac bd 3f c9 9c 3e b8 9a 98 3e 0a 83 77 3e
       -0.084179536 0.3062229 0.2980554 0.24171081
000050 36 9c 0b be ca e1 d5 bd c8 38 db 3d 97 79 d6 bd
       -0.13633808 -0.104434565 0.107041895 -0.1047241
000060 00 98 98 b9 dc af de bd 81 f8 8d bd a4 ae e7 3d
       -0.00029104948 -0.10873386 -0.06932164 0.11312607
000070 f0 26 40 be 30 35 14 3e 36 1e 2d bc f4 bb d6 bd
       -0.18764853 0.14473414 -0.010566285 -0.10485068
000080 ec 9a d5 bd a5 8b 00 be e5 51 8e 3e aa 02 be 3d
       -0.1042994 -0.1255327 0.27796856 0.09277852
000090 89 5a e8 bc 07 ea 26 3c a3 8c 44 be 7d e2 4f be
       -0.028363483 0.010187632 -0.19194274 -0.20301242
0000a0 dc 11 45 be 75 67 38 bd 60 25 b2 bd ff 07 33 3e
       -0.19245094 -0.04502054 -0.08698535 0.17483519
0000b0 f1 11 7e 3e da fa 26 be d8 55 79 3e cc ac 90 bd
       0.24811532 -0.1630663 0.24349153 -0.070642084
0000c0 0d 85 81 bd 67 80 a5 3e 1f 9c 06 be 6a f4 17 3e
       -0.063242055 0.32324526 -0.13145493 0.1483933
0000d0 d8 97 1e 3e 18 3a 24 3e 8a f7 ef bd 96 54 96 3e
       0.15487611 0.16037786 -0.11717136 0.2936141
0000e0 b0 f0 37 be 2c 3d 97 bd 81 b6 a9 3e eb 2c 4b bd
       -0.17962909 -0.073847145 0.33147052 -0.049603384
0000f0 15 f4 b4 bd 38 16 68 be 6e 67 77 be 8c 99 4f be
       -0.088356175 -0.22664726 -0.24160549 -0.20273417
000100 0a c3 49 bd 39 23 10 be f4 85 3c 3e 7f 97 5e bd
       -0.04925827 -0.14075936 0.18410474 -0.054343697
000110 01 5d e1 bd 73 4f f4 bd 56 74 9d 3e ba 9d bb 3d
       -0.11004067 -0.11929216 0.3075282 0.09160943
000120 81 78 09 3e 93 e9 04 3e 42 66 9b 3e 49 57 c3 bc
       0.13424875 0.12979726 0.30351454 -0.023845332
000130 28 32 59 bd 64 c0 b7 bd ea c3 37 be e8 90 86 bd
       -0.05302635 -0.089722425 -0.17945829 -0.065706074
000140 e3 ad d7 3d d8 bb 13 3e 3d 89 fd 3d 47 4b ad 3d
       0.10531213 0.14427125 0.12379692 0.08461624
000150 4a 23 98 3e 90 b5 01 3e f5 99 87 bd ea 0b f2 bd
       0.29714423 0.12666917 -0.06621162 -0.11818679
000160 52 98 68 be be 09 11 be 77 3a 3e 3e 98 ed a6 3e
       -0.22714356 -0.14163873 0.1857699 0.32603145
000170 fc a2 9b bc 0c a5 89 3e c1 8a a1 bd 31 0b 1d 3e
       -0.018998615 0.26883733 -0.07887793 0.153363
000180 65 ef 82 3e 9b 48 35 be 5e cc 5b bb ba d8 8c bd
       0.2557327 -0.17703478 -0.003353856 -0.06877275
000190 f9 13 d5 bc a2 3a 96 3e 5f b2 e4 bd 71 7a 89 3e
       -0.0260105 0.29341608 -0.11166834 0.26851228
0001a0 f3 3f c8 3d 9d de 4f be 1e 9d 80 3d a6 26 df bc
       0.09777822 -0.20299764 0.06279968 -0.027240109
0001b0 53 50 10 be e0 0a 90 3e bb 9b 21 be de 53 94 3e
       -0.14093141 0.28133297 -0.15782063 0.28970236
0001c0 e8 9a 00 be db 1a 84 bc 16 ea 55 3e e8 ad ae bd
       -0.12559092 -0.016126087 0.20890078 -0.08529264
0001d0 d6 6c 00 be 94 2f 61 bd 46 8f 57 3e 14 b6 23 be
       -0.12541518 -0.054977015 0.21050748 -0.15987426
0001e0 dc f5 2f be e9 c4 83 3e 8e 98 09 3e 42 bc 2a bd
       -0.17183632 0.25736168 0.13437101 -0.041683443
0001f0 79 e6 9d 3e e8 1c 08 be cb 14 f2 3d 78 37 1e bd
       0.308399 -0.13292277 0.11820372 -0.038627118
000200 5a 2d 64 be dd 40 05 be 4b 2d 86 3e df c4 96 3e
       -0.22282925 -0.13013025 0.2620643 0.29447076
000210 0b 89 38 be e8 7d 9a 3d 55 78 83 3e 64 cb ba bd
       -0.18021028 0.07543546 0.25677744 -0.09120825
000220 80 87 84 bb a8 15 db bc 0c de d4 bd fb d5 eb 3d
       -0.004044473 -0.026743725 -0.103939146 0.11515423
000230 12 c1 7e 3e 5e 0f 83 3e 1d 3c 81 bd 24 9c 51 be
       0.24878338 0.25597662 -0.06310294 -0.20469719
000240 9d d2 9d bd 5e 00 09 bd 28 96 fe 3d 0c d1 48 3e
       -0.07706187 -0.033447616 0.12430984 0.19610995
000250 95 35 29 3e 83 ba 17 bd 5e ae 5f be 7c 83 3f 3e
       0.16524346 -0.037043106 -0.2184386 0.18702501
000260 c4 f4 0c 3e 2a 28 32 be a8 41 d2 3d 4b 70 5c be
       0.13765246 -0.17398134 0.10266429 -0.21527211
000270 06 92 0c be a5 d7 3b 3e d7 6e 43 3e c7 9e 8f 3e
       -0.13727579 0.1834398 0.19085251 0.28050825
000280 1a 8a 0c be 27 a2 a9 bc 61 90 ed 3d 69 d3 87 3e
       -0.13724557 -0.020707203 0.11599804 0.2652848
000290 8e 69 58 3e d8 aa c0 3d d2 9e 76 3e 83 1c 89 3d
       0.21134016 0.09407586 0.24084023 0.06694891
0002a0 02 ca 50 be 4d 02 52 3e f5 74 1f be b4 14 9a 3d
       -0.2038956 0.2050869 -0.1557196 0.0752348
0002b0 b8 5e 54 3e 56 d2 63 be 41 52 56 3e b2 7e 78 be
       0.20739257 -0.22248206 0.20929815 -0.2426708
0002c0 a4 57 08 bc 68 36 58 3e 4c d6 9e 3e cf a7 41 3e
       -0.008321676 0.21114504 0.3102287 0.1891167
0002d0 c3 2c 17 3e 15 9d 65 3e ca 9c 80 bd 95 ae 04 3e
       0.14763169 0.22423203 -0.06279905 0.12957223
0002e0 84 64 a6 bd a0 db 17 be 92 7c 9f 3e b6 cb 63 be
       -0.081246406 -0.14829874 0.31149727 -0.22245678
0002f0 55 64 03 be 86 ac 03 3e 96 b2 1e bd ae f4 d9 3d
       -0.12831242 0.12858781 -0.03874453 0.10642372
000300 c2 ff 13 be 99 d2 21 be ac 0a 3a be ee 76 5c be
       -0.14453033 -0.15802993 -0.18168133 -0.21529743
000310 c9 5f 5d 3e f8 00 74 bd c4 f0 99 3e 3c bd 84 3e
       0.2161857 -0.059571236 0.30066502 0.25925624
000320 6c c6 63 be 25 5b 4e be aa 29 0d be 2c 39 32 be
       -0.2224366 -0.20151956 -0.13785425 -0.17404622
000330 1f 12 96 3e 50 32 da bc 83 b0 84 3e e9 1e a8 3d
       0.293107 -0.026635319 0.25915918 0.08209021
000340 84 7e 2e 3e 43 fe 28 be 6c c6 4e be df b9 a2 3e
       0.1704045 -0.16503243 -0.2019288 0.31782433
000350 2d b9 37 be 4a 39 a8 3e 74 23 41 be b1 fe 93 3e
       -0.17941733 0.32856208 -0.1886118 0.28905252
000360 c0 0f d7 bc 92 2c e4 3d ba f1 77 bc e6 86 a1 3e
       -0.026252627 0.111413136 -0.015133316 0.31548232
000370 cd c7 9a 3d 8b 70 50 3e ac ee f1 bc 30 29 8e 3e
       0.0755764 0.20355432 -0.029532753 0.277658
000380 50 6d 10 3d 00 6b 85 3e 67 33 e3 3d 10 3e 17 3e
       0.0352605 0.26058197 0.110937886 0.14769769
000390 e9 99 59 be 05 5c cf 3d 14 b4 45 be 48 d6 ab bd
       -0.21250118 0.10124973 -0.19306976 -0.0839048
0003a0 b4 96 03 be bd e0 a7 3e c2 06 14 be 91 dd 2e 3e
       -0.12850457 0.3278865 -0.14455703 0.17076708
0003b0 96 cb 26 be a0 58 80 bc 13 e7 8e 3e be 53 56 be
       -0.162886 -0.01566726 0.2791067 -0.20930383
0003c0 08 b8 3f bd 53 ab 13 3e 74 5b fd 3d 3f 3b 20 3e
       -0.046806365 0.14420824 0.12370959 0.156476
0003d0 29 21 f2 bd 0c 7f 30 bd 16 91 9a 3e 50 d1 78 3d
       -0.11822731 -0.04308991 0.30188817 0.06074649
0003e0 e0 41 c3 bd e0 99 f6 bd a0 30 46 be e1 17 57 be
       -0.09534049 -0.12041068 -0.19354486 -0.21005203
0003f0 8a 56 1c ba 78 1f fd 3d ab fb 7b 3e 30 bf 47 be
       -0.0005963823 0.12359518 0.24607722 -0.19506526

mono.1.bias f4 [16]
000000 f3 a8 d2 3d 99 59 ac 3d 2e 53 87 3c 54 b1 92 bd
       0.10286131 0.08415527 0.016519155 -0.07162729
000010 42 16 16 3d 14 a7 a4 3e e1 cf fe bd d1 a7 25 3e
       0.03664232 0.3215872 -0.124419935 0.16177298
000020 88 6f de ba 18 4f 19 3e 24 2a 20 3e 82 1b 30 3c
       -0.0016970495 0.14971578 0.15641075 0.010748746
000030 f2 3e 19 3c 85 a6 06 3e 50 36 21 3e b0 ee 1f be
       0.009353386 0.1314946 0.15743375 -0.15618396

mono.2.weight f4 [16, 16]
000000 5f a9 92 3e 50 a5 d5 3d 0a fe 53 3e 90 16 16 be
       0.28644845 0.104319215 0.20702377 -0.14657044
000010 b4 b5 54 3e cc 5a 5b 3e 67 e2 20 3d 86 07 a5 3e
       0.20772439 0.21421355 0.039278414 0.32232302
000020 25 ed ed 3d 4a 65 70 3e bf 36 c0 3d 44 74 06 3e
       0.11617497 0.23476139 0.09385442 0.1313029
000030 00 3c 01 3e 84 7a 97 3e 54 05 3c 3e 79 df db bd
       0.12620544 0.2958566 0.18361408 -0.107359834
000040 4c 16 e8 3d 9e 60 53 3e 88 e2 4e be 20 e4 90 bd
       0.11332378 0.20642325 -0.20203602 -0.070747614
000050 1a 51 33 3e 30 52 5a bd 1b ce 57 bd 08 0e 11 be
       0.17511407 -0.053301036 -0.052686792 -0.14165509
000060 e1 3e 42 3e 91 11 79 3e 0f fc 9d 3e ad 2e 69 be
       0.18969299 0.24323107 0.30856368 -0.22771712
000070 03 92 8c 3e f9 4e 24 be 1c a5 92 3e 22 d7 00 3e
       0.27455148 -0.1604575 0.28641593 0.12582067
000080 2b 76 f2 3d ef d7 8a 3d b1 cc 1b be 79 84 7b 3e
       0.11838945 0.06779467 -0.15214802 0.24562253
000090 82 30 b3 bd 90 6e 9b 3e fc 22 d6 3d 61 14 60 3e
       -0.087494865 0.3035779 0.104558915 0.21882774
0000a0 95 9b 33 3e da 99 06 3e 34 1c 62 bc 91 40 24 be
       0.17539819 0.13144627 -0.013800669 -0.16040255
0000b0 bb 73 15 be d0 97 2d be 3a 13 a3 3e fc fe 71 3e
       -0.14594929 -0.16952443 0.31850606 0.23632425
0000c0 a3 1e 99 3e 76 6a 89 3d 82 e4 07 3e 3b 93 50 3e
       0.29906186 0.06709759 0.13270763 0.20368664
0000d0 0b 26 f4 bd 21 c1 90 3e 72 5b 1f be 51 a8 31 be
       -0.119213186 0.28272346 -0.15562227 -0.17349364
0000e0 57 a9 12 3e b5 5c 1b 3e 98 0c af 3d 7e bf 2d 3e
       0.1432241 0.15172084 0.08547324 0.1696758
0000f0 03 0c 3a 3e 7b 89 c8 3d 35 85 02 be b1 50 43 3e
       0.18168645 0.09791847 -0.12746127 0.1907375
000100 5a e3 65 be 54 90 9e 3e f8 a9 55 be a5 59 9f bc
       -0.22450009 0.3096949 -0.20865619 -0.019451926
000110 66 fb b8 bd 5e 5c bd 3d 48 fa fd 3d 39 08 e0 bd
       -0.090323254 0.09246133 0.12401253 -0.10939068
000120 07 4c 96 3e f0 36 a6 bd 51 7e e4 3d a2 f6 13 be
       0.2935488 -0.08115947 0.111569054 -0.14449552
000130 64 3d be 3d a9 69 8e 3d 2c 97 1f 3e 87 49 03 be
       0.09289053 0.06953747 0.15585011 -0.12821017
000140 38 b8 4b be 0c e9 2b be ec 0c 1e be c7 85 eb 3c
       -0.19894493 -0.16788119 -0.15434617 0.028750313
000150 26 09 6b 3e d8 3e 8b 3e 68 d9 8c bd bf d0 34 3e
       0.22952709 0.27196383 -0.068774045 0.17657755
000160 ca 21 64 be 10 4d 8c 3e de ed 04 3d 45 c0 b9 bc
       -0.22278515 0.27402544 0.03245341 -0.02267469
000170 3f 08 2e 3e a4 06 8b 3e c9 5f 54 be e8 c0 77 3e
       0.16995333 0.27153504 -0.20739664 0.24194682
000180 94 61 a9 3e e3 b6 83 3e 5d 81 30 3e a2 ac 6f 3e
       0.3308226 0.2572547 0.17236848 0.23405698
000190 f4 e5 35 bd f2 36 3e be 59 81 34 3e a0 33 8c 3e
       -0.044408754 -0.18575647 0.17627467 0.27383137
0001a0 60 db 40 be 3c f5 43 be c7 33 33 bd e8 e3 02 be
       -0.18833685 -0.19136518 -0.04375055 -0.12782252
0001b0 25 aa 21 3e e3 ad 6a be 91 fb 8d 3e f1 34 4b be
       0.15787561 -0.22917895 0.27730992 -0.19844414
0001c0 f3 82 87 bd 91 14 48 be be 45 90 3e 8e 91 46 3e
       -0.066167735 -0.19539095 0.2817821 0.19391462
0001d0 41 8f d2 bd 33 65 d5 3d 78 29 9a 3e 78 c0 5f be
       -0.1028123 0.10419693 0.30109763 -0.21850765
0001e0 b7 89 95 3e af ea 01 3e aa f5 3f 3e be c1 18 be
       0.2920663 0.12687181 0.18746057 -0.14917657
0001f0 f6 9e 6a 3d 78 f1 1a be db 9d 46 3e 3d 88 a4 bb
       0.057280503 -0.15131176 0.19396155 -0.0050211237
000200 64 c2 a7 3e 0f 27 c1 3d d4 8c 22 3e e0 94 ef bd
       0.32765496 0.09431278 0.15874034 -0.116983175
000210 06 42 a3 bd 80 39 77 bb 72 bd 1a 3e 79 7d 8b 3e
       -0.07971577 -0.0037723482 0.1511133 0.27244166
000220 df ea fa 3d b5 c4 a8 bd 49 d7 d6 3d 9d 92 0f be
       0.12251829 -0.08240644 0.10490281 -0.14020772
000230 0a 13 a8 3e 83 90 20 be d7 39 a5 3e 2d f6 d9 3d
       0.32827026 -0.15680127 0.3227069 0.106426574
000240 35 d5 ac bd c7 18 ec 3d aa 21 52 be 4c 54 a8 bd
       -0.084391035 0.115281634 -0.20520654 -0.08219203
000250 be 35 35 3e 11 67 c3 3d 02 52 55 be d6 dc aa 3d
       0.17696282 0.09541143 -0.20832065 0.08342902
000260 2f 93 b8 3d df 31 f3 3d cc bb ad bc c7 62 48 3e
       0.09012448 0.118747465 -0.021207713 0.1956893
000270 1b ea 0b 3e ac f9 8c 3e 62 e5 25 3e db 91 f9 bd
       0.13663523 0.27534235 0.16200784 -0.12186023
000280 d8 30 4b 3e 28 76 61 be 59 62 5a 3e 65 ab 21 3d
       0.19842851 -0.2201773 0.21326579 0.039470095
000290 43 4b 87 bc bf 37 35 3e fc 3b e1 bc 8d 8d d9 3d
       -0.01651538 0.17697047 -0.027494423 0.10622702
0002a0 97 75 53 be 54 61 fe bd da a5 52 3e 50 e3 45 3e
       -0.20650326 -0.124209076 0.2057108 0.19324994
0002b0 5e c0 3b bd c6 7b 59 be 04 31 9a 3e f2 d1 f6 bc
       -0.045837753 -0.21238622 0.3011552 -0.030129407
0002c0 94 f2 75 3e c4 39 a7 3e b8 c9 53 3e 5b 0d 08 3e
       0.24018317 0.3266126 0.20682418 0.13286345
0002d0 ac 33 69 3d ca 65 09 be 61 cc 67 3e 2e 06 cb 3d
       0.056934044 -0.13417736 0.22636558 0.09913288
0002e0 2b 40 c7 bd 51 6f 99 3e b1 5b ef 3d 87 d4 cd bd
       -0.09729036 0.2996774 0.116874106 -0.10050302
0002f0 19 28 87 3e 37 11 99 3e 19 9c 14 be c1 d9 1c be
       0.2639778 0.29895946 -0.14512672 -0.15317442
000300 c4 b2 55 be 54 a3 b7 bd e2 5d e4 3d 58 94 59 be
       -0.20868975 -0.08966699 0.11150719 -0.21247995
000310 c5 29 3d be e4 82 a5 bd da ca 01 3e 5e 46 fb bd
       -0.18472965 -0.08081606 0.12675038 -0.12269281
000320 e7 7c 28 3e eb 58 dd bc 1f 9c 86 3e 4b cc 01 3e
       0.16453896 -0.027019938 0.26290986 0.12675588
000330 ef b0 27 3e ad ee be bd 58 5f d1 3d be d5 01 be
       0.16376089 -0.093228675 0.102232635 -0.12679192
000340 93 38 20 be e2 4d d4 3d 8e fb 12 bd ff c4 48 3e
       -0.15646581 0.103664175 -0.035884432 0.19606398
000350 56 d5 74 3e e0 8b a1 bc 5a 75 89 3e 32 77 ae 3d
       0.23909506 -0.019720018 0.26847345 0.085188285
000360 ed 29 f4 3d 7a 68 12 3e 11 62 46 3e 91 7b 34 be
       0.11922059 0.14297667 0.19373347 -0.17625262
000370 3f a1 0f 3e b2 82 48 be 84 3c 89 3e 65 a0 08 3e
       0.14026354 -0.19581106 0.26803982 0.13342436
000380 d9 29 99 3e b6 97 39 3e 75 2f 8e 3d f3 bb 39 be
       0.2991474 0.1812428 0.069426455 -0.18138103
000390 f2 78 54 3e bc d6 85 3e 91 17 09 3e da 4b 19 bd
       0.20749262 0.26140392 0.13387896 -0.037425853
0003a0 b8 7a 30 be 5a 43 42 be 78 03 b3 bd 87 a6 99 3e
       -0.17234313 -0.18971005 -0.08740896 0.30009863
0003b0 90 1d 0a be e8 3b 09 be 0e 64 90 3e 79 0d 4f 3e
       -0.1348784 -0.13401759 0.28201336 0.20219983
0003c0 69 a7 e1 bc 84 e7 8b 3e df 4e 05 3e 49 09 44 be
       -0.027545648 0.2732507 0.13018368 -0.19144167
0003d0 70 d0 9b 3e 5b 13 98 3e 7d f9 f3 3d d6 8d 6e be
       0.30432463 0.29702267 0.119128205 -0.23296294
0003e0 43 87 39 be 9a 18 2b 3e a5 22 14 3e 61 75 77 bd
       -0.18118005 0.16708604 0.14466341 -0.060414676
0003f0 3d 18 ef 3d 69 55 94 3e e9 1e e8 bd 39 f9 b8 3d
       0.11674545 0.28971413 -0.11334021 0.090319104

mono.2.bias f4 [16]
000000 a2 ad 6b bd 2d 0b ad bd 3a f0 5c 3e 4c bd a1 3d
       -0.057538636 -0.08449397 0.21576014 0.07897434
000010 48 2c 1e 3e 48 5f 15 3e 1c 33 ae 3d e2 4e b2 bd
       0.1544658 0.14587128 0.08505842 -0.08706452
000020 4f a4 09 3e 1d 68 34 be e2 ab 9a 3d 47 e4 90 3e
       0.13441585 -0.17617841 0.07552315 0.28299162
000030 ba 95 22 be 8a 44 66 3c a6 38 93 3e 99 43 f0 3d
       -0.15877429 0.014054427 0.28754157 0.11731643

mono.3.weight f4 [16, 16]
000000 c0 f2 5a bc 1b c1 15 3e 37 e4 aa 3d 7a 29 1f 3e
       -0.01336354 0.14624445 0.0834431 0.15543166
000010 b6 87 60 be 20 39 fc bc 31 05 63 3e 9e 7d 7b be
       -0.2192677 -0.030788958 0.22169949 -0.24559638
000020 7a 8f 07 3e 0c 54 94 3e 68 94 09 bd 90 f7 78 be
       0.13238326 0.28970373 -0.033588797 -0.24313188
000030 46 0f dd bd 66 24 56 3e e6 fb 12 be 28 41 9b bd
       -0.10793929 0.20912322 -0.14353904 -0.07580787
000040 10 e9 9a 3d 57 25 dd bd 30 96 b5 bd 2c 64 42 3e
       0.075639844 -0.10798138 -0.088665366 0.18983525
000050 c8 a6 72 3d ae e2 c0 3d 5d 69 fa bd 0f 50 cf bd
       0.059241086 0.09418236 -0.12227128 -0.10122692
000060 71 f2 50 be de 02 21 be 22 b6 32 3e b4 e3 21 3e
       -0.20404984 -0.1572375 0.1745229 0.15809518
000070 3c b2 08 3e f0 78 f9 3d 42 6e 0f be 25 12 3c 3e
       0.13349241 0.1218127 -0.14006904 0.18366297
000080 b4 c4 e0 3d a1 3f 37 3e 68 6f 8b 3e 7e db 1c 3e
       0.10975018 0.17895366 0.27233434 0.15318105
000090 f2 ed 72 3e 57 7f 89 3e f9 32 9c 3d 81 48 98 3e
       0.23723581 0.26854965 0.0762691 0.29742816
0000a0 a5 b3 0e 3e 54 77 58 3e 6f 0b 0b 3e 76 90 5b 3e
       0.13935716 0.2113927 0.1357858 0.21441826
0000b0 a6 2e 8b 3e 3b 4e 85 3e da e8 33 3e 4b ab 36 be
       0.27184027 0.26036248 0.17569295 -0.1783878
0000c0 3f ce 9d 3e 3a 56 28 3e 52 83 39 3e 00 8a 01 bb
       0.30821416 0.16439143 0.18116501 -0.0019766092
0000d0 f3 58 d9 bd 86 dd ad 3d c3 5a 8a bd ea e0 83 3e
       -0.10612669 0.08489518 -0.06755593 0.25757533
0000e0 80 f6 78 bb 19 69 5a 3e 67 42 6b be f0 0d c3 bc
       -0.0037988722 0.21329154 -0.22974549 -0.023810357
0000f0 21 cd d6 bd 28 5b 94 3e 0b ef 5b 3e 64 dc 28 be
       -0.10488344 0.28975797 0.21477906 -0.16490322
000100 5f cc 3a 3e ea 6e 22 bd f0 e4 33 be f6 1a 16 be
       0.18242024 -0.039656557 -0.17567801 -0.14658722
000110 2e f5 1e bc 44 ec 1a be b0 93 79 3c 8d 4f 0a bd
       -0.00970201 -0.1512919 0.015232965 -0.03376727
000120 8b 16 8b bc 54 98 9d 3d 02 1e e8 3d 38 49 56 be
       -0.016978523 0.0769507 0.113338485 -0.20926368
000130 c9 34 fe bd e8 7a 9b 3d cd e6 47 3e 9e 16 18 3d
       -0.12412412 0.07591802 0.19521637 0.037130944
000140 0a 68 b5 3d 52 54 c2 bd 09 1a a2 3d eb 92 6f 3e
       0.088577345 -0.09488739 0.07915122 0.23395889
000150 49 5c 51 3e 35 f3 84 3e 1b c1 3f 3e fb ec 5b be
       0.2044536 0.25966802 0.18726008 -0.2147712
000160 b6 cb fd 3d 40 4c d2 3b 8d 63 81 3e 95 25 3f 3e
       0.123923704 0.006417781 0.25271264 0.1866668
000170 98 e3 e0 bd b5 0b 28 bd 90 a9 53 3e 37 b6 e0 bd
       -0.1098091 -0.04102679 0.20670152 -0.10972255
000180 08 41 35 3e e1 fa 31 be 1d 8e 1a 3e c0 d8 8c 3e
       0.17700589 -0.17380859 0.15093274 0.27509117
000190 ee 06 82 bc a9 f7 51 be 4b 91 09 bd e3 9c cd bd
       -0.015872445 -0.20504631 -0.033585828 -0.100396894
0001a0 83 e5 20 3e 73 5c e0 bc 95 e6 99 3e 6c f5 47 3e
       0.15712552 -0.027387833 0.30058733 0.19527215
0001b0 b7 7d c5 3d c4 17 0f 3e 42 f1 49 be 3e 08 93 3e
       0.09643119 0.1397391 -0.19720939 0.28717226
0001c0 c4 49 3b 3e b0 2c 36 3d 62 6f 78 3e 46 9f 73 3e
       0.18289858 0.04447621 0.24261239 0.23791227
0001d0 c3 18 5b be c8 40 3f be 8f 1b 3c be e5 6d b0 bd
       -0.21396165 -0.18677056 -0.18369888 -0.08614711
0001e0 47 e5 14 3e 74 64 c9 bd 56 a4 3e 3e 4a 60 57 be
       0.14540587 -0.09833613 0.18617377 -0.21032825
0001f0 80 6a df bd 38 53 37 3e f8 43 d2 bd 84 16 30 be
       -0.10908985 0.17902839 -0.1026687 -0.17196089
000200 f0 c5 a8 bc 13 12 95 3e 62 63 0d be 54 75 5f 3e
       -0.020602196 0.29115352 -0.13807443 0.21822101
000210 80 00 74 bd d0 af 1c bd d0 72 24 3e 60 8d 64 bc
       -0.05957079 -0.038253605 0.16059422 -0.013949722
000220 72 0c 5c be ed 49 cc bd 00 1a e7 bd f6 5c 38 3e
       -0.21489123 -0.09975038 -0.11284256 0.18004212
000230 ad 39 4a be fc 81 42 3e a0 6b 7e bc e0 72 21 bc
       -0.19748564 0.18994898 -0.0155285895 -0.0098540485
000240 07 c5 d5 3d 82 93 41 3e fe 09 77 be 88 a8 54 be
       0.104379706 0.18903926 -0.24124905 -0.20767415
000250 41 67 09 3e 6c 50 43 3e 8b 09 39 3e ed 85 bd bd
       0.13418294 0.19073647 0.18070047 -0.0925406
000260 c1 12 bb bd 75 48 5b bc f9 46 95 3e 5c 18 db bd
       -0.091344364 -0.013383974 0.2915571 -0.106980056
000270 13 96 b6 3d 0c 52 2f bd 58 66 f4 3d e7 9d e4 bd
       0.08915343 -0.042802855 0.11933583 -0.1116293
000280 70 ab 34 bd 3e 66 74 3e 7c 97 c6 bd 20 04 aa bc
       -0.044108808 0.23867127 -0.09696862 -0.02075392
000290 1e 57 14 be 8c 08 70 be 80 6e 45 bb 00 0c 8d 3e
       -0.14486358 -0.2344076 -0.0030125678 0.27548218
0002a0 cb 20 97 3e 69 dd 25 3e 67 fb 5c 3e e8 75 20 3e
       0.29517207 0.16197743 0.21580277 0.15669978
0002b0 1c b1 4c be b6 3e c2 3d 97 2e 39 3e e2 e5 39 be
       -0.19989437 0.094846174 0.18084179 -0.181541
0002c0 7e d0 f5 bd 6e 05 f6 bd 50 a9 43 bd 00 b6 1f 3a
       -0.12002657 -0.120127544 -0.04776889 0.0006092489
0002d0 bb 7c 2f be 34 cb a0 3d 10 71 2a 3d 88 5f 3e 3e
       -0.17137425 0.07851258 0.04161173 0.1859113
0002e0 2d d2 06 be 43 26 b3 bc e4 78 3f 3e 51 fe 3a 3e
       -0.13166113 -0.02186883 0.1869846 0.18261077
0002f0 f2 8f a9 bd 36 bb bf bd 96 ff 3b be a0 1a 5f bc
       -0.082794085 -0.093618795 -0.18359217 -0.013617188
000300 5e 6c 5c 3e 5b fe 28 be 00 8d 4e bb ba 5e 8b 3e
       0.21525714 -0.16503279 -0.0031517148 0.27220708
000310 9b 80 50 3e aa 0a 64 be 9d 7f 62 3e c2 5f 34 3e
       0.20361559 -0.22269693 0.22118993 0.17614654
000320 fc e7 65 3e cd 7c 32 bd 77 3e d2 3d 7a 4e fa 3d
       0.22451776 -0.04357605 0.102658205 0.122219995
000330 d9 21 92 bd f9 5f 45 3d 1b f2 15 3e 82 21 4f 3e
       -0.07135362 0.04818723 0.14643137 0.20227626
000340 30 8d 9a 3e a4 9e e3 bd 88 43 24 bd 1e 63 0d 3e
       0.30185843 -0.11114243 -0.040103465 0.13807341
000350 4d 59 00 3e 08 84 b7 bd ee 53 6e 3e f2 88 22 be
       0.12534066 -0.0896073 0.23274204 -0.15872553
000360 64 e3 3b be 27 e5 2c 3c 90 de 5b 3e 1f 3d 77 3e
       -0.18348461 0.010552681 0.2147162 0.2414441
000370 df 0a cc bc c2 1d 7e 3e b8 64 3f be 90 52 56 be
       -0.024907527 0.24816039 -0.18690765 -0.20929933
000380 19 e0 06 3e ff e8 23 3e c5 0a 0b 3e b0 91 f9 bc
       0.13171424 0.1600685 0.13578327 -0.030464977
000390 83 5f 92 3e 12 e2 74 be 76 96 20 3e d5 ab 03 3e
       0.28588495 -0.23914364 0.15682396 0.12858517
0003a0 cf ab 2d 3e 7b b3 28 be 20 03 98 bd 2a 9c 3b be
       0.16960071 -0.16474716 -0.07422471 -0.1832129
0003b0 d8 12 45 3e ef 8a 2b 3e 9c 40 15 3e a2 36 9f 3e
       0.1924547 0.16752218 0.14575428 0.3109637
0003c0 cf f7 a0 3e e7 8f 34 be d4 69 db bd 7e 76 29 3e
       0.31439063 -0.1763302 -0.107135445 0.16549107
0003d0 a0 34 06 3e d0 0f 89 bc 6f f2 86 3e 93 4d 6c 3e
       0.13106012 -0.016731173 0.26356837 0.23076467
0003e0 91 79 94 3e 6a 65 14 3e c7 02 48 3e a4 4b 26 be
       0.28998998 0.14491811 0.1953231 -0.16239792
0003f0 0a 81 6b 3e cc 71 30 3e 5a c4 48 3e 67 a4 f4 3d
       0.22998443 0.1723091 0.19606152 0.1194542

mono.3.bias f4 [16]
000000 4e 32 6d bd df 91 e6 3d 04 49 87 3e a2 31 ab 3d
       -0.057909302 0.112582915 0.26422894 0.08359076
000010 05 9f 2f bc de 5a 68 be b5 25 88 3e 3c 67 4b 3d
       -0.010719066 -0.22690913 0.26591268 0.049659
000020 ca 0b 20 be cc dd 1f be 96 7e 24 be cb 86 08 3e
       -0.15629497 -0.15611953 -0.16063914 0.1333267
000030 c0 dd 32 be f7 28 60 39 1a 7a d2 bd 11 83 3b bd
       -0.17467403 0.00021377565 -0.10277195 -0.04577929

mono.4.weight f4 [1, 16]
000000 11 31 a8 3e 79 bc 1f be a7 75 84 3e 1d 4f 1d 3e
       0.32849935 -0.1559924 0.25871012 0.1536221
000010 42 fe 9e bd 95 be 21 bd d0 14 aa 3d 81 d7 03 bd
       -0.077633396 -0.039488394 0.08304751 -0.032187942
000020 61 8a 19 3e b7 7d 29 3d ed 19 a5 3e 57 36 31 be
       0.14994194 0.041379657 0.32246342 -0.17305885
000030 b7 5d 63 be cb a6 32 3e 6f b8 bd 3d 25 98 8c 3e
       -0.22203718 0.17446439 0.092636935 0.27459827
