models/auto-5.pth (torch, 31570 bytes, 15 tensors)

pre_mono.0.weight f4 [32, 7]
0.20200887 -0.08530725 0.14332026 -0.25162965 0.3152814 -0.002984877 -0.3910899 0.06789705
-0.1482414 0.052420426 -0.17499611 -0.27599153 0.07066326 0.3518038 0.31886947 -0.22070773
-0.305175 -0.14606643 -0.008760357 -0.2551416 0.36343434 -0.10785024 0.39796808 -0.06434975
0.37294245 -0.056916792 -0.3828679 0.19812976 0.026188876 -0.34401754 -0.27756545 -0.34047222
-0.2556796 -0.17165075 -0.002967615 0.10253629 0.101498105 0.13738641 0.3511973 -0.09752251
0.3237563 -0.333043 0.26323658 0.2740724 -0.3350834 -0.03668648 0.039365217 -0.34468952
0.008405439 0.17697017 0.23476228 -0.068403356 -0.14490241 0.17258899 -0.30070072 -0.161945
0.1509421 -0.29659352 0.30308926 0.3170248 -0.1858161 -0.18058653 -0.27860615 0.029098792
-0.3546374 0.02445051 -0.051132858 -0.14981891 -0.13949199 0.28384852 -0.34992853 -0.036365893
0.29222757 0.0870703 0.3068145 -0.30629292 0.18383768 -0.19379662 -0.049267 -0.3872988
-0.012581274 -0.0027587696 -0.04157288 0.33330944 -0.02860373 0.1666587 -0.28386337 -0.29208463
-0.3221802 0.051118076 0.11887421 0.12267498 -0.19201641 -0.4038096 -0.026912495 -0.31000352
0.1478138 0.13010573 -0.18013267 -0.14214417 -0.1911518 0.0034095084 0.26911747 -0.2728447
0.36040276 -0.13453147 -0.12420924 -0.36715916 0.25623477 0.16890761 0.42345133 -0.30625144
0.27642447 0.17268999 -0.09654712 0.29865888 0.015641969 0.43364948 -0.044987813 0.37147337
-0.12006093 0.3207206 0.2571854 0.115853846 -0.31181794 0.3563863 0.006225725 0.17904978
-0.35292423 -0.2019572 -0.3635536 0.23009604 0.090814345 -0.2548009 0.11554837 -0.11868225
0.31533802 -0.32746255 0.052786034 0.1186142 0.1004427 0.27644435 -0.3558405 0.31526297
-0.24691825 -0.34995574 -0.1936587 0.28458333 0.30564013 0.35349733 -0.18504599 0.3545506
0.15130018 -0.12719207 0.061551433 0.006499413 0.2749951 -0.336237 0.046683606 0.20518202
-0.077984706 0.11257772 -0.30452004 -0.115532346 0.04700056 0.17900547 0.016458431 0.39028183
-0.24202473 -0.10081347 -0.017545642 -0.17896007 0.3830246 -0.08154568 0.24385934 0.20567603
-0.38186267 0.2660305 -0.13364716 -0.18806885 -0.24670485 0.16114445 -0.18233223 -0.06238642
0.057617314 -0.12159902 -0.03727576 -0.3277155 -0.31036314 -0.023948226 -0.02294801 -0.1377772
0.14412273 0.025140187 -0.028560357 0.19213773 0.2489949 -0.27956814 -0.37040076 -0.36352658
0.36594933 0.35908565 0.17649645 0.026609242 -0.35863853 0.28238067 -0.076081 -0.013055619
0.26171738 0.0135089895 -0.26976526 0.06977549 -0.21258298 0.116558105 -0.009449979 0.4001266
-0.17979337 0.25324118 0.118611135 -0.27632612 -0.37934408 -0.16275632 -0.29066992 -0.36108127
00000000: 6adb 4e3e 91b5 aebd 8cc2 123e 9ad5 80be
00000010: 906c a13e ed9d 43bb ef3c c8be 9c0d 8b3d
00000020: 98cc 17be cdb6 563d 2e32 33be c34e 8dbe
00000030: e6b7 903d a11f b43e dc42 a33e 3501 62be
00000040: e63f 9cbe 7092 15be 9a87 0fbc eba1 82be
00000050: 1114 ba3e 96e0 dcbd 79c2 cb3e cdc9 83bd
00000060: 50f2 be3e 9521 69bd 4307 c4be 87e2 4a3e
00000070: 0e8a d63c 1123 b0be 0f1d 8ebe 6052 aebe
00000080: 70e8 82be 37c5 2fbe 517c 42bb 8cfe d13d
00000090: 3dde cf3d 06af 0c3e 22d0 b33e e2b9 c7bd
000000a0: 63c3 a53e 9d84 aabe f2c6 863e 3853 8c3e
000000b0: 0d90 abbe 9044 16bd 6c3d 213d 257b b0be
000000c0: f7b6 093c ab37 353e 8665 703e 0f17 8cbd
000000d0: 4c61 14be 2bbb 303e 72f5 99be e9d4 25be
000000e0: 9190 1a3e 1bdb 97be 842e 9b3e 1351 a23e
000000f0: 9346 3ebe adeb 38be 77a5 8ebe 9760 ee3c
00000100: 0993 b5be 704c c83c b070 51bd 216a 19be
00000110: fdd6 0ebe 9854 913e d529 b3be 67f4 14bd
00000120: da9e 953e ea51 b23d ca16 9d3e 6dd2 9cbe
00000130: f23f 3c3e 9f72 46be 32cc 49bd 074c c6be
00000140: b021 4ebc 79cc 34bb 5348 2abd 89a7 aa3e
00000150: 5f52 eabc 94a8 2a3e 8a56 91be 1e8c 95be
00000160: cef4 a4be 3061 513d 5274 f33d 053d fb3d
00000170: f39f 44be 22c0 cebe 9877 dcbc c8b8 9ebe
00000180: 805c 173e 703a 053e b374 38be 3e8e 11be
00000190: 4cbd 43be 0f72 5f3b c4c9 893e 4db2 8bbe
000001a0: b686 b83e 9ec2 09be 6a61 febd 49fc bbbe
000001b0: 3431 833e 1ef6 2c3e 9dce d83e fdcc 9cbe
000001c0: 8287 8d3e a5d5 303e 7fba c5bd d1e9 983e
000001d0: 9623 803c 4e07 de3e 2445 38bd c231 be3e
000001e0: 81e2 f5bd 7e35 a43e cead 833e c844 ed3d
000001f0: 9aa6 9fbe 4478 b63e 2b01 cc3b d358 373e
00000200: 7cb2 b4be decd 4ebe b323 babe 4c9e 6b3e
00000210: dffc b93d 4375 82be a0a4 ec3d ae0f f3bd
00000220: fc73 a13e 2ca9 a7be 2b36 583d 00ec f23d
00000230: e7b4 cd3d 1d8a 8d3e ba30 b6be 266a a13e
00000240: 23d8 7cbe 662d b3be 774e 46be e8b4 913e
00000250: dd7c 9c3e 9afd b43e b27c 3dbe a887 b53e
00000260: 6fee 1a3e a33e 02be 5b1d 7c3d 07f9 d43b
00000270: 28cc 8c3e 4227 acbe 4f37 3f3d 3c1b 523e
00000280: 72b6 9fbd 268f e63d 0dea 9bbe 399c ecbd
00000290: a983 403d 364d 373e d5d3 863c 05d3 c73e
000002a0: 55d5 77be 4b77 cebd e1bb 8fbc 4f41 37be
000002b0: cd1b c43e 6c01 a7bd 43b6 793e bd9c 523e
000002c0: 8183 c3be 2635 883e cdda 08be 1f95 40be
000002d0: 32a0 7cbe 0d03 253e 4db5 3abe e788 7fbd
000002e0: 2200 6c3d e808 f9bd 78ae 18bd 53ca a7be
000002f0: ebe7 9ebe 122f c4bc 77fd bbbc 7715 0dbe
00000300: e994 133e cbf2 cd3c 69f7 e9bc c1bf 443e
00000310: 85f8 7e3e 8e23 8fbe 2ba5 bdbe 2820 babe
00000320: b65d bb3e 13da b73e 7cbb 343e a0fb d93c
00000330: 789f b7be 3394 903e 5bd0 9bbd 3ce7 55bc
00000340: d2ff 853e cf54 5d3c ac1e 8abe 74e6 8e3d
00000350: 5aaf 59be 04b6 ee3d 16d4 1abc 65dd cc3e
00000360: c11b 38be d4a8 813e 65ea f23d 9e7a 8dbe
00000370: 6339 c2be 98a9 26be b0d2 94be a5df b8be

pre_mono.0.bias f4 [32]
-0.06655937 -0.15314509 -0.1377588 -0.14416695 0.25355366 0.23862123 -0.3260741 -0.16170022
0.4684212 -0.17438439 0.14738695 0.40897048 0.32454732 0.41670743 0.04446418 0.3509453
-0.16976501 -0.32375017 -0.1419072 0.09091118 -0.095724575 0.15556331 -0.0045179655 -0.14124744
0.020764425 0.3880328 0.08211162 0.1838626 0.2653576 0.32108098 -0.02723333 0.34956536
00000000: 4750 88bd 11d2 1cbe a510 0dbe 80a0 13be
00000010: c9d1 813e 2059 743e 2ff3 a6be be94 25be
00000020: e7d4 ef3e d291 32be 9bec 163e 9464 d13e
00000030: 112b a63e ad5a d53e 1220 363d 1aaf b33e
00000040: e1d6 2dbe 95c2 a5be 1f50 11be a42f ba3d
00000050: 3f0b c4bd fd4b 1f3e 710b 94bb 2ba3 10be
00000060: 281a aa3c 3cac c63e 232a a83d 7a46 3c3e
00000070: f4dc 873e ba64 a43e 6f18 dfbc 3bfa b23e

pre_mono.1.weight f4 [32, 32]
0.13498203 0.07362728 0.08519918 -0.1819253 -0.062377658 0.14071104 -0.056319103 -0.15557423
0.0559698 -0.09232877 -0.068731725 -0.121224076 0.18123716 0.15333769 0.16322415 0.18975718
0.1855212 -0.18681002 0.20506042 -0.11398895 -0.07816285 0.18715894 0.13327931 0.09045435
0.038977858 0.03193826 -0.10259689 0.0022808309 0.15982914 0.08979129 -0.01550788 -0.0197076
-0.11510335 0.09280063 0.09285693 -0.07700288 -0.023376385 -0.02434442 0.07347215 -0.20619562
0.09996544 -0.062045548 0.049542293 -0.051185884 -0.13703302 0.010235028 -0.03727909 -0.00060641195
-0.0855457 -0.036855165 -0.19119355 -0.11954861 0.010987109 -0.08099648 0.008789061 0.123789415
0.042512458 -0.17815457 0.09867399 0.025886659 0.118368685 -0.120630406 0.14330363 -0.019494204
-0.025871912 -0.15778665 0.011161511 -0.0072606797 -0.047779366 -0.10749405 0.051981997 0.097322494
-0.1302982 -0.0857158 0.010712853 0.04281649 -0.18291438 -0.08492301 -0.19093318 0.12733157
-0.07328515 0.15114108 0.018890042 -0.15855081 -0.13288622 -0.09229132 -0.19020595 -0.06719312
0.104363054 -0.005274128 -0.08209389 0.04664786 -0.17290044 0.09468125 -0.00082378095 -0.014247545
0.12343889 -0.09613558 0.15544838 0.15742674 -0.056447007 0.21477899 0.072792314 0.11001905
-0.08554762 0.014982881 -0.04817655 0.18990262 -0.10126 0.101218715 0.076349124 -0.08020303
0.17999256 -0.15527171 -0.06085734 0.09304384 -0.05898923 0.19064732 0.10490351 0.19275627
-0.02609788 -0.069567606 -0.1108845 0.1255966 0.12955803 -0.038354315 -0.076276205 0.19554321
0.18530168 -0.02784496 -0.11049662 -0.0037087344 0.10035917 -0.03720498 0.06992278 -0.08859141
0.17429407 0.071636006 -0.03341147 -0.015966523 -0.010901771 0.122417584 -0.104234286 -0.009794864
0.11040716 -0.00089500623 0.084325805 0.01354911 0.115560144 0.022460924 0.086421475 -0.011585339
-0.014494611 -0.13800587 0.17532802 0.076222636 -0.18769802 -0.07289726 -0.047861353 -0.07321309
-0.075608745 0.14380836 0.15944925 0.059632797 0.08110559 -0.049492918 0.18230987 0.043149322
-0.24106525 0.14881438 -0.04316287 -0.11666635 -0.12730974 0.01802101 0.09301516 -0.1379601
-0.11661008 0.08667212 0.1125775 0.093813494 -0.19267887 -0.08264162 0.08201977 0.09031229
0.042219665 -0.0212478 0.07174525 0.046198595 0.06734454 -0.0013680368 -0.113593765 -0.0019549944
-0.06418979 0.1646237 -0.018748904 0.09219406 0.01845906 0.18614382 -0.11671573 -0.114267714
0.0683241 0.0060212165 0.03157162 0.034037612 -0.1470403 0.013792674 -0.051251747 0.04726535
0.053511478 0.06809914 0.023796435 0.15258212 0.16402273 0.17086484 0.0041292747 -0.011997921
0.097882114 -0.10295916 0.0456197 -0.12329693 -0.0030736635 0.10142567 -0.12830162 -0.10630915
-0.17553158 -0.09892289 0.08552214 -0.21150942 -0.071769774 0.15531032 -0.025208876 -0.050994158
0.18566674 0.05013294 0.044138275 0.03962602 0.0010338433 -0.16707245 0.13089778 0.06379839
-0.05579605 0.030253382 -0.15234265 0.026012251 -0.109007105 -0.122262925 0.025161855 -0.06011891
0.027350968 0.019620737 -0.044956733 0.009564235 -0.0049535874 0.020012703 0.13152307 -0.15070699
00000000: bb38 0a3e e6c9 963d e87c ae3d a04a 3abe
00000010: b77f 7fbd 8e16 103e dcae 66bd da4e 1fbe
00000020: 9740 653d de16 bdbd 38c3 8cbd 5444 f8bd
00000030: 3c96 393e 8e04 1d3e 3b24 273e b54f 423e
00000040: 45f9 3d3e 204b 3fbe 5cfb 513e 0a73 e9bd
00000050: d813 a0bd 98a6 3f3e 5f7a 083e 2140 b93d
00000060: 3fa7 1f3d b1d1 023d 511e d2bd fe79 153b
00000070: 40aa 233e 7fe4 b73d c314 7ebc d571 a1bc
00000080: 4ebb ebbd 420e be3d c62b be3d b0b3 9dbd
00000090: d57f bfbc f36d c7bc 9178 963d f224 53be
000000a0: aeba cc3d 7923 7ebd dcec 4a3d 4aa8 51bd
000000b0: 6252 0cbe d2b0 273c f6b1 18bd 9ef7 1eba
000000c0: 9532 afbd 71f5 16bd 3ec8 43be e7d5 f4bd
000000d0: 4603 343c 7ce1 a5bd feff 0f3c 4e85 fd3d
000000e0: 8b21 2e3d 276e 36be 9715 ca3d 4210 d43c
000000f0: 486b f23d 130d f7bd 30be 123e 4fb2 9fbc
00000100: 55f1 d3bc d392 21be c5de 363c ffea edbb
00000110: 4cb4 43bd d725 dcbd 13eb 543d 0451 c73d
00000120: e46c 05be c48b afbd f684 2f3c 5860 2f3d
00000130: e84d 3bbe 1dec adbd fd83 43be 3563 023e
00000140: 8616 96bd bac4 1a3e 4abf 9a3c 255b 22be
00000150: 5313 08be 3b03 bdbd 59c5 42be 8c9c 89bd
00000160: 4cbc d53d 98d2 acbb d720 a8bd d411 3f3d
00000170: d00c 31be 3ee8 c13d 01f3 57ba 896e 69bc
00000180: 87cd fc3d bbe2 c4bd dc2d 1f3e 7a34 213e
00000190: fa34 67bd 06ef 5b3e 2314 953d ab51 e13d
000001a0: 9733 afbd c27a 753c c654 45bd d575 423e
000001b0: 6761 cfbd c24b cf3d ee5c 9c3d 7c41 a4bd
000001c0: f84f 383e 8cff 1ebe 8c45 79bd c58d be3d
000001d0: b19e 71bd 0d39 433e a7d7 d63d e661 453e
000001e0: 39cb d5bc 7679 8ebd 6a17 e3bd 659c 003e
000001f0: dcaa 043e 6a19 1dbd b336 9cbd 7b3c 483e
00000200: b9bf 3d3e 1d1b e4bc 0d4c e2bd 3d0e 73bb
00000210: 1c89 cd3d 4064 18bd ad33 8f3d 6a6f b5bd
00000220: 257a 323e e6b5 923d 77da 08bd 3acc 82bc
00000230: 579d 32bc 12b6 fa3d c978 d5bd a37a 20bc
00000240: 261d e23d da9e 6aba 02b3 ac3d 16fd 5d3c
00000250: ccaa ec3d f9ff b73c befd b03d 6fd0 3dbc
00000260: ce7a 6dbc 6951 0dbe 3089 333e 9d1a 9c3d
00000270: e933 40be 294b 95bd 440a 44bd bff0 95bd
00000280: c2d8 9abd 8042 133e aa46 233e 8541 743d
00000290: b01a a63d 16b9 4abd 70af 3a3e 58bd 303d
000002a0: cfd9 76be cc62 183e 8dcb 30bd c4ee eebd
000002b0: 7c5d 02be cca0 933c bb7e be3d 6a45 0dbe
000002c0: 44d1 eebd 2781 b13d 088f e63d 4a21 c03d
000002d0: 9c4d 45be 0240 a9bd fbf9 a73d a6f5 b83d
000002e0: 87ee 2c3d de0f aebc 2cef 923d bd3a 3d3d
000002f0: efeb 893d b34f b3ba d9a3 e8bd 5d1f 00bb
00000300: f075 83bd 1d93 283e 4d97 99bc 3dd0 bc3d
00000310: 7437 973c 7c9c 3e3e a808 efbd 3105 eabd
00000320: 81ed 8b3d a04d c53b 3e51 013d 066b 0b3d
00000330: bb91 16be abfa 613c 5aed 51bd 5099 413d
00000340: da2e 5b3d 9077 8b3d bef0 c23c 7d3e 1c3e
00000350: 93f5 273e 31f7 2e3e de4e 873b ee92 44bc
00000360: 6b76 c83d 41dc d2bd b9db 3a3d 1a83 fcbd
00000370: 846f 49bb 43b8 cf3d 8061 03be 9db8 d9bd
00000380: 8dbe 33be 1698 cabd 3b26 af3d ed95 58be
00000390: 08fc 92bd ab09 1f3e d882 cebc 40df 50bd
000003a0: 6c1f 3e3e 3358 4d3d 56ca 343d e54e 223d
000003b0: 0682 873a 0a15 2bbe 110a 063e bba8 823d
000003c0: 668a 64bd f1d5 f73c b6ff 1bbe a517 d53c
000003d0: 1e3f dfbd fc64 fabd 3c20 ce3c 3f3f 76bd
000003e0: 230f e03c abbb a03c 8d24 38bd 4fb3 1c3c
000003f0: b451 a2bb aef1 a33c fcad 063e ef52 1abe

pre_mono.1.bias f4 [32]
0.106781155 -0.009360709 0.122305445 -0.00052222406 0.07369598 -0.014764774 0.19824393 0.067427896
0.08245465 -0.05385303 -0.004417654 -0.042573452 -0.048051424 -0.09670717 0.11478232 -0.1144466
0.13693531 0.18352997 0.104854606 0.03920508 -0.06272993 -0.008759137 -0.08327606 0.22601095
-0.18583547 -0.06023255 0.0707657 0.086678915 0.14484183 -0.15503035 -0.04220658 0.20407888
00000000: 14b0 da3d a95d 19bc 477b fa3d dde5 08ba
00000010: ebed 963d f3e7 71bc 7500 4b3e a317 8a3d
00000020: fcdd a83d ff94 5cbd f8c1 90bb 8061 2ebd
00000030: 92d1 44bd 690e c6bd fe12 eb3d fb62 eabd
00000040: c538 0c3e 48ef 3b3e 03be d63d 8295 203d
00000050: 8d78 80bd 7c82 0fbc a48c aabd 6a6f 673e
00000060: a74b 3ebe 68b6 76bd 9bed 903d b784 b13d
00000070: 6b51 143e 47c0 1ebe cfe0 2cbd 0efa 503e

pre_mono.2.weight f4 [32, 32]
0.06445675 -0.009376525 0.14058606 0.1474862 0.015465994 -0.010484787 -0.02570719 -0.053595778
0.02364771 -0.11159148 0.023339031 0.008402227 0.017854882 0.004937819 0.09981888 -0.08833128
0.14959504 -0.11202688 -0.11953369 0.074096054 0.16813235 -0.14128765 0.13916871 -0.07760939
0.021434244 -0.08269757 0.05467207 -0.10864508 0.044121042 0.14164774 -0.13453987 -0.16383591
-0.07111394 0.08457371 0.0357004 0.198132 0.031775877 -0.1319371 0.10022473 -0.13483411
0.14157265 0.024995487 0.080376744 -0.05320269 -0.15070552 0.07942495 0.0943704 -0.031121172
-0.09713426 0.20132676 0.07421181 0.11657105 -0.006427471 -0.12839875 -0.08322422 0.16854548
0.18520868 0.06412293 -0.04618053 -0.086821295 -0.04323717 0.041019194 0.1786975 0.052109413
0.12587601 0.16146688 0.098644935 0.013093676 0.10124009 -0.067338824 0.17255606 0.10962566
-0.04082035 -0.046406604 0.13721493 -0.16930138 0.043783218 0.06016752 0.19106701 -0.07013781
0.19599296 -0.02127989 0.022991968 0.079931624 0.032353353 -0.063469686 0.17033693 -0.11534355
0.11410802 0.096955225 0.14369562 -0.14332157 -0.11662874 0.2207777 -0.11378379 0.009156585
0.11300791 -0.034703013 0.07610862 -0.08083874 -0.10074347 -0.16258195 0.046290815 0.10791477
0.09641475 -0.07832754 -0.03869942 0.084571324 0.11065056 0.22142819 0.16450359 0.07069799
0.053861994 0.18100004 -0.032448743 0.01123274 -0.013933341 0.0040292433 0.11717643 0.12782216
-0.0711048 0.18581188 -0.0058143903 -0.01943887 0.102345586 -0.056074593 -0.057506528 0.17794777
-0.019581983 -0.0013816049 -0.0062539936 0.1200066 -0.005126972 0.113209195 -0.0025074366 0.15190151
0.06477454 0.11790665 0.08618767 -0.14474343 -0.09826358 0.07473758 -0.069778286 -0.022920804
-0.041044615 -0.020282738 0.1468961 -0.021211635 -0.1514525 0.10567156 -0.0014432524 -0.046954896
0.0069435793 -0.06366375 -0.057468005 0.17428912 0.12941703 0.14172475 0.024720158 -0.11533613
-0.07316203 0.16152331 -0.041209396 0.15383373 -0.061259102 -0.12009903 -0.12190113 -0.049791396
0.043848306 0.19984838 0.10774686 0.049115274 0.08668419 0.1534903 0.21349575 -0.060555276
-0.10635374 -0.07760936 0.1981929 -0.086815335 -0.13432908 0.060768705 0.025409434 0.012449607
0.058276683 0.09151323 -0.025092887 0.13033193 -0.063462295 0.0045533027 -0.109781176 -0.12178162
0.061175223 0.10162266 -0.0031169911 -0.13811834 0.11759421 -0.037201885 -0.053675644 -0.084413886
-0.07912796 0.037407834 -0.15508574 -0.024607163 -0.061394755 0.11951586 -0.05430325 -0.042295206
0.004733407 0.0045914985 0.040257026 -0.022844655 0.14359945 0.17063549 -0.096689865 0.09829572
-0.13943712 -0.10868509 -0.11878291 -0.09485444 -0.17094988 -0.111822635 0.16379768 -0.11111053
0.16472119 0.013701599 0.05106863 0.18229589 -0.012843212 -0.107947096 -0.07342109 -0.11629212
0.18815328 0.14366816 -0.09106194 -0.14677604 -0.07657871 0.05591239 0.050904416 -0.13894005
0.12434001 0.04247719 0.21915336 -0.023837445 -0.09533433 0.06482691 -0.15276867 -0.051901124
-0.07853841 0.058152862 -0.075057015 0.07586548 0.0073163128 -0.0010128851 0.14495072 -0.069664955
00000000: e701 843d ff9f 19bc cbf5 0f3e 9f06 173e
00000010: 1565 7d3c 62c8 2bbc e397 d2bc 3f87 5bbd
00000020: d8b8 c13c 138a e4bd 7f31 bf3c 7fa9 093c
00000030: 6744 923c 6ecd a13b d76d cc3d 08e7 b4bd
00000040: 712f 193e 596e e5bd 14ce f4bd acbf 973d
00000050: e32a 2c3e b6ad 10be 3e82 0e3e acf1 9ebd
00000060: de96 af3c 585d a9bd d2ef 5f3d 5081 debd
00000070: 44b8 343d 1b0c 113e d2c4 09be 9ac4 27be
00000080: 2fa4 91bd fb34 ad3d 953a 123d 1de3 4a3e
00000090: 6c27 023d 851a 07be a042 cd3d f411 0abe
000000a0: 6cf8 103e 56c3 cc3c 909c a43d 10eb 59bd
000000b0: 8c52 1abe 8ca9 a23d 4545 c13d d4f1 febc
000000c0: 54ee c6bd 9a28 4e3e 5dfc 973d cdbc ee3d
000000d0: 899d d2bb f67a 03be 7671 aabd 3097 2c3e
000000e0: 58a7 3d3e e252 833d cc27 3dbd 5dcf b1bd
000000f0: 7519 31bd be03 283d 7afc 363e ae70 553d
00000100: a4e5 003e 9357 253e 5b06 ca3d dc86 563c
00000110: f756 cf3d f0e8 89bd 89b2 303e 6b83 e03d
00000120: 3d33 27bd da14 3ebd 1282 0c3e 575d 2dbe
00000130: 0856 333d 3872 763d 12a7 433e 6aa4 8fbd
00000140: 61b2 483e 2a53 aebc a759 bc3c 31b3 a33d
00000150: f384 043d 65fc 81bd ce6c 2e3e 3d39 ecbd
00000160: 77b1 e93d 7690 c63d f224 133e e4c2 12be
00000170: 0ddb eebd 8d13 623e 7a07 e9bd 8005 163c
00000180: b170 e73d bf24 0ebd d6de 9b3d c88e a5bd
00000190: 9852 cebd e27b 26be 709b 3d3d 6b02 dd3d
000001a0: 1975 c53d 306a a0bd 4883 1ebd bb33 ad3d
000001b0: c39c e23d 12be 623e a173 283e 1cca 903d
000001c0: 659e 5c3d 1358 393e f9e8 04bd 8709 383c
000001d0: ab48 64bc be07 843b 32fa ef3d d0e3 023e
000001e0: 659f 91bd 7845 3e3e a486 bebb 443e 9fbc
000001f0: 909a d13d 79ae 65bd f78b 6bbd f137 363e
00000200: 656a a0bc f816 b5ba 4dee ccbb 05c6 f53d
00000210: 2900 a8bb 39da e73d ce53 24bb 128c 1b3e
00000220: 84a8 843d 0b79 f13d 2983 b03d 9f37 14be
00000230: 6a3e c9bd 0410 993d ebe7 8ebd 69c4 bbbc
00000240: 661e 28bd fc27 a6bc ee6b 163e 06c4 adbc
00000250: 5d16 1bbe 556a d83d 842b bdba c753 40bd
00000260: f786 e33b 2462 82bd 9263 6bbd d978 323e
00000270: e685 043e 4b20 113e ee81 ca3c 5935 ecbd
00000280: f9d5 95bd 5e66 253e 2fcb 28bd 9786 1d3e
00000290: d3ea 7abd 7bf6 f5bd 4da7 f9bd 10f2 4bbd
000002a0: 489a 333d 0ea5 4c3e 63aa dc3d 192d 493d
000002b0: 7b87 b13d 902c 1d3e a19e 5a3e cf08 78bd
000002c0: fdcf d9bd a8f1 9ebd 14f3 4a3e 3dcc b1bd
000002d0: 908d 09be 9be8 783d 7227 d03c 70f9 4b3c
000002e0: 88b3 6e3d 4a6b bb3d 998f cdbc bc75 053e
000002f0: 85f8 81bd df33 953b f4d4 e0bd a468 f9bd
00000300: df92 7a3d 8b1f d03d 6f46 4cbb e56e 0dbe
00000310: 3cd5 f03d 0161 18bd feda 5bbd 30e1 acbd
00000320: d70d a2bd f538 193d ccce 1ebe f694 c9bc
00000330: 1179 7bbd bbc4 f43d 166d 5ebd bd3d 2dbd
00000340: b21a 9b3b 4874 963b 8de4 243d b724 bbbc
00000350: bc0b 133e 12bb 2e3e 5605 c6bd 444f c93d
00000360: 9bc8 0ebe 4a96 debd 7444 f3bd 0b43 c2bd
00000370: 7c0d 2fbe 4403 e5bd 94ba 273e eb8d e3bd
00000380: acac 283e ac7c 603c 572d 513d c6ab 3a3e
00000390: 566c 52bc 5e13 ddbd cc5d 96bd 902a eebd
000003a0: 41ab 403e bf1d 133e af7e babd 754c 16be
000003b0: 4cd5 9cbd 6404 653d 2681 503d 4d46 0ebe
000003c0: faa5 fe3d 90fc 2d3d bd69 603e bf46 c3bc
000003d0: a53e c3bd f9c3 843d 646f 1cbe 4696 54bd
000003e0: bfd8 a0bd b231 6e3d 7eb7 99bd 5c5f 9b3d
000003f0: aebd ef3b c9c2 84ba f66d 143e 80ac 8ebd

pre_mono.2.bias f4 [32]
0.0012180855 0.2057662 -0.11573201 0.13174887 0.036062915 0.22568381 -0.1620621 0.21136892
-0.0106110005 0.020232446 0.09050743 0.09307038 -0.008756313 -0.09648488 0.11848088 -0.12071884
-0.119102105 -0.0062362123 -0.041362748 0.16803613 0.15125357 0.02670561 -0.007985055 -0.016822264
0.038515627 0.1569047 0.13585232 -0.12063073 -0.088061735 -0.06378326 0.069886394 0.22054943
00000000: 2ba8 9f3a 60b4 523e e704 edbd 2de9 063e
00000010: b5b6 133d a819 673e 9bf3 25be 1871 583e
00000020: c3d9 2dbc 84be a53c f65b b93d af9b be3d
00000030: a376 0fbc dd99 c5bd 1ba6 f23d 703b f7bd
00000040: ceeb f3bd 2459 ccbb fc6b 29bd aa11 2c3e
00000050: 37e2 1a3e b9c5 da3c c0d3 02bc d8ce 89bc
00000060: 90c2 1d3d a0ab 203e df1c 0b3e 3f0d f7bd
00000070: b659 b4bd cca0 82bd 9920 8f3d b6d7 613e

mono.0.weight f4 [32, 35]
0.10567339 -0.1704278 0.15770482 0.14874354 0.16162813 -0.16947582 -0.11345637 0.13240327
-0.16225038 0.16706492 0.07329198 0.055459343 -0.16768466 0.07320983 0.103749275 0.057288785
0.16258298 0.076663494 -0.1752403 0.15280415 0.106157266 -0.107076615 -0.19053164 0.12882052
0.18810445 -0.17741275 0.04675408 0.084343955 -0.09392057 -0.06692161 -0.14942688 -0.115700796
-0.16358727 -0.024821717 0.11759145 0.07626703 0.20292461 -0.16888463 -0.06145605 0.18435438
0.067692086 -0.047666285 -0.20415232 0.08318578 0.12832355 0.17317365 0.17528751 0.057249658
0.14005895 -0.07381872 0.16795224 -0.014461971 -0.061009392 -0.10965589 0.101203315 0.11724371
0.13421889 -0.14342229 -0.12248064 0.18761648 -0.13282788 -0.13405594 -0.06913475 -0.0689148
-0.14524697 0.17332266 0.054771196 0.0880955 0.14676794 -0.12846558 0.12310669 -0.12795913
-0.048459895 0.16814658 0.17563587 0.18835135 0.09721416 0.20857185 -0.06560114 -0.010758614
-0.09536548 -0.04542574 -0.0458406 0.11038282 0.14780325 -0.1527462 -0.09333874 -0.078615494
0.048807383 -0.07581643 -0.15412813 -0.05748492 -0.11820715 0.03706988 -0.15268363 -0.08104827
-0.099995054 -0.047652964 0.14733933 0.14155072 -0.09117182 -0.19063039 -0.12261121 -0.14303367
-0.02552923 -0.069123335 -0.16249639 0.057643108 0.051722836 -0.04519375 -0.1015602 0.14406766
-0.21502933 -0.008419294 0.07846718 0.1571205 -0.18104345 -0.050621837 0.16047332 0.059262186
0.08188091 -0.07468849 0.14351438 -0.088986754 -0.10175015 0.20255673 0.071511075 -0.03671865
-0.15062618 -0.065203644 -0.16904542 -0.15157048 -0.048192084 0.046945382 -0.16873497 0.20125559
0.1603977 -0.16957472 0.12839441 -0.12168417 -0.13179174 0.2020982 -0.08755228 -0.0963461
0.040874425 0.1351605 0.013002764 -0.09673865 0.019054344 -0.08757629 -0.16018936 0.07723052
0.041606776 0.10353306 -0.09394427 -0.19752352 -0.041942 -0.18965486 -0.038596425 0.09317259
0.0638704 0.123354085 0.06672941 0.104727365 0.17960274 0.06372868 0.065426014 -0.09253092
0.11988489 0.17172983 -0.15357503 0.19969252 0.06456529 -0.04709997 -0.17569652 -0.16244262
-0.17568995 -0.15546189 -0.15204275 -0.06924215 -0.1797258 -0.14130765 -0.069358744 -0.14698316
-0.015281917 0.064696774 0.06473969 0.12592989 0.10963926 -0.12499908 -0.0856707 0.0038712472
0.16701289 0.10561081 -0.10520686 -0.06731729 0.05455953 0.09267561 -0.0953282 -0.17529379
-0.14062586 0.041775562 -0.13852295 0.06160484 0.13430008 -0.038114354 0.1232213 0.14049158
0.13919713 -0.18994509 0.14723973 0.08865581 -0.1868737 0.082484394 -0.13599287 0.19613436
0.13402934 -0.163113 -0.12989052 0.01189016 -0.08189827 0.10560253 -0.18158387 0.14439401
0.04611533 0.033553492 -0.10781726 0.036247294 0.13976568 0.1751815 -0.15787089 -0.096888445
0.070192486 0.12732826 -0.16921972 -0.10178895 -0.17153405 0.17898324 -0.07185701 0.13124126
0.12842572 0.05127786 0.046943888 0.13428472 -0.043460093 0.08299786 -0.06618853 0.02296473
0.098105825 -0.17213714 -0.12023243 -0.13491115 -0.10310732 -0.015253138 0.067472614 -0.17251953
00000000: 4a6b d83d a084 2ebe 5f7d 213e 3a50 183e
00000010: d881 253e 128b 2dbe d05b e8bd b994 073e
00000020: f724 26be 1113 2b3e 1b1a 963d 5629 633d
00000030: 87b5 2bbe 09ef 953d 807a d43d a5a7 6a3d
00000040: 277c 263e c001 9d3d 3172 33be b178 1c3e
00000050: fb68 d93d fc4a dbbd ba1a 43be 87e9 033e
00000060: 749e 403e b0ab 35be 3581 3f3d 86bc ac3d
00000070: 6e59 c0bd 320e 89bd 5c03 19be 8af4 ecbd
00000080: 6c83 27be ea56 cbbc c9d3 f03d e331 9c3d
00000090: 78cb 4f3e 18f0 2cbe 57b9 7bbd 65c7 3c3e
000000a0: 26a2 8a3d b93d 43bd 4e0d 51be 4e5d aa3d
000000b0: 4067 033e 6f54 313e 927e 333e 9e7e 6a3d
000000c0: 9d6b 0f3e 452e 97bd acfb 2b3e e7f1 6cbc
000000d0: fce4 79bd 4493 e0bd af43 cf3d 781d f03d
000000e0: ad70 093e 4bdd 12be 21d7 fabd 891e 403e
000000f0: 0804 08be f645 09be 8596 8dbd 3423 8dbd
00000100: 9fbb 14be 7f7b 313e c357 603d 6a6b b43d
00000110: 564a 163e 7b8c 03be 5c1f fc3d b807 03be
00000120: e27d 46bd 9e2e 2c3e e4d9 333e 2ddf 403e
00000130: 3818 c73d dc93 553e e459 86bd e644 30bc
00000140: fa4e c3bd 5710 3abd 5ac3 3bbd 6310 e23d
00000150: bc59 173e 8069 1cbe 6228 bfbd 2901 a1bd
00000160: 40ea 473d a545 9bbd c4d3 1dbe 4f75 6bbd
00000170: 9716 f2bd 96d6 173d 1959 1cbe a3fc a5bd
00000180: 35ca ccbd c12f 43bd 1fe0 163e acf2 103e
00000190: 4bb8 babd 9d34 43be 961b fbbd 6b77 12be
000001a0: ad22 d1bc 8990 8dbd 7465 26be 2e1b 6c3d
000001b0: 53db 533d 151d 39bd cbfe cfbd 7986 133e
000001c0: a630 5cbe 14f1 09bc 67b3 a03d 32e4 203e
000001d0: 7463 39be d858 4fbd 1e53 243e e8bc 723d
000001e0: 2eb1 a73d 47f6 98bd 6ff5 123e b03e b6bd
000001f0: 6262 d0bd 086b 4f3e 6674 923d 4c66 16bd
00000200: c03d 1abe 7d89 85bd 3e1a 2dbe 4b35 1bbe
00000210: 1065 45bd cd49 403d dcc8 2cbe f215 4e3e
00000220: 4b3f 243e ffa4 2dbe d379 033e 8d35 f9bd
00000230: 6af4 06be d5f2 4e3e 9c4e b3bd 1b51 c5bd
00000240: f16b 273d 8467 0a3e 8c09 553c ea1e c6bd
00000250: db17 9c3c 335b b3bd ae08 24be 092b 9e3d
00000260: de6b 2a3d 2409 d43d da65 c0bd 9b43 4abe
00000270: 60cb 2bbd e234 42be 4917 1ebd 45d1 be3d
00000280: 7cce 823d 11a1 fc3d 6ea9 883d 4d7b d63d
00000290: c8e9 373e 2f84 823d 13fe 853d da80 bdbd
000002a0: 3686 f53d f2d9 2f3e c642 1dbe 327c 4c3e
000002b0: cf3a 843d e6eb 40bd cae9 33be 5c57 26be
000002c0: 11e8 33be 6731 1fbe 18b1 1bbe d4ce 8dbd
000002d0: 0a0a 38be f4b2 10be f50b 8ebd c182 16be
000002e0: 0161 7abc be7f 843d 3e96 843d c4f3 003e
000002f0: 8c8a e03d 85ff ffbd 1f74 afbd c0b4 7d3b
00000300: 6d05 2b3e 7b4a d83d b276 d7bd a6dd 89bd
00000310: d079 5f3d b6cc bd3d 6e3b c3bd 3780 33be
00000320: 3a00 10be da1c 2b3d f6d8 0dbe 5b55 7c3d
00000330: f685 093e cc1d 1cbd 735b fc3d 06dd 0f3e
00000340: b189 0e3e f780 42be 03c6 163e 2d91 b53d
00000350: d25b 3fbe 94ed a83d b741 0bbe 72d7 483e
00000360: fd3e 093e 1807 27be 0502 05be f2ce 423c
00000370: 48ba a7bd 2446 d83d 1ff1 39be 06dc 133e
00000380: 6ee3 3c3d 636f 093d 4ccf dcbd 0b78 143d
00000390: bc1e 0f3e c762 333e e8a8 21be 736d c6bd
000003a0: 14c1 8f3d 5762 023e ef47 2dbe ba76 d0bd
000003b0: 9fa6 2fbe 6247 373e c529 93bd 1c64 063e
000003c0: 0882 033e bc08 523d 3c48 403d ef81 093e
000003d0: 3603 32bd c8fa a93d da8d 87bd 8820 bc3c
000003e0: b5eb c83d b844 30be 6c3c f6bd 2626 0abe
000003f0: ee29 d3bd 4ce8 79bc 152f 8a3d f6a8 30be

mono.0.bias f4 [32]
0.13106139 0.077645004 -0.06669125 0.21633323 -0.09205683 -0.11125142 0.03187482 -0.04264769
0.11202501 0.06242531 -0.10550851 0.050193034 0.061053503 -0.022962784 0.09043017 0.12420953
0.068207525 0.18907127 -0.04373549 0.03810557 -0.09230297 -0.083615534 0.17116548 0.21476133
0.04563186 0.13440074 0.023591196 -0.09745862 0.13215448 -0.038596112 0.0043567796 0.17451964
00000000: f534 063e 5804 9f3d 6c95 88bd 7586 5d3e
00000010: 4b88 bcbd c9d7 e3bd 2c8f 023d 58af 2ebd
00000020: 5e6d e53d afb1 7f3d d814 d8bd 3697 4d3d
00000030: 3d13 7a3d 731c bcbc 7433 b93d 9161 fe3d
00000040: 63b0 8b3d e69b 413e fc23 33bd 9614 1c3d
00000050: 5709 bdbd 9f3e abbd 0146 2f3e 65ea 5b3e
00000060: 79e8 3a3d 59a0 093e 5342 c13c 6398 c7bd
00000070: 8153 073e f516 1ebd 51c3 8e3b 47b5 323e

mono.1.weight f4 [32, 32]
0.13675478 -0.00980086 -0.063617 -0.01965646 0.12639841 0.19284952 -0.011357483 0.16984914
-0.0954265 0.06307287 -0.0056471694 -0.15254234 0.16108307 0.19636405 0.11325126 0.09742496
-0.0885537 -0.0005138965 -0.063790515 -0.07447185 -0.1288984 -0.08351163 0.20445588 0.123818494
0.16974294 0.03830383 -0.12362173 -0.10693452 -0.11000849 0.060035057 0.040975858 0.17366588
-0.029045315 0.11948682 -0.0916065 -0.058547165 -0.14486231 -0.03194484 -0.13675262 0.059949256
-0.045457955 -0.099917665 0.08663003 0.082087345 0.12238811 -0.100805245 0.06480583 -0.08863304
0.09546162 -0.14321995 -0.084890276 0.073329255 0.096891664 0.16095923 0.17949425 0.19104521
-0.068917185 0.17277078 -0.0026273762 0.067153454 0.19913691 -0.13647461 0.15054114 -0.16182181
-0.12584007 -0.0056606764 -0.11027807 -0.105269484 0.1037603 -0.090858616 0.2007522 0.073943965
0.10181793 0.17565745 0.15987352 0.08200435 -0.04695933 -0.10555869 0.12757726 -0.00086683274
-0.040104404 -0.08279059 -0.14517479 0.10277178 -0.11556701 0.010046901 0.07730315 -0.08440646
0.19683692 0.06793303 0.080359615 -0.056458864 0.08815365 -0.0041513005 -0.029548854 0.08698175
0.024001686 -0.053150263 -0.08126733 -0.11959785 0.06989408 0.15569553 -0.1265736 -0.037125424
-0.0973817 0.060333245 0.07462081 0.017453285 -0.10201835 0.17354934 -0.10868367 0.18986037
-0.08228036 0.088306434 0.018453032 0.15804447 -0.020877793 -0.10483246 -0.013244359 0.136687
-0.14302047 -0.12323809 0.16570576 0.13346261 0.11599435 0.0998 -0.032119792 0.16493158
-0.09007507 0.12611105 -0.023905657 -0.01358503 0.11455364 -0.14308585 0.13109837 0.07484538
0.20022896 0.084609404 0.016514212 0.21103728 -0.10903103 0.071886554 -0.08286296 0.17733894
0.18754138 -0.0977645 -0.09884604 0.17040531 -0.09292747 0.16912109 -0.032337382 0.18519881
-0.14499047 -0.061967686 -0.06316556 -0.10993759 -0.15560183 0.07917456 -0.10798405 0.04451998
-0.05070521 0.108627856 -0.071504965 -0.07952181 -0.01261577 0.102663286 -0.010695865 0.11668916
-0.05883841 -0.11644634 -0.0022374543 -0.053358518 0.040580936 0.0466567 0.12311784 -0.011775534
0.1720544 -0.025777476 0.13366604 -0.13304405 -0.093908854 0.013265908 -0.06144142 -0.09061429
0.12128907 0.20306167 0.017275682 -0.09970841 -0.09848012 -0.055350043 0.030125706 0.055258956
-0.011136363 0.11093766 0.023926834 -0.03905389 -0.12283174 -0.093006276 0.029627481 0.090568446
0.06269033 0.119315475 0.09829493 -0.11367391 0.16111967 -0.0035891696 0.11985197 0.13480996
0.13297656 -0.036492743 0.16346018 -0.005149284 0.08382167 0.118197225 0.20581153 -0.088876195
-0.015590189 0.025486853 -0.01790816 0.052790042 -0.14045393 0.06577426 -0.108683944 -0.077771515
0.1440695 0.08796929 0.051446624 -0.13432853 0.13201793 0.043840915 0.047436606 0.15070191
0.047133032 0.10104581 -0.10754512 0.05613635 -0.15915546 0.17487039 -0.15692544 -0.13810678
-0.06390791 -0.01452315 0.033877 -0.019932132 0.1124532 0.015336449 -0.1301319 0.08884653
0.1680388 0.09351942 0.07497021 0.09328146 0.107815824 0.111168176 0.20396094 -0.021070095
00000000: 7209 0c3e c993 20bc a149 82bd 9606 a1bc
00000010: 966e 013e 587a 453e bd14 3abc efec 2d3e
00000020: f86e c3bd 592c 813d e40b b9bb 0f34 1cbe
00000030: f6f2 243e a813 493e 47f0 e73d bd86 c73d
00000040: a45b b5bd 03b7 06ba 9aa4 82bd b384 98bd
00000050: f1fd 03be 2508 abbd e25c 513e 8d94 fd3d
00000060: 18d1 2d3e 7ae4 1c3d 642d fdbd 7c00 dbbd
00000070: 224c e1bd 52e7 753d 4dd6 273d 78d5 313e
00000080: 71f0 edbc 82b5 f43d 309c bbbd 27cf 6fbd
00000090: c956 14be 98d8 02bd e108 0cbe 5a8d 753d
000000a0: 1f32 3abd a2a1 ccbd 166b b13d 691d a83d
000000b0: 9ea6 fa3d fb72 cebd ebb8 843d 3d85 b5bd
000000c0: 6281 c33d 40a8 12be f4da adbd a62d 963d
000000d0: 236f c63d 7fd2 243e 57cd 373e 5ba1 433e
000000e0: 7424 8dbd d3ea 303e 0f30 2cbb c087 893d
000000f0: 8cea 4b3e 00c0 0bbe 7527 1a3e 9eb4 25be
00000100: 38dc 00be 327d b9bb 78d9 e1bd 8797 d7bd
00000110: 4880 d43d 1514 babd fc91 4d3e ef6f 973d
00000120: eb85 d03d 8cdf 333e e2b5 233e e6f1 a73d
00000130: 6d58 40bd 282f d8bd 9da3 023e 293c 63ba
00000140: 8444 24bd 1d8e a9bd b3a8 14be 037a d23d
00000150: 66ae ecbd c29b 243c 1d51 9e3d 4bdd acbd
00000160: 9e8f 493e 7920 8b3d 9593 a43d 6941 67bd
00000170: e789 b43d a207 88bb 7010 f2bc 7d23 b23d
00000180: 2f9f c43c 17b4 59bd 7c6f a6bd b8ef f4bd
00000190: a124 8f3d a66e 1f3e 839c 01be d410 18bd
000001a0: 0f70 c7bd fe1f 773d ccd2 983d 31fa 8e3c
000001b0: ffee d0bd ebb6 313e 8b95 debd c26a 423e
000001c0: 9b82 a8bd 01da b43d d02a 973c 69d6 213e
000001d0: e807 abbc 67b2 d6bd defe 58bc adf7 0b3e
000001e0: f573 12be 4064 fcbd c5ae 293e 6caa 083e
000001f0: 728e ed3d f163 cc3d 0b90 03bd d3e3 283e
00000200: 4779 b8bd 4123 013e ccd5 c3bc bf93 5ebc
00000210: 199b ea3d 1985 12be a73e 063e 8948 993d
00000220: d208 4d3e b247 ad3d d048 873c 281a 583e
00000230: a94b dfbd 4239 933d 0eb4 a9bd 5798 353e
00000240: d90a 403e c138 c8bd cb6f cabd bb7e 2e3e
00000250: c250 bebd 142e 2d3e 3474 04bd c2a4 3d3e
00000260: 6278 14be d4d1 7dbd f25c 81bd f626 e1bd
00000270: 1656 1fbe 4626 a23d be26 ddbd 955a 363d
00000280: 44b0 4fbd 4878 de3d 3271 92bd 55dc a2bd
00000290: 60b2 4ebc 2141 d23d b63d 2fbc bafa ee3d
000002a0: 8b00 71bd 6b7b eebd 41a2 12bb 768e 5abd
000002b0: 3238 263d 191b 3f3d 3525 fc3d 2bee 40bc
000002c0: 072f 303e 492b d3bc c0df 083e b33c 08be
000002d0: 4953 c0bd 4059 593c 00aa 7bbd fc93 b9bd
000002e0: 6766 f83d 66ef 4f3e bb85 8d3c ec33 ccbd
000002f0: f2af c9bd bab6 62bd 2fca f63c 3757 623d
00000300: 4b75 36bc 4933 e33d 3502 c43c f9f6 1fbd
00000310: 358f fbbd 137a bebd 55b5 f23c f37b b93d
00000320: ca63 803d ac5b f43d da4e c93d decd e8bd
00000330: 8efc 243e 4638 6bbb f374 f53d 9f0b 0a3e
00000340: 022b 083e 6a79 15bd 1b62 273e 53bb a8bb
00000350: b2aa ab3d 6311 f23d 42c0 523e b904 b6bd
00000360: fe6d 7fbc cec9 d03c 22b4 92bc 5f3a 583d
00000370: 28d3 0fbe a8b4 863d b095 debd ac46 9fbd
00000380: f486 133e 3e29 b43d b2b9 523d 6b8d 09be
00000390: b52f 073e 8892 333d e34c 423d 9a51 1a3e
000003a0: 910e 413d 1bf1 ce3d 9e40 dcbd 3bef 653d
000003b0: a6f9 22be 3911 333e 10b1 20be dd6b 0dbe
000003c0: 26e2 82bd 82f2 6dbc 9cc2 0a3d b648 a3bc
000003d0: dd4d e63d bb45 7b3c 4c41 05be 2bf5 b53d
000003e0: 5d12 2c3e 1c87 bf3d fb89 993d 5a0a bf3d
000003f0: 8bce dc3d 24ac e33d 23db 503e 319b acbc

mono.1.bias f4 [32]
0.17844011 0.05509632 0.1499872 0.017289247 -0.11478737 0.07258926 0.07530756 0.1706106
-0.015739998 0.09458695 -0.12685375 -0.11861102 0.06597037 0.12629393 -0.046557214 0.18608096
-0.00897114 0.095641926 -0.07715923 0.03092852 0.10824506 0.19392794 0.03787131 0.1494747
-0.063890606 -0.0177392 -0.11216567 -0.059183106 0.1756434 0.07767642 -0.04165194 0.15636404
00000000: 01b9 363e aeac 613d 3f96 193e 2ea2 8d3c
00000010: a415 ebbd aea9 943d da3a 9a3d 8cb4 2e3e
00000020: 2bf1 80bc ceb6 c13d f3e5 01be 56ea f2bd
00000030: 791b 873d 3253 013e c7b2 3ebd 028c 3e3e
00000040: b0fb 12bc eadf c33d a905 9ebd cf5d fd3c
00000050: 96af dd3d 0c95 463e f21e 1b3d e50f 193e
00000060: 14d9 82bd cc51 91bc 1db7 e5bd fc69 72bd
00000070: dddb 333e d114 9f3d 3a9b 2abd e51d 203e

mono.2.weight f4 [32, 32]
0.020761697 0.02237438 -0.010211711 -0.14813 0.03488469 0.07075607 -0.009472836 -0.0026400087
0.16715294 0.15263057 -0.051047012 0.14971 0.08223183 -0.1231995 0.038145438 -0.12894367
-0.07368707 -0.11329323 0.11661711 0.1785713 -0.06509681 0.14536032 -0.09469105 -0.15392043
-0.016971229 0.14572242 0.17986727 0.06340574 0.098281704 -0.034115806 0.045859583 -0.07112439
0.05990128 0.18925805 -0.04249384 -0.042905923 0.19876412 -0.0108835595 0.10774777 0.031416778
0.11193287 -0.009151463 -0.1443475 -0.013542791 -0.019222453 0.17770238 -0.121799625 0.21023358
-0.123253025 0.055542264 0.07670745 0.0810666 -0.07842028 -0.0030613774 -0.0858318 -0.14910471
0.07626443 0.08850445 0.1447822 -0.108062826 0.11526511 -0.07685796 -0.09531698 -0.11984498
0.1027315 -0.12874667 -0.044239827 -0.11420179 -0.068668425 0.030925747 0.15452658 -0.021481711
-0.113620006 0.0369222 -0.10550007 0.051022317 -0.016524648 0.101035185 -0.015488237 -0.04324394
0.19602872 0.07088353 0.20842476 -0.05171559 -0.10934146 -0.14559928 0.13736138 -0.098966554
0.1772279 -0.102006204 -0.12682782 -0.042998623 0.2112539 0.17709504 -0.055458512 0.15389854
0.19682187 0.06637858 -0.10462167 0.06439781 -0.13634081 -0.14932594 -0.15455464 0.18837896
-0.060745917 0.015278155 0.18101369 0.104101405 0.057631925 0.18788208 0.17742707 -0.006909597
-0.15492716 0.18175657 0.04048001 -0.07633339 0.10767949 0.14776 0.082425974 -0.05404686
-0.057636086 0.11842365 0.14661057 0.1554215 -0.11541367 -0.08719127 -0.11555372 0.028788619
-0.0066845664 -0.1522067 0.048512258 0.19316146 -0.12290937 0.15332393 -0.057972148 0.11073101
0.060883686 0.17843099 0.07969815 -0.12356036 -0.14807516 0.104674205 0.09795871 0.064640254
0.11401144 -0.04200126 -0.11976805 -0.09802795 -0.1495601 0.032679338 -0.11122415 0.030969355
0.18213263 -0.004710293 -0.07984066 0.1324945 0.15556099 0.03755939 0.18756711 0.16674337
-0.13208276 0.1997222 0.07567307 -0.12556921 -0.114668116 -0.02524702 -0.09136188 0.088157155
0.2042601 -0.11572364 0.08715095 -0.09872792 0.14746788 -0.09278746 -0.10802097 -0.027569747
0.12055538 0.19386399 0.024820331 0.20654586 0.10956276 0.10282336 0.13420351 0.061593547
-0.00519836 0.032025125 -0.12693276 0.06505036 -0.026061106 -0.14249009 0.13275719 0.029276952
0.041780654 0.06411773 0.16767544 0.05790151 0.17239232 -0.12804602 0.16340281 -0.026079757
0.08181713 0.19047233 -0.06424343 0.13855627 -0.12067197 0.11283173 0.17233288 0.20986588
0.1864183 0.13844676 0.15180986 0.033309445 -0.1376719 -0.12558174 0.0873834 -0.094206065
0.056442443 -0.12794082 -0.03574456 0.03420645 0.0973104 -0.031907685 -0.033129714 -0.10156383
0.21190694 -0.11231897 -0.05680213 0.13549075 -0.08966155 -0.09647853 -0.026075957 -0.12636492
-0.048227627 -0.010001891 0.15168068 -0.01862378 -0.03896483 0.11619022 0.044304628 -0.10988731
0.16156141 -0.11279558 -0.072032645 0.17973141 -0.09005976 -0.120614894 0.16795757 0.13139577
0.2017714 0.1804997 0.015849581 -0.11016834 -0.039858155 0.059078943 -0.025859058 -0.012391797
00000000: 6f14 aa3c 7a4a b73c 054f 27bc 64af 17be
00000010: 40e3 0e3d 8fe8 903d f433 1bbc ff03 2dbb
00000020: 242a 2b3e 304b 1c3e ac16 51bd 944d 193e
00000030: 2969 a83d 0550 fcbd 643e 1c3d cf09 04be
00000040: 3fe9 96bd 4806 e8bd f4d4 ee3d 65db 363e
00000050: 7a51 85bd 56d9 143e 62ed c1bd 519d 1dbe
00000060: 3f07 8bbc 4238 153e 202f 383e deda 813d
00000070: eb47 c93d 04bd 0bbd 42d7 3b3d aaa9 91bd
00000080: 0b5b 753d ddcc 413e 050e 2ebd 1fbe 2fbd
00000090: d288 4b3e f550 32bc ddaa dc3d e1ae 003d
000000a0: 0f3d e53d 05f0 15bc d5cf 13be 95e2 5dbc
000000b0: 6878 9dbc 9df7 353e 1572 f9bd 7947 573e
000000c0: 156c fcbd 4980 633d cc18 9d3d 3f06 a63d
000000d0: d09a a0bd 64a1 48bb 95c8 afbd e8ae 18be
000000e0: 8730 9c3d d241 b53d c941 143e 0b50 ddbd
000000f0: 1d10 ec3d b567 9dbd 8c35 c3bd 4971 f5bd
00000100: e564 d23d 2bd6 03be d234 35bd a1e2 e9bd
00000110: 08a2 8cbd fe57 fd3c 373c 1e3e 6afa afbc
00000120: 9bb1 e8bd bc3b 173d 6c10 d8bd c7fc 503d
00000130: b35e 87bc 89eb ce3d 60c2 7dbc 8f20 31bd
00000140: c1bb 483e 622b 913d 4d6d 553e bad3 53bd
00000150: 6aee dfbd fa17 15be 76a8 0c3e faae cabd
00000160: 3b7b 353e a1e8 d0bd 27df 01be 531f 30bd
00000170: f152 583e 6758 353e 7728 63bd 9497 1d3e
00000180: ac8b 493e 7ef1 873d e343 d6bd 00e3 833d
00000190: ed9c 0bbe e6e8 18be 9243 1ebe 6ae6 403e
000001a0: b6d0 78bd 3a51 7a3c a75b 393e 1e33 d53d
000001b0: 740f 6c3d 2964 403e 71af 353e e769 e2bb
000001c0: 3aa5 1ebe 651e 3a3e 5ece 253d ae54 9cbd
000001d0: 1087 dc3d 664e 173e f3ce a83d 3e60 5dbd
000001e0: d113 6cbd 1988 f23d 1521 163e d026 1f3e
000001f0: 015e ecbd 5691 b2bd 6ea7 ecbd 1cd6 eb3c
00000200: 350a dbbb 13dc 1bbe cab4 463d 1ecc 453e
00000210: e8b7 fbbd f300 1d3e 3474 6dbd f1c6 e23d
00000220: 2c61 793d 9db6 363e c938 a33d 370d fdbd
00000230: 04a1 17be 6e5f d63d 939e c83d 1c62 843d
00000240: d47e e93d 8309 2cbd f448 f5bd e1c2 c8bd
00000250: 4826 19be c5da 053d 7dc9 e3bd 72b3 fd3c
00000260: fa80 3a3e cd58 9abb 8083 a3bd a3ac 073e
00000270: 614b 1f3e e0d7 193d 9811 403e c6be 2a3e
00000280: b440 07be fa83 4c3e 7cfa 9a3d 3795 00be
00000290: 1ed7 eabd d7d2 cebc f01b bbbd bd8b b43d
000002a0: 8f29 513e 8400 edbd 337c b23d dd31 cabd
000002b0: d201 173e 5a07 bebd 193a ddbd f3d9 e1bc
000002c0: bde5 f63d 4884 463e 0254 cb3c c280 533e
000002d0: 7162 e03d 0e95 d23d a56c 093e 8449 7c3d
000002e0: 0157 aabb c72c 033d a9fa 01be 2039 853d
000002f0: 1a7e d5bc ece8 11be 80f1 073e 38d6 ef3c
00000300: 3122 2b3d 2850 833d 1cb3 2b3e 222a 6d3d
00000310: 9d87 303e 7f1e 03be 1153 273e 37a5 d5bc
00000320: bd8f a73d 2e0b 433e 0f92 83bd b2e1 0d3e
00000330: de22 f7bd 5214 e73d 0878 303e 15e7 563e
00000340: 70e4 3e3e fdc4 0d3e 0b74 1b3e 7c6f 083d
00000350: ddf9 0cbe 8098 00be 11f6 b23d 1cef c0bd
00000360: 3130 673d eb02 03be e368 12bd 101c 0c3d
00000370: ad4a c73d a2b1 02bd 06b3 07bd b300 d0bd
00000380: 22fe 583e 7d07 e6bd 5aa9 68bd 16be 0a3e
00000390: 7aa0 b7bd 8996 c5bd 3f9d d5bc ce65 01be
000003a0: 558a 45bd f9de 23bc 2e52 1b3e e690 98bc
000003b0: 9699 1fbd 23f5 ed3d c578 353d 990c e1bd
000003c0: 5b70 253e 5e01 e7bd da85 93bd 830b 383e
000003d0: 4071 b8bd f104 f7bd 12fd 2b3e 9d8c 063e
000003e0: 299d 4e3e ead4 383e fbd6 813c f09f e1bd
000003f0: 4e42 23bd c3fc 713d 60d6 d3bc f706 4bbc

mono.2.bias f4 [32]
0.18448234 0.14084686 -0.059988633 0.022837335 -0.066640414 0.008093974 0.01886031 -0.013940869
0.073229775 0.10164945 0.08517984 -0.06485784 -0.033265963 -0.044801448 -0.008833134 0.1713427
0.13962367 -0.05074667 -0.030498208 -0.020809732 -0.117691524 0.09567078 -0.005550727 0.0576062
0.21789107 -0.011912139 -0.09226427 0.10320422 0.201358 0.09287256 -0.03127691 0.047096036
00000000: f0e8 3c3e 293a 103e a4b6 75bd 5d15 bb3c
00000010: c57a 88bd 969c 043c f080 9a3c 3e68 64bc
00000020: 7ef9 953d 962d d03d c572 ae3d 30d4 84bd
00000030: e441 08bd b981 37bd d9b8 10bc 7674 2f3e
00000040: 82f9 0e3e bedb 4fbd 61d7 f9bc 2c79 aabc
00000050: 4108 f1bd 0bef c33d dfe2 b5bb 7bf4 6b3d
00000060: d61e 5f3e 222b 43bc 0df5 bcbd bc5c d33d
00000070: cb30 4e3e f833 be3d 381c 00bd c6e7 403d

mono.3.weight f4 [32, 32]
-0.007725662 0.048786417 0.028569905 0.15736175 0.07549863 0.16104113 -0.06621286 0.039123833
-0.00229387 -0.06560136 -0.042397298 0.102501445 0.048242837 0.012526124 0.15772189 -0.015534298
-0.10688667 0.16218707 -0.07919564 -0.073961884 0.075630315 0.19591409 -0.12514016 0.10487286
0.08521179 0.070347115 0.10797767 -0.10301883 0.07102828 -0.10097202 -0.09609522 -0.11482604
0.053659704 0.15273136 -0.06642866 -0.15890087 0.06499502 -0.17062835 -0.14177032 -0.1631358
-0.028282579 -0.09570112 0.10741691 0.15800871 -0.15962952 0.08137744 -0.058923487 -0.04908009
0.08191728 0.08847881 0.14224452 0.13850288 0.13424352 -0.10032722 0.15066843 -0.06534639
-0.06078233 0.07274174 0.18629667 0.0750714 0.06077877 -0.08109671 -0.0426869 -0.033417434
0.18016505 -0.029729312 -0.15895954 -0.020336507 -0.021563128 -0.15033498 -0.08519717 -0.005626267
0.13557465 0.069748394 -0.026176017 -0.07993902 -0.14456055 0.10006918 -0.045820158 -0.09532357
0.08106943 -0.0110486485 0.09418248 -0.08295804 -0.14882423 0.08522473 0.037011486 -0.11833948
-0.058702383 0.052257266 0.051300358 -0.0152918035 -0.12440169 -0.036835145 0.1422629 -0.08666051
0.14634661 0.033401802 -0.15573657 -0.008509894 0.15535851 0.09439796 0.078237124 -0.062364895
0.08087921 0.13844118 0.18178642 -0.023611736 0.14521928 -0.14776501 0.14244108 -0.15855938
-0.058270104 -0.10732136 0.033034325 -0.12748624 -0.05089095 -0.12576592 0.14625147 -0.01799238
0.045048088 0.10079626 -0.093839094 0.18374062 -0.041910864 0.0081762 -0.07089855 0.044348925
0.16329494 0.14371534 -0.013443313 -0.15379392 0.0661867 0.14716867 -0.11193842 -0.021167584
-0.110947475 -0.05461919 -0.14950874 0.0953778 0.12661485 0.19678849 0.06449557 -0.029951254
-0.06538219 -0.030101433 -0.010094063 0.092679136 -0.062430233 0.080005236 -0.10185969 -0.03383374
-0.09959568 0.1290383 0.028787866 -0.01925205 -0.08882457 -0.02719318 -0.10365404 0.13742605
0.060766816 -0.07027574 -0.1526592 -0.12728038 -0.054646023 0.13075139 -0.0013197443 0.10099165
0.050255693 0.11099895 0.17344867 -0.111801535 0.06429077 -0.16869219 0.049118783 -0.05178798
0.040405985 0.20380299 -0.08806729 -0.16746382 -0.11421802 -0.15499417 -0.055674132 0.11616235
-0.054233447 0.065812625 -0.077291206 -0.04666676 -0.04902551 -0.1305229 0.0675786 -0.059087753
0.1215412 -0.1425733 -0.09227457 -0.16069095 0.09190085 -0.10899931 -0.13745537 0.0865692
-0.1033771 0.09984727 -0.1457654 -0.054543868 -0.13785234 0.17235732 -0.07598354 0.14539671
-0.058757532 0.040853605 0.099285476 0.11484109 0.19512473 -0.033381905 0.18719 -0.1309815
-0.16386662 -0.01618481 -0.0015377775 0.112531565 0.18232039 -0.12713428 -0.09764252 -0.032728016
-0.086209856 0.115025826 0.10066214 -0.04527553 -0.09644841 0.0064710793 0.084261246 0.0124502
-0.09177125 0.079412796 0.060045056 0.0031702016 0.12384004 0.0911088 -0.026784202 -0.03734042
0.005207008 0.015931845 0.09129104 0.0041523236 0.12359886 0.062059443 0.0086584445 0.0073320973
0.12211744 0.13552576 -0.028295083 -0.14310165 0.12783566 0.1624435 -0.14411837 -0.11414137
00000000: 8d27 fdbb 44d4 473d 6f0b ea3c 7023 213e
00000010: 079f 9a3d f7e7 243e 9c9a 87bd 5040 203d
00000020: c154 16bb 015a 86bd caa8 2dbd 47ec d13d
00000030: 489a 453d 5f3a 4d3c d981 213e 9183 7ebc
00000040: 66e7 dabd 5e14 263e 5331 a2bd 5479 97bd
00000050: 11e4 9a3d b49d 483e be24 00be 95c7 d63d
00000060: 8583 ae3d 2612 903d 6623 dd3d 89fb d2bd
00000070: 4677 913d 6bca cebd 92cd c4bd ea29 ebbd
00000080: 47ca 5b3d 9c65 1c3e c00b 88bd e9b6 22be
00000090: 1c1c 853d 33b9 2ebe 3d2c 11be 120d 27be
000000a0: deb0 e7bc f3fe c3bd 66fd db3d 09cd 213e
000000b0: ec75 23be 37a9 a63d c159 71bd 3408 49bd
000000c0: 3fc4 a73d 6134 b53d 8ca8 113e b3d3 0d3e
000000d0: 2277 093e 5c78 cdbd d348 1a3e 54d4 85bd
000000e0: e4f6 78bd 9ff9 943d 8ec4 3e3e 09bf 993d
000000f0: 29f3 783d 0816 a6bd 75d8 2ebd b8e0 08bd
00000100: 307d 383e e38a f3bc 4ac6 22be bf98 a6bc
00000110: 28a5 b0bc 6af1 19be db7b aebd 8c5c b8bb
00000120: 15d4 0a3e 3fd8 8e3d 166f d6bc 12b7 a3bd
00000130: ae07 14be 12f1 cc3d ebad 3bbd 0139 c3bd
00000140: bb07 a63d 6405 35bc bee2 c03d e8e5 a9bd
00000150: 6165 18be 4e8a ae3d 5b99 173d f85b f2bd
00000160: e971 70bd b70b 563d 5320 523d 798a 7abc
00000170: 50c6 febd 73e0 16bd 5ead 113e 117b b1bd
00000180: e3db 153e 54d0 083d 6879 1fbe 156d 0bbc
00000190: 4d16 1f3e b853 c13d c93a a03d 5572 7fbd
000001a0: 00a4 a53d 86c3 0d3e 3826 3a3e 666d c1bc
000001b0: 5db4 143e b64f 17be 13dc 113e 645d 22be
000001c0: a2ac 6ebd 4dcb dbbd 004f 073d c18b 02be
000001d0: 0773 50bd c8c8 00be f2c2 153e c164 93bc
000001e0: 5884 383d 456e ce3d b62e c0bd 8026 3c3e
000001f0: baaa 2bbd 78f5 053c 4233 91bd 38a7 353d
00000200: ca36 273e 1d2a 133e 5741 5cbc 277c 1dbe
00000210: e48c 873d 62b3 163e f83f e5bd a467 adbc
00000220: 6e38 e3bd 5fb8 5fbd d218 19be 7055 c33d
00000230: 53a7 013e ec82 493e 4116 843d 555c f5bc
00000240: 19e7 85bd 4897 f6bc 9261 25bc 8fce bd3d
00000250: d8b6 7fbd c9d9 a33d d09b d0bd 3f95 0abd
00000260: d2f8 cbbd 9e22 043e 88d4 eb3c 7ab6 9dbc
00000270: a8e9 b5bd 3bc4 debc 9248 d4bd 6ab9 0c3e
00000280: a0e6 783d baec 8fbd b152 1cbe ca55 02be
00000290: 82d4 5fbd b1e3 053e 45fb acba b6d4 ce3d
000002a0: ead8 4d3d 6b53 e33d 879c 313e 34f8 e4bd
000002b0: e1aa 833d a5bd 2cbe c730 493d a21f 54bd
000002c0: bf80 253d bbb1 503e a05c b4bd a37b 2bbe
000002d0: 23eb e9bd cbb6 1ebe 8f0a 64bd 87e6 ed3d
000002e0: e423 5ebd c5c8 863d da4a 9ebd a525 3fbd
000002f0: f9ce 48bd cca7 05be a666 8a3d 0006 72bd
00000300: 98ea f83d bcfe 11be 73fa bcbd 2b8c 24be
00000310: 8336 bc3d 083b dfbd 1ac1 0cbe 314b b13d
00000320: 5fb7 d3bd ba7c cc3d 8643 15be 6469 5fbd
00000330: 2a29 0dbe 707e 303e 429d 9bbd e0e2 143e
00000340: bdab 70bd 1c56 273d 2f56 cb3d ce31 eb3d
00000350: c7ce 473e 77bb 08bd bcae 3f3e 0420 06be
00000360: a7cc 27be 0296 84bc 408f c9ba f376 e63d
00000370: 32b2 3a3e 7d2f 02be cdf8 c7bd d00d 06bd
00000380: cb8e b0bd a992 eb3d f427 ce3d d672 39bd
00000390: be86 c5bd 590b d43b 2991 ac3d ecfb 4b3c
000003a0: 91f2 bbbd 2da3 a23d cef1 753d 28c3 4f3b
000003b0: d99f fd3d 4097 ba3d 8b6a dbbc 45f2 18bd
000003c0: 8d9f aa3b 8083 823c ccf6 ba3d 3710 883b
000003d0: 6621 fd3d 0b32 7e3d 26dc 0d3c 1742 f03b
000003e0: b518 fa3d 44c7 0a3e 17cb e7bc 3d89 12be
000003f0: 5ae7 023e 9757 263e c493 13be f3c2 e9bd

mono.3.bias f4 [32]
-0.09317982 -0.128705 -0.09763282 -0.10706274 -0.07892188 -0.11477504 -0.05536252 0.12321553
0.001519992 0.08652267 0.1765901 -0.12270551 0.1418034 0.15859634 0.15320885 -0.1270215
0.06429946 -0.120169505 0.20524694 -0.04735981 0.19262017 0.12597705 -0.14141597 -0.15218344
0.117331766 0.15313004 -0.0010063444 0.01250714 0.17708334 0.056815743 -0.09102044 -0.055058584
00000000: 10d5 bebd 3ecb 03be b7f3 c7bd b643 dbbd
00000010: cba1 a1bd 2d0f ebbd cfc3 62bd 6c58 fc3d
00000020: 783a c73a cc32 b13d 09d4 343e 074d fbbd
00000030: e934 113e 1467 223e c8e2 1c3e ed11 02be
00000040: 6faf 833d 6e1b f6bd 412c 523e 5cfc 41bd
00000050: 393e 453e 2100 013e 59cf 10be fad5 1bbe
00000060: a34b f03d 1fce 1c3e 51e7 83ba bfea 4c3c
00000070: 5655 353e a0b7 683d ed68 babd 1c85 61bd

mono.4.weight f4 [1, 32]
0.018353172 0.16357587 0.069375694 -0.082561776 0.027029337 0.074662365 0.04868261 -0.10189361
-0.103846736 -0.011882256 0.11718327 -0.09818188 0.14459741 0.12643202 0.0407721 0.17312282
0.04505067 -0.07112719 0.16423666 0.20287955 0.114779145 -0.13400842 -0.1460978 -0.09384948
-0.058457438 0.2113833 -0.12861118 0.09469131 0.11052281 0.18746296 -0.02110995 0.028514303
00000000: 6459 963c 6f80 273e d814 8e3d 2616 a9bd
00000010: a16c dd3c 95e8 983d 6b67 473d 99ad d0bd
00000020: 99ad d4bd cbad 42bc c8fd ef3d 9513 c9bd
00000030: 5811 143e 6577 013e a500 273d 1c47 313e
00000040: 0d87 383d 22ab 91bd a82d 283e a8bf 4f3e
00000050: 5411 eb3d 8139 09be a99a 15be 2834 c0bd
00000060: 1171 6fbd dd74 583e a6b2 03be 84ed c13d
00000070: c859 e23d 4af6 3f3e c6ee acbc d496 e93c
