models/auto-2.pth (torch, 11794 bytes, 15 tensors)

pre_mono.0.weight f4 [16, 4]
000000 15 76 02 be 56 25 ca 3e 47 f5 7b 3d a4 25 80 3e
       -0.12740357 0.3948161 0.06151321 0.25028718
000010 e4 30 01 3d 77 b4 79 3e 20 2c df be 37 e4 d5 3e
       0.031540766 0.24385248 -0.43588352 0.41775677
000020 30 b0 0f 3f 62 4f 57 3e 49 45 12 be 72 51 4f be
       0.56128216 0.21026376 -0.14284243 -0.20245913
000030 2f 6e ac be 9f 6e cc be 81 a2 a7 3e 75 3a fc 3e
       -0.33677813 -0.39928147 0.32741168 0.4926335
000040 1c e9 61 be ae 70 d6 be 24 e5 83 be b1 38 11 be
       -0.2206158 -0.41882843 -0.25760758 -0.14181782
000050 99 e9 51 be c8 40 65 3e 11 db 0c 3f 8d 12 89 be
       -0.20499267 0.22387993 0.5502177 -0.26771966
000060 2e 99 1e 3e c7 9b 05 bf f4 44 16 3e cf fe b8 be
       0.15488121 -0.5219082 0.14674741 -0.36131904
000070 64 55 07 3f a3 c1 c0 3e 95 aa 02 bf 94 f1 ed be
       0.5286467 0.37647733 -0.5104154 -0.46473372
000080 4e 8e d4 bd 72 ce 59 be 4f ef e0 3e 6b dc ed be
       -0.10378705 -0.21270159 0.43932578 -0.46457228
000090 8e 19 b4 be b4 3b da 3e 7d 8b 9b 3e 3a 75 5b bd
       -0.35175747 0.42623675 0.3037986 -0.053578593
0000a0 42 24 92 3d 7f 72 09 3f 70 21 40 bd df 1d 85 3e
       0.07135822 0.5369033 -0.04690689 0.25999352
0000b0 cb 07 99 3e 86 13 a7 3c 38 8b 9c 3e dd 40 01 3f
       0.29888758 0.020395052 0.30574965 0.504896
0000c0 36 d7 53 be 5c 5b d9 be 77 4e 92 be aa 70 c2 3e
       -0.20687565 -0.42452514 -0.2857549 0.3797658
0000d0 40 ed f0 be 02 50 60 be 04 c1 cf be ac f9 b2 3e
       -0.47056007 -0.2190552 -0.40576947 0.3495611
0000e0 fa 92 ba 3e 43 8f 1c bd 40 8a ff be 77 35 55 3d
       0.3644026 -0.038222563 -0.49910164 0.05205294
0000f0 9a 4e ce bd 7b 7d 09 be 85 13 76 be 55 40 75 be
       -0.10073586 -0.13426773 -0.24030884 -0.23950322

pre_mono.0.bias f4 [16]
000000 49 b3 c6 be 35 98 27 bd c1 64 ab bd b6 76 20 3e
       -0.3880866 -0.04091664 -0.08368827 0.15670285
000010 00 b3 cf be 48 c9 ef bb ed 88 5d 3e ba 12 8d be
       -0.40566254 -0.0073176958 0.21634264 -0.2755335
000020 40 53 40 3e 78 64 23 bd da 17 26 be 52 ef 36 3e
       0.18781757 -0.039890736 -0.16220036 0.17864731
000030 44 8c 11 be 11 5b 0c 3f 90 a3 a9 3e 87 cd f5 3d
       -0.14213663 0.54826456 0.331326 0.12002092

pre_mono.1.weight f4 [16, 16]
000000 bb 12 0d 3e d9 a6 89 be 23 c6 28 3d 9d c0 12 3d
       0.13776676 -0.26885107 0.041204583 0.03582822
000010 94 3c 1b bd 9c 6d a5 3e cf 71 7a bd b3 8b 11 be
       -0.03789957 0.32310188 -0.061143693 -0.14213447
000020 d4 56 6a 3e f8 65 11 3c f5 c9 d4 bd b6 58 86 3e
       0.22884685 0.008874409 -0.10390083 0.26239556
000030 e5 41 4a be 6f eb b5 3d f9 81 6b 3e d2 97 8f 3e
       -0.197517 0.08882796 0.229988 0.28045517
000040 a1 ed 6f bd 3e df 57 bd 9a 09 90 bd dc f7 e8 3c
       -0.05857623 -0.052703135 -0.07033081 0.028438501
000050 c5 b9 f0 bd 34 c3 f4 3d f8 cb 94 bd 92 a8 5a be
       -0.11754183 0.119512945 -0.072654665 -0.21353367
000060 e9 f5 10 3e 02 12 6c 3e 3b 3b c6 bd ac a2 05 be
       0.14156307 0.23053744 -0.09679266 -0.13050336
000070 5e 2d 60 be 0a 66 98 bd 3e ac fa bd 9f b8 2d 3d
       -0.21892306 -0.074413374 -0.12239884 0.042412397
000080 32 8a f6 3d 03 85 da 3d 7f 75 b5 bd b4 48 3d 3e
       0.120380774 0.10669901 -0.08860301 0.18484765
000090 63 df 85 3d 95 77 7d 3e 6e ee ab bb bb 07 2d bd
       0.06536748 0.24752648 -0.005246929 -0.0422437
0000a0 d2 d4 ed bc 85 73 82 3d 7a 8f ee bd ad 48 2e 3e
       -0.029032145 0.0636969 -0.1164846 0.17019911
0000b0 11 4e ae be cb f1 44 be d7 6f 81 bd 31 06 06 bc
       -0.34043935 -0.19232862 -0.0632016 -0.008180187
0000c0 be b7 11 3e 4e cd 1c be ce a1 8c 3c 51 80 f2 3d
       0.14230248 -0.15312693 0.017166998 0.11840881
0000d0 cd 82 7e 3e dd d0 ff bd bb cf 6b 3e c5 81 7a 3e
       0.24854584 -0.124910094 0.23028462 0.24463566
0000e0 ba 21 94 3e 8a 75 94 3e 8f d6 88 3d b1 d4 75 3d
       0.2893198 0.28995925 0.06681549 0.06001729
0000f0 08 fc 07 3e ab a4 ae 3d a5 93 c2 bd b3 f3 76 bc
       0.13279736 0.08527502 -0.09500817 -0.015072751
000100 8f 67 05 be 84 23 1e bc 5c 3b a7 3e 0c 8d 99 3d
       -0.13027786 -0.009652022 0.32662475 0.07497606
000110 55 60 b6 bd d5 52 1a 3e 0e ff 83 ba 93 15 1b be
       -0.089050926 0.1507066 -0.0010070519 -0.15144949
000120 f3 f0 87 3c 20 dc d7 bc 8c 84 cf bd ec e0 68 3e
       0.016594386 -0.026350081 -0.10132703 0.22742051
000130 ae 1e 21 3e 3e 2d 45 3e 0f f7 13 3e b6 8e a3 bc
       0.1573436 0.1925554 0.14449714 -0.01996551
000140 b2 75 0f 3e 5f b7 63 be 15 85 a8 bd ad e3 ab bd
       0.14009741 -0.2223792 -0.082285084 -0.08393035
000150 91 4c 3c 3e 26 ef 4e 3e 06 a7 87 3e f7 9b fe bd
       0.18388583 0.20208415 0.26494616 -0.12432092
000160 5d 57 62 3c 97 bf 9b 3e b6 a8 a5 bd 8a 13 09 bc
       0.013814774 0.3041961 -0.0808882 -0.008366475
000170 65 9a 5b 3e 06 32 22 3e a5 9e 64 3d 72 74 2b 3e
       0.21445616 0.15839395 0.055815358 0.16743639
000180 65 02 20 3e 20 7f 1e 3e 3d 57 e0 bd 34 e1 25 bc
       0.15625913 0.15478182 -0.109541394 -0.010124493
000190 e6 62 14 be 46 58 02 3e c2 65 46 3e cf b5 cd 3c
       -0.14490852 0.12728986 0.19374755 0.025111107
0001a0 ae c7 56 be 6c ab 14 be b1 0d 0c be 09 57 8c bd
       -0.2097461 -0.14518517 -0.13677098 -0.06852538
0001b0 72 f1 de 3d 44 31 ac bd 9c 90 25 be 97 9f 34 bd
       0.10885896 -0.08407834 -0.16168445 -0.04409751
0001c0 61 bb bc 3e 43 d1 3f 3e 28 95 5b 3e 1f d1 63 3e
       0.3686171 0.18732171 0.21443617 0.22247742
0001d0 b9 60 d5 bc c5 4e 12 3e 50 ed 4d 3e bb be 57 3e
       -0.026047098 0.1428786 0.20110059 0.21068852
0001e0 98 35 c0 3e 32 ce af 3e 4b e5 1a 3e 55 5c 0b 3d
       0.3754089 0.34337002 0.15126531 0.0340236
0001f0 6d 59 3a 3e 93 77 c3 3d 53 a4 0f 3e 0c d3 15 3c
       0.18198176 0.09544291 0.14027528 0.009144556
000200 39 21 cf bc 9d 65 26 3e 4e 89 2d 3c 7a a1 8b 3c
       -0.025284396 0.162497 0.010591818 0.017044771
000210 f5 59 37 be 8b 24 a2 bd c9 9b 6f 3e 26 66 3d 3e
       -0.1790541 -0.07917126 0.23399271 0.18495998
000220 ea 3b 3d 3d 6b e4 c9 bd 11 a1 a4 3e 80 c9 51 bc
       0.046199717 -0.098580204 0.32154134 -0.012804389
000230 22 76 ea 3d eb dd 2a 3e 00 f3 a7 3c 0f 80 20 3e
       0.11448313 0.16686217 0.020501614 0.1567385
000240 57 90 64 3e cf 34 81 bc 13 7c 8d 3b 7b 97 4d be
       0.22320686 -0.015772251 0.0043177693 -0.20077316
000250 65 77 0e 3e 8e 39 05 be a6 68 f6 bd c2 b8 b4 bb
       0.13912733 -0.13010237 -0.12031679 -0.005515189
000260 1d b1 78 3d 0f d8 b5 3d 78 01 25 be d0 66 fb bd
       0.060715783 0.088791005 -0.16113842 -0.12275469
000270 c8 34 21 be c3 4a 47 3e 65 c9 36 be 03 06 14 3e
       -0.1574279 0.19462113 -0.17850263 0.14455418
000280 a4 c1 00 be ae cd 2d 3e 88 d2 f7 bd 35 55 51 be
       -0.12573868 0.16972992 -0.121007025 -0.2044266
000290 32 a2 58 3e f0 27 1d bc 04 fc a6 bd 95 92 35 be
       0.21155623 -0.009592041 -0.08153537 -0.17731698
0002a0 d7 a7 49 be 1a bf 3a be 4c e1 20 3d 9d a1 10 3e
       -0.19692932 -0.18236962 0.03927736 0.1412415
0002b0 1f 8a 5d 3e c4 fe 43 be 6c 5b cb 3d 9e 0b 57 be
       0.2163472 -0.19140154 0.09929547 -0.21000525
0002c0 2e 0f a6 bd f2 93 65 be 72 8f fa 3d d0 7a 15 be
       -0.08108364 -0.22419718 0.12234391 -0.1459763
0002d0 55 de 34 3d d6 20 88 3e 27 c4 24 be 04 68 23 be
       0.044157345 0.26587552 -0.16090451 -0.15957648
0002e0 52 7d 2e 3e ac 70 f9 3d b2 e6 55 3e d1 b6 e1 bd
       0.17039993 0.121796936 0.20888785 -0.110211976
0002f0 32 eb 87 3d eb 6a 4e 3e 1c f3 c8 3d ea e5 2c bd
       0.06636657 0.20157973 0.098119944 -0.04221145
000300 56 81 6d 3e 27 7a 9a bd 4c 98 3f bc 15 6b 0f 3e
       0.23193869 -0.0754283 -0.011694025 0.14005692
000310 18 ce e9 bd c6 76 72 3d 4b 40 3c 3e fe 0d d8 3a
       -0.114162624 0.059195302 0.18383901 0.0016483662
000320 31 d6 10 be e7 ee a9 bd 16 b7 32 be 11 59 84 3e
       -0.14144208 -0.0829752 -0.17452654 0.25849202
000330 8c 9e 80 3d 85 fd 4b 3d c1 50 82 be a2 1d 77 3e
       0.062802404 0.049802322 -0.25452235 0.24132398
000340 65 77 cf bd 56 4a 1f 3e de 7a 38 3e 96 ad 8d 3e
       -0.101301946 0.155557 0.1801562 0.27671498
000350 c7 e4 2b 3d c1 d7 6e bc a2 dc 96 3e eb d1 2c 3e
       0.041966226 -0.014577807 0.29465204 0.16876952
000360 cb a9 62 3d b2 bc 17 3d ef 8c 53 bc 1d eb 92 3e
       0.05533771 0.03704519 -0.012912019 0.28695002
000370 9f c4 1a 3e 70 62 0a 3e 5e 86 d1 bc d0 f2 fc bd
       0.15114067 0.13514113 -0.025576767 -0.12351
000380 1a ec 32 be 25 b8 a2 bd a7 61 32 bd d0 af 0b bd
       -0.17472878 -0.07945279 -0.04355016 -0.034103215
000390 a4 73 c2 3d 1d 54 01 bd 1b 31 ee 3c 0f cc de bd
       0.09494713 -0.031574357 0.02907615 -0.10878765
0003a0 49 bf 28 be c6 8e 03 be 98 45 97 3e c7 25 2d bd
       -0.1647922 -0.12847432 0.29545283 -0.042272355
0003b0 86 16 ce 3d 8c a2 93 3e 85 ca f5 bc e0 f1 b3 bd
       0.1006289 0.2883495 -0.030003795 -0.08786368
0003c0 5c 92 a2 3e 41 bc 17 bd 3e 34 94 3e e3 3f 0e be
       0.31752288 -0.037044767 0.28946108 -0.13891558
0003d0 14 05 fa 3b b3 59 0b 3e 0b d7 60 3e 25 3a 02 be
       0.00763 0.13608436 0.21957032 -0.12717493
0003e0 c3 aa 98 3e 27 2e af 3e 0e 29 69 3e 6c da 85 3e
       0.2981778 0.342149 0.22769567 0.26143205
0003f0 c9 9f 16 3e 80 e2 9f bb 18 92 a6 bc f3 9f ec bb
       0.1470939 -0.004879296 -0.020333335 -0.007221216

pre_mono.1.bias f4 [16]
000000 c8 e2 a1 3c de b1 4b be b7 8c 89 3e 8f 14 99 bd
       0.019761458 -0.1989207 0.2686517 -0.07474624
000010 9c dd 33 3e 71 fc e1 3d c3 36 ae 3c ce 0d 8f bd
       0.17565006 0.110344775 0.021266347 -0.06985055
000020 91 fb 14 3e 86 ae 5a be 17 36 ee bd 92 43 d2 bd
       0.1454909 -0.21355638 -0.116314106 -0.10266794
000030 37 11 7c 3e ae ff 1f 3e 9f cc 8b bd 17 75 c7 bd
       0.24615942 0.15624878 -0.06826138 -0.0973913

pre_mono.2.weight f4 [16, 16]
000000 d8 e5 1d bc 34 99 06 bb 25 06 46 3e f6 ad 5b 3e
       -0.009637319 -0.0020538094 0.19338281 0.2145308
000010 81 a8 63 3e b9 20 18 bd 57 44 aa 3d 9f 23 83 3e
       0.22232248 -0.03714058 0.08313816 0.25613114
000020 e7 7b 7f 3d 4f 9e 18 3e 10 a6 53 3e 1d 91 2c be
       0.06237402 0.1490414 0.20668817 -0.16852231
000030 70 cd 8d 3c 92 cc 2e 3e a8 12 31 be 48 79 23 3e
       0.017309874 0.17070225 -0.17292273 0.15964234
000040 1a cd 49 3e d2 07 db bd 24 8e b8 3d c0 b2 94 3e
       0.19707146 -0.10694851 0.09011486 0.29042625
000050 6e 99 8f 3e 1a 58 81 bd ee 00 d0 bc 4a 92 22 3e
       0.28046745 -0.06315632 -0.025391068 0.15876117
000060 9d 44 1f 3e 51 6d 36 be 8d 81 08 3d 92 e3 d8 3c
       0.15553518 -0.17815138 0.033326674 0.026475701
000070 27 5b 18 be 3f 3f 5a 3e 72 78 68 3e a0 da cc bd
       -0.14878522 0.21313189 0.22702196 -0.10002637
000080 d2 7b d6 bd 00 89 75 3b 22 9c 3b be 95 b5 3f be
       -0.104728356 0.0037465692 -0.18321279 -0.18721612
000090 12 f1 b9 bd 60 9b 1f be bc 77 39 be 08 48 55 be
       -0.09079184 -0.15586615 -0.18112081 -0.20828259
0000a0 80 6b 2e bb 88 50 6f 3e 60 1b 2e bd fa b1 56 3e
       -0.0026614368 0.23370564 -0.042506576 0.2096633
0000b0 60 a1 c5 3d 48 3a 78 bd 74 d5 28 3e 00 65 8e bc
       0.096499205 -0.060602456 0.16487676 -0.017382145
0000c0 6a 3a 7a 3e c5 9a 85 be cf fd 4b 3d 85 c9 b5 3c
       0.24436346 -0.26094642 0.049802598 0.022190819
0000d0 ef 99 47 3d ff da 52 bd cb 32 8e 3e 80 d8 21 be
       0.048730787 -0.051478382 0.27773127 -0.15805244
0000e0 57 0a 0b 3d fd 4d 01 be 7e 1c 75 3e a8 af 7a 3c
       0.033945408 -0.12627406 0.2393665 0.015300669
0000f0 c8 d9 36 3e b1 04 54 3e b0 49 5f be 66 15 8c 3e
       0.17856514 0.20704915 -0.21805453 0.27360076
000100 a5 25 5e be 60 bd 1a be 12 2c 42 3e 36 8a 45 be
       -0.21694048 -0.15111303 0.18962124 -0.19291005
000110 3c fb 0f bd 00 21 3b 3d b2 fb 07 3e dc 81 78 3e
       -0.035151705 0.045685768 0.13279608 0.24268287
000120 88 1b 1e bd 1e 60 65 3e 34 41 c6 3d b0 3b 3c bc
       -0.038600475 0.22399947 0.09680405 -0.01148884
000130 d6 74 65 be 70 92 15 bc e8 7a 18 3e 8e dd 36 be
       -0.2240785 -0.009129152 0.14890635 -0.17857954
000140 e8 de 34 be 50 b6 cc bc 48 5a 22 3e 10 c0 fa 3c
       -0.17663157 -0.024989277 0.15854752 0.03060916
000150 e0 09 14 bc 56 b1 4b 3e d2 3a 41 be 84 f2 2c be
       -0.0090355575 0.19891867 -0.18870094 -0.16889387
000160 30 83 be 3c f8 23 fb 3d 7a af 0d 3e 20 06 ff bd
       0.023255914 0.1226272 0.1383647 -0.1245234
000170 7c 52 e3 3d 7c 51 c6 bd ee fe dd bd 70 73 5f bc
       0.11099717 -0.09683511 -0.108396396 -0.013638362
000180 6e 76 34 3e 37 60 bb be 76 9d 8c bd e9 3f 5e bc
       0.17623302 -0.36596844 -0.06865971 -0.013565042
000190 17 3c ab 3c 13 2d 4c 3e 93 e3 35 be cd 1a 77 3e
       0.020902677 0.1993907 -0.17762594 0.24131317
0001a0 8c 48 44 3e a0 50 0a be cc 76 97 bd 20 15 d0 3d
       0.191683 -0.13507318 -0.073957056 0.10160279
0001b0 0d 06 f1 bd ff b0 e8 bd 5f fc 3f be c0 c9 43 3e
       -0.11768732 -0.11361884 -0.18748616 0.1911993
0001c0 92 92 82 3e 35 44 27 be f6 d7 82 3e 92 47 ac bd
       0.2550245 -0.16334613 0.2555539 -0.084120885
0001d0 79 48 3d bd 91 dd 15 bd ce 96 db bd 29 ba ca 3d
       -0.046211693 -0.036588255 -0.10722123 0.098987885
0001e0 6c a1 28 3c b2 40 6d 3e 39 56 a8 3c f4 b5 c4 ba
       0.010292392 0.2316921 0.020548927 -0.001500784
0001f0 58 b1 9a 3e 30 21 3e 3e 77 b6 47 be 9e c6 4e 3e
       0.30213428 0.18567348 -0.19503199 0.20192954
000200 bf f7 fd 3d e0 86 18 bd c9 0c 82 3d 18 31 8a 3d
       0.124007694 -0.037238 0.06350095 0.06747645
000210 4d 97 58 3e d0 e2 51 3e f3 e8 84 3d 5d f1 77 3e
       0.21151467 0.20496678 0.06489744 0.24213167
000220 e9 22 08 3e ef 70 54 bd 24 70 03 3e 49 32 69 3e
       0.13294567 -0.051865514 0.12835747 0.22773089
000230 10 cb 74 3e d6 f5 04 3b 34 ce 6e 3e 62 2a 9b 3e
       0.23905587 0.0020288131 0.23320848 0.30305773
000240 5e fc 80 3e d6 57 82 be f0 33 66 bd 0c f1 36 be
       0.2519254 -0.25457639 -0.056201875 -0.1786539
000250 27 1f 9e bc 02 32 8c 3d ae d0 c1 bc 54 06 8c 3e
       -0.019301964 0.06845476 -0.023659077 0.27348578
000260 cc 4a 11 3e ea 34 86 3e 7b 67 05 3e d3 a8 5b 3d
       0.14188689 0.26212245 0.13027756 0.0536278
000270 f3 fa 77 bd 12 ba 1c 3d 4e aa 1e be af 08 1d 3d
       -0.06054206 0.038263388 -0.15494654 0.03833836
000280 cf f3 8b 3e 39 94 76 bd a6 ba 30 3e 7f 83 49 3e
       0.2733445 -0.06019995 0.172587 0.19679068
000290 9f d4 16 be b5 f8 a4 3e d9 4a 80 3e ce 7e ab bd
       -0.14729546 0.32220998 0.25057104 -0.083737954
0002a0 ec c0 f3 bd 5f 3e 3d 3d fe bc d9 3c 49 8f 59 3e
       -0.11902031 0.04620206 0.026579376 0.21246065
0002b0 ff 0a 85 3d 4f 14 95 3d 9c c6 81 be 55 4e 32 3e
       0.06496238 0.07279264 -0.2534684 0.17412694
0002c0 fd 6e 3d bd 9f 86 99 bd 3b b3 fb 3c a2 1e 52 3e
       -0.046248425 -0.0749638 0.030725112 0.20519498
0002d0 db a3 64 3d bd 1f d5 3b d4 41 f6 bc 82 96 18 be
       0.055820327 0.0065040276 -0.030060686 -0.14901164
0002e0 2d fe 63 3c 58 71 58 bd fd f2 01 be 5a fd 32 3e
       0.013915581 -0.052842468 -0.12690349 0.17479458
0002f0 0a 67 87 3e b2 d4 65 3e c9 39 51 3e ae d6 a8 3e
       0.264458 0.22444418 0.204322 0.32976288
000300 10 57 a0 3e 52 59 ae bd 45 6d c9 3e 6b 94 46 bd
       0.31316423 -0.0851313 0.3934118 -0.048481386
000310 df 4f ee bd 61 3d 53 3e 25 2d 3a be 5d 86 df 3c
       -0.11636328 0.20628883 -0.18181284 0.02728575
000320 c2 b8 83 3e 9c 0b e7 bd 02 28 cb bd 16 2d 3b be
       0.25726897 -0.11281511 -0.0991974 -0.18278918
000330 36 d5 38 bc a7 c6 e5 3d a7 c4 69 be 77 16 cc bd
       -0.011281302 0.112195306 -0.22828923 -0.09965222
000340 cb 9c 88 3e 81 fb 81 be 53 1f b7 3d 30 73 25 3d
       0.26682124 -0.25387195 0.089415215 0.040393054
000350 f2 46 ca 3d 0f c7 d0 3d ca ec 1c bd fd b4 5a 3e
       0.09876813 0.101942174 -0.038311757 0.21358104
000360 ad da 30 3e 09 5f 8c bd 70 cd 6a 3e 09 da 28 bc
       0.17270918 -0.06854064 0.2292993 -0.01030589
000370 7a 67 f3 3d 23 86 85 3e 60 65 55 3e 37 7e b3 bd
       0.11884971 0.260789 0.20839453 -0.08764308
000380 cd 37 21 3e 5e c7 0e be b5 67 fa bd 6c ec 61 3e
       0.15743943 -0.1394324 -0.12226812 0.22062844
000390 a7 b1 7e be 0d 94 28 3e 7a 78 1f be 03 8f 03 3e
       -0.24872456 0.16462727 -0.15573302 0.12847523
0003a0 25 12 8d bd e2 6a 68 3e c8 cf 7f bd fa 70 23 3c
       -0.068882264 0.22697023 -0.062454015 0.009975666
0003b0 56 fe 68 3e db f3 5e be db 87 55 3d 2d 5e 58 bd
       0.22753271 -0.21772711 0.052131515 -0.052824188
0003c0 3b 71 67 be 04 04 2a be 20 dc 9d bc 58 03 df bd
       -0.22601788 -0.16603094 -0.019270003 -0.1088931
0003d0 c4 dd 62 3e dc c0 18 bd 90 aa 14 be f2 1c 62 be
       0.2215491 -0.0372933 -0.1451819 -0.22081354
0003e0 e9 82 12 be 0c b7 d3 3d 54 2c 23 3e 00 bc db 3d
       -0.14307751 0.10337648 0.15934879 0.107292175
0003f0 b4 10 65 bd 80 e3 e9 bc 80 ed e7 bb e0 ee f9 bc
       -0.055924132 -0.028550863 -0.0070778728 -0.030509412

pre_mono.2.bias f4 [16]
000000 e9 7f ab 3e b8 b8 b5 3d 84 04 45 bd 65 af a9 3d
       0.33496025 0.08873123 -0.04810001 0.08285407
000010 ea c4 5b be 76 9f 5b be e9 d5 8c 3e d7 64 b7 bd
       -0.21461836 -0.21447548 0.2750695 -0.089547805
000020 ab 82 f7 3d 40 c2 81 3e 75 8b c7 3d 54 7e 8a 3e
       0.1208547 0.25343513 0.09743396 0.27049506
000030 3d 77 74 3e f5 c3 b6 3d 8c 4c 7a be a0 83 d6 bd
       0.23873611 0.089240946 -0.24443263 -0.10474324

mono.0.weight f4 [16, 19]
000000 9b 06 09 3e 08 85 e4 bd 34 d8 80 3d 4e c0 bd bd
       0.13381426 -0.11158186 0.062912375 -0.09265195
000010 19 b6 c8 3d be b6 5f 3d 8d 04 f0 bd c6 ce 79 be
       0.09800357 0.054617636 -0.11719618 -0.24395284
000020 38 6b fc 3d 37 79 94 be a4 e6 2d 3e bd 3c c1 3d
       0.12325138 -0.2899873 0.16982514 0.09435413
000030 0e 74 18 be 9b d5 7f 3e c5 df d2 3c 7d d5 c2 3d
       -0.14888021 0.24983828 0.025741467 0.09513376
000040 02 50 4b 3e ac 65 83 be 0c 9c 4d be b0 b1 9a 3e
       0.1985474 -0.25663507 -0.20079058 0.3021369
000050 bb 4d 90 be a9 49 7f bc 94 ab cb bd d7 a1 26 3e
       -0.28184304 -0.015581527 -0.09944835 0.16272675
000060 d2 ab b2 bc 95 fd 1a 3e 4d 90 8e bd ae 5c 4c be
       -0.021810446 0.15135796 -0.06961117 -0.1995723
000070 46 3c 5e be 63 99 80 be 57 60 93 be 44 8e 7d be
       -0.2170268 -0.25117025 -0.2878444 -0.24761301
000080 ab 88 ee 3d ae 52 25 3e 1c 2a 39 3c 2a 22 54 be
       0.11647161 0.16144821 0.011301544 -0.20716158
000090 5f 1b 64 3e ff 0c 4e be 00 8a 07 be c0 14 3b be
       0.22276066 -0.20122145 -0.13236237 -0.18269634
0000a0 32 88 93 bd 8b 71 96 be 38 7a c8 3d 23 b1 b6 3d
       -0.072037116 -0.293835 0.097889364 0.08920505
0000b0 bd c9 0b 3e 64 2a 2f 3e bf 4e 2c 3e de e7 c6 3d
       0.13651176 0.17106014 0.16826914 0.09712194
0000c0 e7 a5 27 3e f3 96 c6 3d c3 bd 62 3e 74 a7 5d 3e
       0.1637188 0.0969676 0.22142701 0.2164591
0000d0 61 5c 33 3e 74 29 08 3e 98 1f 23 be c1 5e 09 be
       0.17515709 0.13297063 -0.15930021 -0.13415052
0000e0 b4 72 25 be 33 37 5c 3e 6f 33 aa 3d c1 6d 59 3e
       -0.16157037 0.21505432 0.083105914 0.21233274
0000f0 23 f2 49 3e 29 c7 48 be c0 71 89 3d 85 7b 9f 3e
       0.19721274 -0.19607224 0.06711149 0.31148925
000100 38 5c 86 3e 9b 6a 99 bd 8d 37 27 3e fd b5 b5 be
       0.26242232 -0.074910365 0.16329785 -0.3549041
000110 26 49 1c be 57 67 57 3e 1b 29 8b be 87 05 57 3e
       -0.15262279 0.21035515 -0.27179798 0.20998202
000120 7e 7d 1a be d1 c9 31 3e 32 2a 04 be c1 d9 1b 3e
       -0.15086934 0.17362143 -0.12906721 0.15219785
000130 1f 49 d4 3d 90 44 8b be 48 d8 49 bd 68 3c 67 be
       0.10365509 -0.27200747 -0.049278527 -0.22581637
000140 3c b8 47 3e 3b b1 e6 bc 73 73 a3 be ea ef e9 3d
       0.19503874 -0.028160682 -0.31924018 0.11422713
000150 9a e2 2e 3e 68 44 42 be 28 c8 24 be f7 d1 36 3e
       0.17078629 -0.18971407 -0.16091979 0.17853533
000160 50 b4 76 be ae 61 3c be de b4 04 bd 87 f9 24 be
       -0.24092221 -0.18396637 -0.03239905 -0.16110812
000170 ab f6 76 3e 8b 7b 0d 3e ef fb 7d 3e 7e 29 51 3e
       0.24117534 0.13816659 0.24803136 0.20425984
000180 cc 8a 6f be e3 6c 12 be ca 8a 73 be 12 02 97 bd
       -0.2339279 -0.1429935 -0.23783413 -0.07373442
000190 37 b1 ab bd d4 04 03 be 64 98 8f be 42 e8 2b 3e
       -0.083834104 -0.1279481 -0.28045952 0.16787818
0001a0 97 68 5e 3e c9 8d 59 3e b5 87 66 3e 04 b6 8a 3e
       0.21719585 0.21245493 0.22512706 0.27091992
0001b0 96 e5 93 be 35 47 38 3d 84 ea 59 3e d2 15 89 be
       -0.28886098 0.044989783 0.21280867 -0.2677446
0001c0 a6 d5 64 be 12 2a ff bd 14 33 65 be 92 d5 cd bd
       -0.22347125 -0.12459196 -0.22382766 -0.10050501
0001d0 ae db 0a bd 7f 32 92 3e 80 58 6c bc 6d c8 fe 3d
       -0.03390091 0.2855415 -0.014425397 0.12440572
0001e0 a4 71 84 3e d0 93 24 3e 01 87 8a be 0b 73 84 3e
       0.2586795 0.16072011 -0.27056125 0.2586902
0001f0 35 c8 94 3e 89 66 79 be da 50 38 be 32 e9 5f 3e
       0.29058996 -0.2435552 -0.17999592 0.218663
000200 b7 03 6f be a3 e6 4d be e7 75 83 be ce 0e 45 3e
       -0.23341261 -0.20107512 -0.2567589 0.19243929
000210 e8 ff 52 be 60 b4 92 be 8e bb 15 3e 5d a8 ed 3d
       -0.20605433 -0.2865324 0.14622328 0.11604378
000220 a9 a4 2a 3e 45 46 49 be 5b bf 64 3e fe 63 de bd
       0.16664375 -0.19655712 0.22338621 -0.10858916
000230 99 cf 8d be 4b 83 d8 bd 10 f8 72 3e ff 15 7c 3e
       -0.27697447 -0.10571917 0.23727441 0.24617766
000240 2b 4d a8 bd 94 8f 85 3e af 30 8b be 8a 5b 2d 3e
       -0.082178436 0.26086104 -0.2718558 0.1692945
000250 18 32 69 3e 2c b4 77 be f7 a9 2f 3e 11 e4 19 be
       0.22773015 -0.24189824 0.1715468 -0.15028407
000260 90 bc 8c be 5a 4e 73 bd 8f 74 9d bd e4 bb 8d be
       -0.27487612 -0.059400894 -0.076882474 -0.27682412
000270 1e 2e 2b be 07 08 a4 3b 4a 65 9b 3e 83 35 10 3e
       -0.16716811 0.0050058397 0.30350715 0.14082913
000280 d0 0e 65 be fe 09 7b 3e 0b 66 22 3e 6e 4d 9b be
       -0.22368932 0.2451553 0.15859239 -0.30332512
000290 b0 47 df 3d e0 d5 56 3e d0 b4 14 be 24 f2 2c bc
       0.10902345 0.20980024 -0.145221 -0.010555778
0002a0 24 87 5b be 06 a0 99 be ff cb 76 be e0 bc d5 3d
       -0.21438271 -0.300049 -0.24101256 0.10436416
0002b0 42 1d 52 3e 66 9d 2e bd e2 1a 93 be 50 b3 00 bb
       0.20518973 -0.042630576 -0.28731447 -0.0019638129
0002c0 4d 51 4c be e6 b5 d5 3d 14 09 6a 3e 30 d8 2c 3e
       -0.19952889 0.10435085 0.22855026 0.16879344
0002d0 07 ac 68 be 4e 17 43 be b8 34 2f 3e 66 ca 24 3e
       -0.22721873 -0.19051859 0.17109954 0.16092834
0002e0 d7 31 8e be e0 b6 13 be 23 2a a6 bd d1 fc 3e 3e
       -0.277724 -0.1442523 -0.08113506 0.1865113
0002f0 1b a1 a7 3e 71 ef 5c 3e ef 27 29 3e 5f 0c 81 be
       0.327401 0.21575715 0.1651914 -0.2520475
000300 a5 02 18 3e 70 1d 28 3e 6d 15 97 bd 85 6f e1 bd
       0.14844759 0.1641748 -0.073771335 -0.11007599
000310 63 15 1d 3e 4a 40 3b be 12 97 27 3e 09 f1 84 3e
       0.1534019 -0.18286243 0.16366223 0.25965145
000320 c4 0b 93 be f4 68 61 be d1 24 43 be 4f 91 84 be
       -0.28719914 -0.22012693 -0.19057013 -0.25892112
000330 e8 89 14 bd d3 51 12 3e 6e bd 3f 3e b0 28 47 be
       -0.03626433 0.14289026 0.18724605 -0.19449115
000340 90 4b 11 be 10 e5 39 be 38 8f 77 be 0c 3d 80 bd
       -0.14188981 -0.18153787 -0.24175727 -0.06261644
000350 eb ab c6 3d e5 44 ee bd 68 ff 2f be d0 ff 21 3e
       0.097007595 -0.11634234 -0.17187274 0.15820241
000360 0b 9f bc 3d 94 b6 11 be 93 99 19 3e b1 48 b4 3e
       0.092100225 -0.14229804 0.1499999 0.3521171
000370 50 b8 bc 3d d4 73 83 be b1 6a 8c 3e 28 ee 33 3e
       0.09214842 -0.25674307 0.2742515 0.17571318
000380 32 60 b3 bc 7d d9 54 be e0 65 63 be e6 de a1 3e
       -0.021896455 -0.2078609 -0.22206831 0.3161537
000390 5b 70 4d 3e 1d 20 33 be 31 04 16 3c 1d 5c 03 3e
       0.20062391 -0.17492719 0.009156273 0.12828107
0003a0 bf 67 78 3d fa a6 54 bc 6f 61 57 be de d8 85 bd
       0.060645815 -0.012979263 -0.21033262 -0.06535505
0003b0 c3 73 09 be d7 42 27 be e5 fc 80 be 00 9f 42 be
       -0.13423066 -0.16334091 -0.25192943 -0.19005966
0003c0 84 2d 53 be b6 59 1c 3e d7 42 51 be 6d 70 5f be
       -0.20622832 0.15268597 -0.20435654 -0.21820231
0003d0 1d 3e 99 3e 35 b9 52 3e ec 48 77 3e 73 a2 39 3e
       0.299302 0.20578463 0.24148911 0.18128376
0003e0 6c 89 13 be 0b 8b 13 be c1 59 72 be 22 33 6d bc
       -0.14407891 -0.1440851 -0.23667051 -0.014477523
0003f0 eb 0f 69 3d 8f 91 9c be ed 2d 70 be 45 8a 4c 3e
       0.056899946 -0.30579802 -0.2345502 0.1997462

mono.0.bias f4 [16]
000000 49 e3 90 3d d4 bf a8 3e af f6 a7 3e ad d9 87 bd
       0.07074601 0.32958853 0.32805392 -0.06633315
000010 03 5a 32 3d 5e 3a 70 3e b6 d6 7b 3e 14 79 7b bd
       0.043542873 0.23459765 0.24593624 -0.061394766
000020 cd fc 81 bd e3 fa 4d 3e 36 42 6c bd a3 76 8b 3e
       -0.06347046 0.20115237 -0.05768033 0.2723895
000030 26 d2 91 bd e7 13 f5 bc 42 68 47 3e ff fc 6d 3e
       -0.07120161 -0.029916717 0.19473365 0.23241042

mono.1.weight f4 [16, 16]
000000 94 f9 64 bd 1e 2a 14 be 8e d8 44 3e be cf 31 3e
       -0.05590208 -0.14469191 0.19223234 0.17364404
000010 0b 75 22 3e 2e 0e 6c be 04 5f 9a bd 0a 84 6b bd
       0.15864961 -0.23052284 -0.07537654 -0.05749897
000020 51 27 c9 3d 49 b1 a4 3e 19 5e 19 be 1a 4a a1 3d
       0.09821952 0.32166508 -0.14977302 0.07875462
000030 57 ef 44 3e ac 1f 74 3e 12 32 70 be 89 61 df 3d
       0.19231926 0.23840207 -0.234566 0.10907275
000040 4a d8 96 3e 62 08 27 be 80 a6 80 3e cf 83 31 bb
       0.2946189 -0.16311792 0.2512703 -0.002708662
000050 03 6c a3 3e 84 fe 5b be 7d 64 0e 3e 7a b5 8c 3e
       0.31918344 -0.21483809 0.1390552 0.27482206
000060 20 62 8d 3e 2d d0 d9 bd de 58 2e be 37 6a d2 3d
       0.27613926 -0.106354095 -0.17026088 0.10274165
000070 27 27 9d bd 1a 7c 82 3e 36 36 ee bd 2b 90 fe 3d
       -0.07673483 0.25485307 -0.11631434 0.124298416
000080 bd e6 3e be 00 4a 43 ba 27 d1 a0 3e 87 03 67 3e
       -0.18642707 -0.00074496865 0.3140957 0.2255994
000090 3f 66 4c 3e 6c 63 16 be 7f d8 9d 3e c8 7c b9 bd
       0.19960879 -0.14686364 0.30829236 -0.09057003
0000a0 26 49 a6 3e 08 33 41 be f7 a5 bb bd 15 a5 89 bd
       0.32477683 -0.18867123 -0.09162515 -0.0672094
0000b0 3e ef 0c 3e 76 42 6e 3e 82 21 18 3e a0 64 a6 bd
       0.13763139 0.2326754 0.14856532 -0.081246614
0000c0 4d d6 2a be d0 d0 95 bd 08 72 f2 bd c7 11 f1 bd
       -0.16683312 -0.073152184 -0.11838156 -0.11770969
0000d0 9b 1b 7f 3e 91 28 04 3e 0c 99 09 be 30 51 59 3e
       0.24912874 0.129061 -0.13437289 0.21222377
0000e0 d2 cc 05 be 63 36 04 be a7 42 82 3d b3 d3 85 3e
       -0.13066414 -0.12911372 0.06360369 0.26138076
0000f0 49 df 64 3e 1a f0 03 be 43 42 27 be ab 70 3a 3e
       0.22350802 -0.1288456 -0.1633387 0.18207042
000100 50 13 9e 3d 3b c2 f8 3d 37 bf d3 3d 12 27 15 be
       0.07718527 0.121464215 0.10339206 -0.14565685
000110 10 5f 31 bc 0c 9d a3 bd f0 0c 31 bd 6b 4b 80 3e
       -0.010825887 -0.07988939 -0.04322523 0.2505754
000120 1c 65 45 be 25 a3 f5 3d 3e 96 ac 3e 06 b9 5b be
       -0.19276851 0.11994008 0.33708376 -0.214573
000130 49 01 3e 3e 90 a1 b0 3e bb 61 71 3e 5a c5 6d 3e
       0.18555178 0.34498262 0.23572437 0.23219815
000140 d1 75 67 bd 22 92 4b 3e a4 9e 00 3e 1a 88 ab 3e
       -0.056508843 0.19879964 0.12560517 0.33502275
000150 a3 c6 56 be 0d 85 64 3e 36 be 1c be 21 b6 3e be
       -0.20974211 0.2231638 -0.15306935 -0.18624164
000160 05 28 a8 3e 85 7b 17 3e c8 b7 d2 bd b5 fd 66 be
       0.32843032 0.14793213 -0.1028896 -0.22557719
000170 19 c5 c7 ba 70 ae 0c bc de cb c3 bb a9 81 77 bd
       -0.0015241235 -0.008586511 -0.0059752306 -0.060426388
000180 eb 5b 2a 3e 18 b1 86 3e 3e 30 4e be 2e fd 81 bd
       0.16636626 0.26306987 -0.2013559 -0.06347118
000190 3e 37 9d 3e 9e 37 74 be fa 5d 97 3e d8 3e 84 bc
       0.3070621 -0.23849341 0.29563886 -0.016143247
0001a0 69 b9 27 3e da fa e4 bd a5 a8 57 3e 19 10 03 3e
       0.16379322 -0.11180659 0.21060427 0.1279911
0001b0 35 89 b2 bc 59 b1 aa 3e e5 46 59 be 26 b0 a0 3e
       -0.021793941 0.3333843 -0.2121845 0.3138439
0001c0 1e 8e 88 3e 68 85 1d bd 4c 50 9f bd 14 1e 96 3e
       0.26670927 -0.038457304 -0.07778987 0.29319823
0001d0 3e 75 47 3e 08 5a 63 be 7c cc 45 be 55 06 54 be
       0.19478318 -0.22202313 -0.19316286 -0.2070554
0001e0 6d 93 7a bd 04 e9 ba bc a2 36 3c 3e 3c fb 7a 3e
       -0.061175752 -0.022816189 0.18380216 0.24509901
0001f0 a9 ca 32 be b2 ec 66 3e 9d 18 3c 3e eb 85 39 3e
       -0.17460121 0.2255123 0.18368764 0.18117492
000200 f8 b2 47 be ba 42 2b be 60 dd f5 bc 12 2b 5b 3e
       -0.19501865 -0.16724673 -0.030012786 0.21403149
000210 46 24 eb bc 00 e9 9f bd 23 cf f1 3d 45 8b e7 3d
       -0.02870382 -0.07808113 0.11807086 0.113058604
000220 44 fe 69 3d 9c 06 f0 3d c5 1f c4 bd 3e a0 9d 3e
       0.057127252 0.11720011 -0.09576372 0.30786318
000230 3a 9d e3 3d fd a1 63 3e a2 22 47 be 71 39 82 bd
       0.11113973 0.22229762 -0.19446805 -0.06358612
000240 d3 45 3b 3e bc 80 26 be 4e cf dd 3d 95 92 d6 bd
       0.18288355 -0.16260046 0.10830556 -0.10477177
000250 bb af 4b bd 61 e0 d9 3d 3a 60 49 be 44 d9 2f 3e
       -0.049728137 0.106385 -0.19665614 0.17172724
000260 92 69 81 3e 27 9d 4e be 45 a0 98 3d ed 6d 3f bd
       0.25275856 -0.20177136 0.07452444 -0.046735693
000270 1f 64 3d be c3 77 68 bc 74 0d 9a 3e 00 82 05 3e
       -0.18495224 -0.01418871 0.3008839 0.13037872
000280 a3 df b4 3d cb c0 a8 3e 0d be 2f 3e 8e 57 92 3e
       0.08831718 0.3295959 0.17162342 0.28582424
000290 d0 37 2c be d0 70 6b 3e a5 8c 94 3e d0 dd 55 3e
       -0.16818166 0.22992253 0.29013553 0.20885396
0002a0 07 f5 21 bc 31 f5 a6 3e c2 56 ba bd 4f 31 42 3e
       -0.009885079 0.3260894 -0.09098579 0.18964122
0002b0 d1 01 54 be 05 16 18 be 36 93 5d be 53 3b 38 be
       -0.20703818 -0.1485215 -0.21638188 -0.1799138
0002c0 55 11 79 bd e6 cd 5e be c4 31 2f be 68 7a c3 bd
       -0.060807545 -0.21758232 -0.17108828 -0.095448315
0002d0 e4 4c 56 3e 99 3f a7 3e f9 51 66 3e 61 6b 8e bd
       0.20927769 0.3266571 0.22492208 -0.06954075
0002e0 38 5c d4 bd 81 33 69 3e 0c 76 ec bd b5 3e 49 be
       -0.10369152 0.22773553 -0.11545953 -0.19652827
0002f0 c7 d8 49 bd b8 ed a8 3e d9 4d 99 3e 7a be 4a be
       -0.049279 0.32993865 0.29942206 -0.19799224
000300 2a c1 ad 3e 90 ae 0a be 20 30 dc bd d1 8c 4b be
       0.33936435 -0.13543153 -0.107513666 -0.19877936
000310 3a de 9a 3e 53 b3 94 3e ab d3 a9 3e 05 6a 2b 3e
       0.3024767 0.29043064 0.33169302 0.16739662
000320 34 e7 61 bd 61 54 77 3e bf 16 00 bd 3e 85 68 be
       -0.055152133 0.24153282 -0.031271692 -0.22707078
000330 e8 2e b2 bd 94 7e 74 3e 9c cd 5a be 96 b6 71 be
       -0.08700353 0.2387641 -0.21367496 -0.23604807
000340 8e 63 a6 3e 60 68 51 be b0 fc 1a 3e eb 05 ab 3e
       0.3249783 -0.20449972 0.15135455 0.33402953
000350 68 37 22 3e 20 e5 fa bc 25 fe 3f 3e 3d f5 ab 3e
       0.15841448 -0.030626833 0.18749292 0.3358554
000360 20 9c 0d be 7e 0d 60 3e af fb 88 bd 29 f3 19 be
       -0.13829088 0.21880147 -0.0668863 -0.15034164
000370 38 13 ab 3d 00 b1 82 3e c8 e1 43 be 6b 99 3a bd
       0.08353275 0.25525665 -0.19129097 -0.045556467
000380 8b d7 d2 bc 25 84 71 3e 9a 6f 40 3e 6f d9 5f 3e
       -0.025737545 0.23585565 0.18792573 0.21860288
000390 d3 6f 92 3e 9b 98 6a 3e 34 58 ca bd 09 de fd 3d
       0.2860094 0.22909777 -0.09880105 0.123958655
0003a0 2c 65 91 3e 9f 99 7f 3e 7d cb 0f be 41 90 ae 3d
       0.283975 0.24960946 -0.14042468 0.08523608
0003b0 3c 14 4b 3e fc 59 37 3e 93 e2 ad 3d 36 b3 ec bb
       0.19831938 0.1790542 0.08490481 -0.007223512
0003c0 1f a1 4c 3e c0 7d d6 bd 2e 30 83 3e 58 22 23 be
       0.19983338 -0.10473204 0.25622696 -0.1593107
0003d0 2f 8c 3d be cb 4c fe 3d 54 9a 0e 3e 78 e4 2f 3e
       -0.18510507 0.12416991 0.13926059 0.17176998
0003e0 d0 5b f7 bd 52 a4 2a 3e 37 37 34 be 3d 41 61 3e
       -0.12078059 0.16664246 -0.17599188 0.21997543
0003f0 f0 43 82 3e 26 af a1 bd 76 fb 0e 3e 4c 58 83 3e
       0.25442457 -0.07894735 0.13963112 0.25653303

mono.1.bias f4 [16]
000000 bc 82 75 3d b3 86 46 3e 72 60 82 bd e8 dd 24 3e
       0.05993913 0.19387321 -0.06366052 0.16100276
000010 15 fa 31 3e 5e 8b 12 3e ae de 8a bd d3 a9 dc 3d
       0.17380555 0.14310977 -0.06780754 0.10774579
000020 2b 6c 83 3e ea f5 ba bd 91 aa 31 3e ce 59 34 bc
       0.25668463 -0.09128936 0.17350222 -0.011007739
000030 dd 48 bb bc 59 2f 85 bd 80 11 5e 3e 1b c8 8e 3e
       -0.022861892 -0.065031715 0.21686363 0.27887043

mono.2.weight f4 [16, 16]
000000 13 31 3d be 74 e5 94 3e dc f6 75 3e 38 f6 18 3e
       -0.18475752 0.2908131 0.2401995 0.14937675
000010 8b 05 8c 3e c1 40 19 3e ed 9c 0d 3e 85 a2 86 3e
       0.2734798 0.14966108 0.13829394 0.26295868
000020 e0 b8 9a bc 4e ad 8a 3e cb ad da bb 74 8c 9f 3e
       -0.018886983 0.27085346 -0.00667355 0.31161845
000030 68 52 f0 3d b3 81 63 bd 08 f8 1d bd 46 2b 62 be
       0.11734468 -0.055543613 -0.03856662 -0.2208682
000040 85 be bf bd 3b 30 0d 3e c1 08 4d be f2 8a 3e be
       -0.093625106 0.1378793 -0.2002287 -0.18607691
000050 d6 0d 26 3e 96 f2 31 3e 9d fc 97 bd 51 1c ac 3e
       0.16216215 0.17377695 -0.07421229 0.33615354
000060 f8 b0 af bd 3d d5 f2 bd 67 89 16 3e 0e a4 5c 3e
       -0.08578676 -0.11857078 0.14700852 0.21546957
000070 80 11 ce bd e4 95 24 3e 43 e3 29 3e 52 e8 51 3e
       -0.100619316 0.16072804 0.165906 0.2049878
000080 f1 a3 0e 3e ea ec 75 be 9b d9 51 be 0e 50 9c 3e
       0.13929726 -0.24016157 -0.20493166 0.30529827
000090 35 c8 6d 3e df 52 aa 3e 17 bf 6c 3e 95 89 2a 3e
       0.23220904 0.3326635 0.2311977 0.16654046
0000a0 4c ed 88 bd 7c 94 42 3e b9 99 50 3e 6a 9f 01 be
       -0.06685886 0.19001955 0.2037114 -0.12658468
0000b0 64 7f bc 3d 02 23 54 be 28 b9 58 3e a0 e7 1b bd
       0.09203985 -0.2071648 0.21164382 -0.03806269
0000c0 7c 9a 1f be 9d 05 78 3e 4c ac 0b bd 84 51 1a be
       -0.15586275 0.24220891 -0.034099862 -0.15070158
0000d0 c8 b8 60 bc 70 13 07 be 38 a4 fe 3d 25 57 3e 3e
       -0.01371593 -0.13191009 0.12433666 0.1858793
0000e0 8c 52 da 3d e0 46 d8 3d eb 11 e2 bc 91 86 8c 3e
       0.10660276 0.10560393 -0.027596435 0.27446416
0000f0 ae 65 99 3e a1 83 cf 3d d0 ff 55 be 18 4d 59 3e
       0.29960388 0.10132528 -0.20898366 0.21220815
000100 4a f0 48 3e c8 8e 5a 3e ad cd 81 bd be 59 4f 3e
       0.19622913 0.21343529 -0.06338058 0.20249078
000110 3d 6f 92 3e 7c 40 86 3e bb 6a 2d be 68 0e 01 3e
       0.28600493 0.26221073 -0.16935246 0.12603152
000120 a6 22 58 be a2 bd 31 be 0d 19 20 be ca 4e 4a 3e
       -0.21106967 -0.17357495 -0.15634556 0.19756618
000130 66 55 86 3e 7b 46 18 be b8 35 4e bd 75 48 35 3e
       0.2623703 -0.14870636 -0.0503442 0.17703421
000140 92 cf 69 3e 16 fa 54 3e 18 ba 87 3e 47 16 75 3e
       0.22833088 0.20798525 0.26509166 0.2393428
000150 b1 ab 25 be 66 a4 47 3e 09 57 0c 3e 3f e5 36 be
       -0.16178776 0.19496307 0.13705076 -0.17860888
000160 d7 c2 83 3e 2a 9c 7f 3e b6 10 1c be f6 1f ad 3d
       0.25734589 0.24961916 -0.1524075 0.08453362
000170 99 a5 60 3e d9 44 26 3e af 39 ab 3e 18 9e 47 be
       0.2193817 0.16237201 0.33442447 -0.19493902
000180 75 66 61 3d f6 ec 7a be 4a 10 b1 3e d1 09 e9 bd
       0.05502935 -0.24504456 0.3458274 -0.113788255
000190 3b 46 63 3e 91 cb 7d 3e 82 2d 2d bd 95 e4 fe bd
       0.2219476 0.24784686 -0.042279728 -0.12445942
0001a0 f9 59 9a 3e 9a e6 b0 3e d7 15 8a bc 24 bc f3 3c
       0.3014677 0.34550935 -0.016856117 0.029752798
0001b0 53 56 9f 3e 7f c8 f2 3d 98 27 12 be c1 6b 72 3e
       0.31120548 0.11854648 -0.14272916 0.23673917
0001c0 0b 5a 59 be a8 29 16 3e 45 fe 1d be 7e 01 ae 3d
       -0.21225755 0.14664328 -0.15429027 0.08496378
0001d0 d9 35 9b bd b7 58 ba bd 99 d8 9a bd 9f ad 2a 3e
       -0.0757863 -0.09098952 -0.07560844 0.16667794
0001e0 d8 eb 2c 3e 76 5f 34 be 41 0f af 3e 32 49 85 3e
       0.16886842 -0.1761454 0.34191325 0.26032406
0001f0 3b 62 2f be b5 67 ac 3e f0 a9 31 bd 96 4f 23 be
       -0.17127316 0.33672872 -0.043374956 -0.15948328
000200 9c c5 55 3e 9a a2 19 3e 44 2f 95 bd 4a 6f 3b 3e
       0.20876163 0.15003434 -0.07284406 0.18304172
000210 13 72 3e 3e 68 31 4c 3e d1 28 03 be 6a 59 43 be
       0.18598203 0.19940722 -0.12808539 -0.19077078
000220 88 ad 10 bd 82 63 4a be 5e b4 18 3e 29 fa 5a be
       -0.035321742 -0.19764522 0.14912555 -0.21384491
000230 ea aa 73 bc ba 69 95 3e 20 e7 2b be 48 43 75 bd
       -0.014872292 0.29182225 -0.16787386 -0.059878618
000240 30 1b 4e 3e a8 99 41 be ab 5b 54 be b9 83 9c bd
       0.20127559 -0.18906271 -0.20738094 -0.076423116
000250 d7 57 1a 3e 31 fe 24 3e 7c 7e f0 bd 9e c8 11 bd
       0.1507257 0.16112591 -0.11742875 -0.035591714
000260 88 4d 6c bd 75 8a 4a be b2 e3 ce 3d 5e 0e 82 3d
       -0.057691127 -0.1977938 0.10102023 0.063503966
000270 f6 2d 2f be ce 71 b3 bd af e5 8e 3e ad ac 42 3e
       -0.17107376 -0.08761941 0.2790961 0.19011183
000280 30 19 3b be 3a 6a 41 3e 90 df 5e be db 99 02 be
       -0.18271327 0.18888178 -0.2176497 -0.12754004
000290 ad f0 09 3e 60 50 25 bc ec b9 07 be fc e8 0c 3e
       0.13470717 -0.010089964 -0.13254517 0.13760751
0002a0 7e 8a 18 3e 69 b7 91 3e e5 83 25 bd 7b e8 a6 3e
       0.1489658 0.28460243 -0.040408988 0.32599244
0002b0 45 e7 80 3e c3 53 82 bd 56 6b 91 3e be 66 04 be
       0.25176445 -0.063636325 0.28402203 -0.12929818
0002c0 66 6c 16 3e 30 bb 3d 3e f6 e1 d6 3d d0 40 36 3e
       0.14689788 0.18528438 0.104923174 0.17798162
0002d0 e3 ef 54 3e 99 b2 55 be 21 98 70 3e c4 c1 3c 3e
       0.20794635 -0.20868911 0.23495533 0.1843329
0002e0 34 9f f9 bd 70 b7 96 3e 27 04 1a 3e 24 93 13 be
       -0.12188569 0.29436827 0.15040646 -0.14411598
0002f0 95 3d a5 3e 06 cf 4e 3e 5a 61 86 3e 49 74 0b 3e
       0.32273546 0.2019616 0.26246148 0.13618578
000300 6c 71 2d 3e 0a 19 14 3e 18 dc a5 3e 30 0f a2 3e
       0.16937798 0.14462677 0.3239448 0.31652212
000310 9a aa 3e 3e 14 b8 c9 3d f1 33 12 be 00 4b 6e 3e
       0.18619767 0.09849563 -0.14277627 0.23270798
000320 66 c8 04 be 8c 4a ed 3d 40 4c 7e 3e 1b fc 83 bd
       -0.12967071 0.11586484 0.24833775 -0.0644457
000330 7f c0 96 3d 6a 24 0d be 7c db 99 bd a0 cf 4e be
       0.073609345 -0.13783422 -0.075125664 -0.2019639
000340 ac 31 c8 bc 00 e6 a4 3e 55 fd 32 be c9 fc e5 bd
       -0.024437748 0.32206726 -0.17479451 -0.112298556
000350 67 04 41 be 6f 68 b6 bd 46 07 82 3e 9c 5b 80 3e
       -0.18849336 -0.08906638 0.25396174 0.25069892
000360 a2 52 b0 3e 80 19 44 3e 29 df 9f 3e 42 c6 b0 bd
       0.34438044 0.19150352 0.31224945 -0.08631565
000370 09 59 a9 bd fa b9 46 be a6 44 7f be 3e d1 1d 3e
       -0.08268935 -0.19406882 -0.24928531 0.15411851
000380 ed 8c b7 bc fc 54 3d be e1 cd 26 bc 8b 6b 56 be
       -0.022406066 -0.1848945 -0.010180921 -0.20939462
000390 42 b6 72 3e fe 1c 86 3e 3d 64 1b bb 40 c0 ae 3d
       0.23702338 0.26193994 -0.002371087 0.085327625
0003a0 8c 49 f2 3d 7d 95 fd 3d 79 3c e6 3d 24 0f ab bd
       0.11830434 0.12382028 0.11242003 -0.08352497
0003b0 0e 2e f8 bc 69 5f 48 3e 08 a4 06 bd 5b c2 5f 3e
       -0.030295398 0.19567646 -0.032871276 0.21851484
0003c0 7c e7 53 bd ac 1f a8 3e d3 b7 88 3e 98 16 11 be
       -0.051734433 0.32836664 0.26702747 -0.14168775
0003d0 29 3a 54 be 0b 5b 5b 3e 69 38 38 be c5 11 af 3e
       -0.20725311 0.21421449 -0.17990269 0.34193245
0003e0 0e a0 65 be 52 d7 79 3e d1 1c 66 3d 98 fc 20 3e
       -0.22424337 0.24398544 0.056179825 0.15721357
0003f0 cd 6e 9c 3e 4e 04 9e 3e c0 93 76 bd 3c f7 e5 bd
       0.30553284 0.3086266 -0.0601995 -0.11228797

mono.2.bias f4 [16]
000000 2a 32 1f 3e 9c 51 90 3d f2 d4 d7 bd ab 76 28 be
       0.1554648 0.07046816 -0.10538663 -0.16451518
000010 21 a5 a9 bd 67 7d 89 3e f2 f1 c2 3d 18 a5 f7 3d
       -0.08283449 0.26853487 0.09518804 0.12092036
000020 57 7e 2a bd e8 74 de bc fc bd 21 3e 85 38 90 3e
       -0.041624393 -0.027155355 0.1579513 0.2816812
000030 ce e2 1c bd c8 e0 94 bd 5d bc 22 3e 2e 37 bb 3d
       -0.038302235 -0.07269436 0.15892167 0.09141384

mono.3.weight f4 [16, 16]
000000 04 66 9f bd 1e b5 65 be 20 ac 62 3e 13 02 29 bd
       -0.0778313 -0.22432372 0.22135973 -0.041261744
000010 30 b2 c4 3d d0 80 4f be a1 74 48 be 20 f7 42 3e
       0.09604299 -0.20263982 -0.1957574 0.19039583
000020 96 5a 28 be 00 96 03 3c b2 eb 88 3d 0b 74 8a 3d
       -0.16440806 0.008031368 0.0668558 0.06760415
000030 1c 6e 2d be eb 02 20 3e fc cf 70 bc 99 b0 de 3d
       -0.16936535 0.15626113 -0.014698025 0.10873527
000040 b4 4b 40 3e e8 5c 3b be 40 f7 e6 3c a0 d0 c9 3d
       0.18778878 -0.1829716 0.02819407 0.09854245
000050 84 4d c1 bd b0 f1 26 3e b0 9e 50 3e 74 b1 0b be
       -0.09438613 0.16303134 0.20373034 -0.13641912
000060 58 0b 35 bd a0 4f b6 3d 62 4c 04 be 92 4f 7f be
       -0.04420027 0.08901906 -0.12919763 -0.24932697
000070 a8 fe 77 3e f8 04 01 bd f6 cb 34 3e 84 55 e6 3d
       0.24218237 -0.03149888 0.1765593 0.112467796
000080 40 4f b3 bc 5c ae 17 be 95 99 19 3e f2 3e 04 be
       -0.021888375 -0.14812607 0.14999993 -0.12914637
000090 0d 4b 24 3e 54 f6 54 be c0 6a 10 bd 98 bf a0 bd
       0.16044255 -0.20797092 -0.035258055 -0.078490436
0000a0 6e 6b 3c be b4 f5 52 be 44 72 c2 bd 24 ff a8 bd
       -0.18400356 -0.20601541 -0.09494451 -0.08251789
0000b0 c9 35 4f 3e 40 3b 51 3e 7a a2 18 be d4 e8 b8 bd
       0.20235361 0.20432758 -0.1490573 -0.090287834
0000c0 98 43 76 3e cc bd 3a be d2 49 ed bc 6c e8 b9 3d
       0.24049222 -0.18236464 -0.028965864 0.09077534
0000d0 ae 44 4f be ec f4 70 be 39 85 1a 3e af a5 d4 bd
       -0.20241043 -0.2353093 0.15089883 -0.10383164
0000e0 e7 25 62 3e 73 fc 45 3e b7 6d 6e 3e ce 9e 3a be
       0.22084771 0.19334583 0.2328404 -0.18224642
0000f0 fc b2 71 bd 89 31 27 3e 92 d8 48 be ce 1a 2c 3d
       -0.059008583 0.1632749 -0.19613865 0.04201775
000100 e4 2e 35 3e 80 7e 8c 3d dc af fb 3d f0 45 e9 bd
       0.17693669 0.068600655 0.12289402 -0.11390293
000110 40 9a 7f 3c 4c a1 2a be d4 6a a7 3d 80 01 35 bb
       0.015600741 -0.16663092 0.08174673 -0.0027619302
000120 6a d4 24 3e 58 14 84 bd 3e 09 0d be d8 74 53 3e
       0.16096655 -0.06449193 -0.13773057 0.20650041
000130 80 ec 4d 3e 5e 12 00 3e 60 0e 25 be b0 68 14 be
       0.20109749 0.12507007 -0.16118765 -0.1449306
000140 78 6e 5e bd a5 b5 3b be 30 74 2e 3e 53 34 89 3e
       -0.05430457 -0.1833101 0.1703651 0.26797733
000150 cc ef 9b 3e 58 67 ab bd 35 1e 2f be de 01 47 be
       0.30456388 -0.08369321 -0.17101367 -0.19434306
000160 51 d3 c5 3d 01 0a a6 3e fc 78 1a bd c9 2e 9a 3e
       0.09659446 0.32429507 -0.037713036 0.3011382
000170 aa 8c 6e bc 61 4e 20 be cb 62 1e 3e e4 4d 99 bd
       -0.014559904 -0.15654899 0.15467374 -0.074855596
000180 60 10 d1 bd ea 9e b2 3e 9a b3 22 be 80 50 5f be
       -0.102082014 0.34886867 -0.15888825 -0.21808052
000190 14 2c a9 3e e0 a4 9b bc 38 ce 1e bd a0 4a f3 bd
       0.3304144 -0.018999517 -0.038770884 -0.11879468
0001a0 44 ae e5 bd ba 2e 25 be 00 70 e6 bb 08 a6 ce bd
       -0.11214879 -0.16131106 -0.0070323944 -0.10090262
0001b0 3c b0 b2 3e 60 5a f2 bc e6 c8 23 3e 24 42 19 be
       0.3490008 -0.02958411 0.15994605 -0.14966637
0001c0 92 30 1d 3d fc 54 06 bd 5c e5 bd 3c be ed d3 bd
       0.0383764 -0.03279589 0.023180656 -0.1034808
0001d0 ff 5b 11 bd 00 b8 56 bb 7f df 34 3e 28 5f ca bc
       -0.035488125 -0.003276348 0.17663382 -0.024703577
0001e0 07 65 45 3e af 1a 80 3e b8 50 41 be 00 ef 29 bb
       0.1927682 0.25020358 -0.18878448 -0.0025929809
0001f0 67 0a 5d bd 84 54 64 3e ce 1e 02 be 69 76 8f 3d
       -0.053965 0.22297865 -0.12707064 0.07005007
000200 5c d6 5b be 8e 6c 57 be a7 fd 55 3e e4 06 5e be
       -0.2146849 -0.21037504 0.20897542 -0.21682316
000210 54 d6 7d 3d f7 47 d3 3d d0 6b 05 3d dc c5 09 be
       0.061971977 0.103164606 0.03257352 -0.13454384
000220 00 e0 c6 bd 69 d6 27 be 87 1d 14 be 90 da 75 bd
       -0.09710693 -0.16390385 -0.14464389 -0.06002289
000230 24 a7 39 3e ba 22 8f bd 13 40 16 3d 2b c3 79 bd
       0.18130165 -0.069890454 0.0366822 -0.060977142
000240 9f 97 30 3d 8c e1 72 3e 60 84 0e 3c 8f 16 18 be
       0.043113347 0.23718852 0.008698553 -0.14852355
000250 c3 80 49 be e0 8d ec bd 80 fc 6d 3e ac ef c2 bd
       -0.19678025 -0.11550498 0.23240852 -0.0951837
000260 0f 98 61 be ed 1d c2 bc cc a9 f1 3c 09 85 83 3e
       -0.22030662 -0.02369591 0.02949991 0.25687435
000270 08 48 46 3d d0 07 c9 3c 53 e8 4d be 70 3c 85 bd
       0.048408538 0.024539858 -0.20108156 -0.06505668
000280 f0 a4 00 bd 6a 91 bd 3d ca a3 30 3e 67 e5 5b 3e
       -0.031407297 0.09256251 0.1724998 0.21474229
000290 82 91 df 3d 2a d2 06 3e fa 72 1c 3e 54 87 a7 3e
       0.10916425 0.13166109 0.15278235 0.32720435
0002a0 71 95 9a 3d c7 2e 9b 3e 61 4a 67 be 8f 03 47 3e
       0.07548035 0.30309126 -0.22586967 0.19434951
0002b0 3d bd 7a bd 91 d9 2f be ea 38 1a 3e 11 1b 59 3e
       -0.061215628 -0.17172839 0.15060773 0.21201731
0002c0 4e 89 00 be 3f 1b b0 bd 49 bb 41 3e 17 f6 38 3e
       -0.12552378 -0.08598947 0.189191 0.18062626
0002d0 35 ff 27 be 73 75 bf 3d 63 34 6c bc 98 be 8d 3e
       -0.16405948 0.093485735 -0.014416787 0.27684474
0002e0 36 2b 70 3e 9d 66 e8 bd b0 48 6f bd f0 80 ac bc
       0.23453984 -0.11347697 -0.05841893 -0.021057576
0002f0 47 6c 65 be 66 ee c2 3d d2 1e 91 3e 40 2b a3 3e
       -0.22404586 0.09518127 0.28343827 0.31868935
000300 a3 4e 11 3e e4 bb 41 3e 2c 65 05 3e dc a5 38 3e
       0.14190154 0.18919331 0.13026875 0.1803202
000310 cb f6 1a 3e 3e 9b 7c 3e 2e b9 89 3e be d7 4e 3e
       0.15133207 0.24668595 0.26899093 0.20199487
000320 9f ea 59 be 3f 3f 4f be f5 0f 1d 3e cc 76 17 be
       -0.21280907 -0.2023897 0.15338118 -0.14791411
000330 32 20 a2 bd 52 13 06 be 60 84 1f bd ff d3 a2 3e
       -0.07916297 -0.13093308 -0.038944602 0.31802365
000340 74 1b 92 bd 75 c5 f8 3d 63 f2 f3 bd d5 38 3d be
       -0.071341425 0.12147037 -0.11911466 -0.18478711
000350 08 a6 fb bd 1a 99 4d be f0 bd 35 be 08 c6 a7 bc
       -0.12287527 -0.20077935 -0.17748237 -0.02048017
000360 28 d5 5e 3e 78 1f 1e 3e e8 00 9b 3e b6 19 a0 3e
       0.21761 0.15441692 0.3027413 0.31269616
000370 47 66 77 3e 9a 96 33 3e b4 5c ff bd 7c 29 8d 3e
       0.2416011 0.17537919 -0.124688536 0.27570713
000380 49 39 4c 3e 78 98 58 be be eb 8f 3e 75 db 2e be
       0.19943728 -0.21151912 0.28109545 -0.17075904
000390 19 96 65 3e 47 7d 9a 3e 15 13 4e 3e 83 67 4c be
       0.22420539 0.30173704 0.20124467 -0.19961362
0003a0 5a 21 26 3e e5 a2 13 3e 5c c6 20 3e 00 47 37 bc
       0.1622366 0.14417608 0.15700668 -0.011186361
0003b0 25 08 42 be 53 4b af bd 47 1b 26 bd 7e d8 09 3e
       -0.1894842 -0.08559289 -0.040553357 0.13461491
0003c0 cc a5 ad 3e 36 5e 39 bd 95 88 5b bd f1 f8 23 3e
       0.33915555 -0.045255862 -0.05359705 0.16012932
0003d0 43 ce 41 be e6 20 68 3e 58 69 ff bd b9 7f 28 be
       -0.18926339 0.226688 -0.124712646 -0.16454972
0003e0 5d b1 43 be 7d 3b 9d 3e 99 c4 ac 3e ac 10 5a 3e
       -0.19110627 0.30709448 0.33743742 0.21295422
0003f0 90 16 17 bd 73 0d 9e 3e d8 68 26 bd d8 c5 c9 bd
       -0.03688675 0.30869636 -0.04062733 -0.09852189

mono.3.bias f4 [16]
000000 43 e6 21 bd 26 c4 69 3e d4 93 f0 bd 85 2a 57 be
       -0.039526235 0.22828731 -0.11746946 -0.21012314
000010 1c 32 df 3d fd 3e 8e 3e 72 4a e5 bd 48 ed 05 be
       0.108982295 0.2778243 -0.1119584 -0.13078797
000020 78 da a4 bb 9e 0a cf 3d 93 9e 88 3e fb 46 da bc
       -0.0050309263 0.10109447 0.26683483 -0.026645174
000030 1e 32 de bc c9 3a 07 3e 49 70 86 3e be 4c a2 3d
       -0.027123507 0.13206019 0.26257542 0.07924794

mono.4.weight f4 [1, 16]
000000 e7 55 7f bc 4c 96 80 bd 53 c2 a3 3e 2f 58 12 be
       -0.015584446 -0.06278667 0.31984195 -0.14291452
000010 fe eb 4c be 79 ae a2 3e fc 38 00 3e 80 b3 c9 bd
       -0.20011899 0.31773737 0.12521738 -0.0984869
000020 a5 94 59 be 0c 13 b3 bc e4 6d e4 3d 05 f8 8f 3d
       -0.2124811 -0.021859668 0.111537725 0.07029728
000030 d4 4f 03 3e bf 4d 86 3e e4 5e b0 3e d6 60 10 3e
       0.12823421 0.2623119 0.34447396 0.1409944
