models/auto-6.pth (torch, 31570 bytes, 15 tensors)

pre_mono.0.weight f4 [32, 7]
0	0xbe41f574	-0.18941289
1	0x3e975dea	0.29563838
2	0x3d1e198c	0.038598582
3	0xbe9b7fe1	-0.30371
4	0xbddd358d	-0.108012296
5	0x3dff83e1	0.12476326
6	0x3d65cc66	0.056103133
7	0xbe5931aa	-0.21210352
8	0x3e69251a	0.2276806
9	0xbddc01bf	-0.107425205
10	0x3e5b5173	0.21417789
11	0x3dad32f6	0.08456986
12	0xbe6b093c	-0.22952741
13	0xbe1e1267	-0.15436707
14	0x3dce4c82	0.100731865
15	0x3d43812f	0.04773062
16	0xbe83e4f4	-0.25760615
17	0xbd6172f7	-0.05504128
18	0x3eba3cba	0.36374456
19	0xbe30c5ac	-0.17262906
20	0x3e91c308	0.2846911
21	0xbd89cbe6	-0.06728344
22	0xbec878f6	-0.39154786
23	0xbe9ada5f	-0.3024473
24	0xbe3f2c33	-0.18669204
25	0xbe86d0b8	-0.26331115
26	0x3ea771ba	0.32703954
27	0x3dda34c6	0.10654597
28	0xbe174dfc	-0.14775842
29	0x3ccc72eb	0.02495714
30	0x3deba87e	0.11506747
31	0xbdc50c43	-0.09621479
32	0xbdda000a	-0.10644539
33	0xbcc41091	-0.02393368
34	0xbea624be	-0.32449907
35	0x3dde948e	0.10868178
36	0x3e9e54bf	0.3092403
37	0xbd117575	-0.035512406
38	0x3dc4353b	0.095804654
39	0x3da81b1b	0.08208295
40	0xbbd24e96	-0.0064180596
41	0x3e42ef4e	0.190366
42	0xbd97c464	-0.074105054
43	0x3d92a5c6	0.07160525
44	0x3dc064e1	0.09394241
45	0x3e89d178	0.26917624
46	0x3eb28fdb	0.34875378
47	0x3e3e6200	0.18592072
48	0x3e59c258	0.21265543
49	0xbd9460fb	-0.0724506
50	0x3dff9c33	0.124809645
51	0x3e464fe7	0.19366418
52	0xbe72d2dc	-0.23713249
53	0x3e18eca1	0.14934017
54	0xbd5e08a9	-0.054207478
55	0xbe262422	-0.16224721
56	0x3e3b5b0e	0.18296453
57	0xbc29ffee	-0.01037596
58	0xbea93e60	-0.330554
59	0x3e98c6f6	0.29839295
60	0x3e140528	0.14455092
61	0x3eb00423	0.34378156
62	0xbddc23b6	-0.10748999
63	0xbe170766	-0.14748916
64	0x3e9fdb63	0.31222066
65	0x3d2c69ac	0.042092964
66	0xbec65f25	-0.38744465
67	0xbd6ad08c	-0.057327792
68	0x3e3c42bd	0.18384834
69	0xbd755497	-0.059895124
70	0xbd09c374	-0.033633664
71	0x3e5030d0	0.2033112
72	0x3ebc0f84	0.36730587
73	0x3dfe7a38	0.12425655
74	0xbdd3785e	-0.103256926
75	0x3e835433	0.25650176
76	0x3c19bd10	0.009383455
77	0x3decbf62	0.11559941
78	0x3e31f647	0.17379104
79	0x3de80979	0.11329932
80	0x3eb69532	0.35660702
81	0xbd453569	-0.04814664
82	0xbd822ccf	-0.06356203
83	0xbdb890dc	-0.09012005
84	0xbdffe6a1	-0.12495161
85	0x3d12ffde	0.035888545
86	0xbea37d52	-0.3193155
87	0x3e52d49e	0.2058892
88	0xbe9135c0	-0.2836132
89	0xbec0a80c	-0.3762821
90	0xbeb98f99	-0.3624237
91	0x3d897de9	0.067134686
92	0xbdeaca62	-0.11464383
93	0x3ea3d9f0	0.3200221
94	0x3e1e9b67	0.15488969
95	0xbe10bc17	-0.1413425
96	0xbd420754	-0.04737027
97	0xbea999de	-0.33125204
98	0x3d89f465	0.06736068
99	0xbc95a89d	-0.018268878
100	0xbdcf0d18	-0.10109919
101	0xbeb7e966	-0.35920256
102	0xbe9b0615	-0.30278078
103	0xbd49f66a	-0.049307264
104	0xbea8a78f	-0.32940337
105	0xbe95008f	-0.2910199
106	0x3ced4a78	0.028966174
107	0x3dc1d942	0.09465267
108	0xbebb918d	-0.36634484
109	0xbc86e09e	-0.016464528
110	0x3eac2873	0.3362461
111	0x3e83020f	0.25587508
112	0xbe32d3a6	-0.1746355
113	0x3ec91618	0.3927467
114	0xbeb0589c	-0.34442604
115	0xbe9c638f	-0.30544707
116	0x3e496997	0.19669186
117	0x3ebd3150	0.36951685
118	0x3c3969f7	0.011316768
119	0x3ebed65b	0.37272915
120	0xbc856f29	-0.016288357
121	0xbd641eb4	-0.055693343
122	0x3e835676	0.25651902
123	0xbd8bcfb5	-0.06826726
124	0xbe2193be	-0.15779015
125	0x3d8e92d5	0.069616
126	0x3cda4e59	0.026648687
127	0xbe12dce3	-0.14342074
128	0xbe981763	-0.29705343
129	0xbeb608a2	-0.3555346
130	0xbdbc7ae1	-0.09203125
131	0x3e53651e	0.20644042
132	0x3dcb19fc	0.099170655
133	0x3d863533	0.06553116
134	0x3a8bc57a	0.0010663711
135	0x3e4d682e	0.20059273
136	0xbc67e80f	-0.014154448
137	0xbe2f584e	-0.1712353
138	0x3ebb3aaa	0.36568195
139	0x3e8cb1ef	0.27479503
140	0x3df3eeaf	0.1191076
141	0xbe0d0846	-0.13772687
142	0xbdd9276c	-0.10603222
143	0xbdcdbe8c	-0.100461096
144	0xbe3c5b5e	-0.18394229
145	0xbe9736d4	-0.29534018
146	0x3ec0216d	0.37525502
147	0xbcac2efb	-0.021018496
148	0x3d7fe4ec	0.062474176
149	0x3ea0807b	0.31348023
150	0xbd1ae1f3	-0.03781314
151	0x3e2e9b07	0.17051326
152	0x3dec2634	0.11530724
153	0xbb573e9c	-0.0032843715
154	0x3e0367c2	0.12832549
155	0xbe8b055f	-0.27152535
156	0x3e5a1bb0	0.21299624
157	0x3e4df37d	0.20112415
158	0x3ead0632	0.3379379
159	0x3dabcfa4	0.08389214
160	0xbe39087a	-0.1806964
161	0x3e9e52ff	0.30922696
162	0xbe9ae51c	-0.30252922
163	0x3e4a0c25	0.19731195
164	0xbe7721ad	-0.2413394
165	0x3e9ef21b	0.31044087
166	0xbdc682ae	-0.09692894
167	0x3eaebb04	0.34127057
168	0x3d9ff834	0.07811013
169	0xbd9a31e1	-0.07529045
170	0xbe9f1ebb	-0.31078133
171	0xbe85d1be	-0.26136583
172	0x3e77a7d9	0.24185123
173	0x3d4e92cf	0.050432976
174	0x3ead327e	0.33827585
175	0xbda21a17	-0.079151325
176	0xbe57410f	-0.21020912
177	0xbe30df94	-0.17272788
178	0xbde909e8	-0.113788426
179	0xbcdf5693	-0.027262961
180	0x3d35e46c	0.044407293
181	0x3e43d9ca	0.19126049
182	0x3c95c898	0.018284127
183	0x3e3c8575	0.18410285
184	0x38e04b19	0.000106951404
185	0xbe3db62a	-0.18526521
186	0xbec5a09b	-0.38599095
187	0xbdb98b11	-0.09059728
188	0x3e241ed1	0.1602738
189	0x3e10b49e	0.141314
190	0x3ea55045	0.32287803
191	0x3d0528b0	0.032509506
192	0xbe143fb2	-0.14477423
193	0x3eb37b55	0.35055032
194	0xbeb2fa8b	-0.34956774
195	0xbdace286	-0.084416434
196	0xbec52d67	-0.38511202
197	0xbea0a38b	-0.31374773
198	0xbe31bc62	-0.17357019
199	0xbe1db998	-0.1540283
200	0x3d511b67	0.051051524
201	0xbd034cc6	-0.03205564
202	0x3d60f5a7	0.054921772
203	0x3e91608c	0.28393972
204	0x3eb0ea76	0.3455388
205	0x3eb8e622	0.36113077
206	0x3d115b77	0.03548762
207	0x3d88ee64	0.066860944
208	0x3ed0e02a	0.40796024
209	0xbe918be8	-0.28427052
210	0xbd461892	-0.048363276
211	0x3cfa90a3	0.030586546
212	0x3e8286b8	0.25493407
213	0x3c036fe3	0.008022281
214	0x3d5c2d4d	0.05375414
215	0x3d6152bb	0.05501054
216	0x3e8c7429	0.27432373
217	0x3dd20475	0.10254756
218	0x3e9ecc58	0.31015277
219	0xbe4de187	-0.20105563
220	0x3ea84149	0.3286231
221	0xbe80614c	-0.25074232
222	0xbdbeadfd	-0.093105294
223	0xbea9289e	-0.330388

pre_mono.0.bias f4 [32]
0	0xbeac2ae5	-0.33626476
1	0x3ed2db80	0.4118309
2	0xbe2c6aed	-0.16837664
3	0xbe3fb671	-0.1872194
4	0x3e7cad73	0.2467554
5	0x3d95e6b1	0.073193915
6	0xbe8ea9bf	-0.2786388
7	0xbdbfc2f2	-0.09363355
8	0x3e4d6d63	0.20061259
9	0xbe5b3ece	-0.21410677
10	0xbdd063cd	-0.101752855
11	0x3e791862	0.24325708
12	0xbc07648f	-0.008263721
13	0xbe3cc993	-0.1843627
14	0x3cf5ff35	0.030028919
15	0x3eb9c552	0.36283356
16	0x3e323e30	0.17406535
17	0xbe752bb3	-0.23942451
18	0xbd91c20c	-0.0711709
19	0xbe3f9e0f	-0.18712638
20	0x3e35ea1d	0.17765088
21	0x3e28c368	0.16480792
22	0x3d86c595	0.065806545
23	0x3d099b4d	0.033595372
24	0x3e844c02	0.2583924
25	0x3e560fc6	0.20904455
26	0x3e155818	0.14584386
27	0xbe10f96f	-0.14157651
28	0xbeb58fd4	-0.35461295
29	0xbe246981	-0.16055872
30	0xbd18bdd9	-0.037290428
31	0x3ea9f329	0.3319333

pre_mono.1.weight f4 [32, 32]
0	0xbe2ab44b	-0.16670339
1	0x3cefef2b	0.029288849
2	0xbe1e96d2	-0.15487221
3	0x3e11cd4c	0.14238471
4	0x3dded22e	0.10879932
5	0x3d5fbdf9	0.05462453
6	0x3db3108a	0.08743389
7	0xbe393f50	-0.18090558
8	0x3e3d86e0	0.18508482
9	0xbd6be8c6	-0.057595037
10	0x3e21ffff	0.15820311
11	0xbd77024c	-0.060304925
12	0xbb8f19c5	-0.0043670856
13	0xbda5c416	-0.08094041
14	0x3d914c84	0.07094672
15	0xbd9cbabe	-0.07652806
16	0x3e0a96bf	0.13534068
17	0xbc50b4e1	-0.012738437
18	0x3e3661c0	0.17810726
19	0xbdf3daa3	-0.11906936
20	0x3d137d3d	0.03600811
21	0x3c03db6a	0.008047918
22	0xbe0f0a0f	-0.13968681
23	0x3da74847	0.08168083
24	0xbdc0810b	-0.09399613
25	0xbcf6178c	-0.030040525
26	0xbd9f2389	-0.0777045
27	0x3ddd0f3c	0.10793921
28	0xbda67ede	-0.08129667
29	0xbe02c191	-0.12769152
30	0xbe09f684	-0.13472944
31	0xbce25b15	-0.027631322
32	0xbd08c689	-0.033392463
33	0x3e14dbc3	0.14536957
34	0xbd80123f	-0.0625348
35	0x3cc70dda	0.024298597
36	0x3e19bb4b	0.15012853
37	0xbdff3dbb	-0.12462946
38	0x3e1c9989	0.15292944
39	0x3d90fc60	0.07079387
40	0x3e305177	0.17218576
41	0x3e04ab55	0.12955983
42	0xbd03ed49	-0.032208715
43	0x3dcabda5	0.09899453
44	0xbe30c064	-0.17260891
45	0x3d8b1340	0.06790781
46	0x3cb73fe0	0.022369325
47	0xbc5ed2d3	-0.013600069
48	0xbe32cc43	-0.17460732
49	0x3d620a58	0.055185646
50	0x3cc09c52	0.02351204
51	0x3df1aa38	0.11800045
52	0xbd532c36	-0.051555835
53	0xbdbefb06	-0.09325223
54	0xbe04a300	-0.12952805
55	0x3e256db7	0.16155134
56	0x3d7260fd	0.059174526
57	0xbd12e677	-0.03586432
58	0x3dc02fa2	0.09384085
59	0x3ca86adb	0.020558765
60	0xbd1f2b77	-0.03885981
61	0x3d973225	0.07382611
62	0x3cd73a56	0.026272934
63	0xbbab2ec6	-0.0052240817
64	0xbdd54fba	-0.10415597
65	0x3da223e0	0.07916999
66	0x3de65b72	0.112479106
67	0x3e0a6438	0.13514793
68	0xbd49960b	-0.049215358
69	0x3ded4db5	0.11587087
70	0x3cfbf63c	0.030757062
71	0x3e0d03ec	0.13771027
72	0x3d48c507	0.049016025
73	0xbd5692f6	-0.052386247
74	0x3dc31f04	0.095274
75	0xbde8ed1d	-0.11373351
76	0x3d78ac45	0.060711164
77	0x3d022a46	0.031778596
78	0xbe23b646	-0.159875
79	0xbdb1e1e1	-0.08685661
80	0x3b50fe87	0.0031889991
81	0xbd5ab944	-0.05339934
82	0xbd275da5	-0.04086079
83	0xbe09990f	-0.13437293
84	0x3bf992a2	0.007616357
85	0xbe349134	-0.17633516
86	0x3d5602b9	0.05224869
87	0x3da129d6	0.07869308
88	0xbd9f2e7c	-0.07772538
89	0xbde20f51	-0.110380776
90	0xbe24dcbe	-0.16099831
91	0x3b9e902c	0.004838964
92	0x3dc9d7c0	0.09855604
93	0xbdc593f0	-0.096473575
94	0x3e0399f4	0.12851697
95	0xbd5f2008	-0.054473907
96	0x3de45a72	0.111500636
97	0xbe30cff6	-0.17266831
98	0x3d735160	0.059403777
99	0x3d9751ce	0.0738865
100	0x3e030624	0.12795311
101	0xbd36ea35	-0.04465695
102	0xbd7417c4	-0.059592977
103	0xbd1cb7ae	-0.038261108
104	0x3daf8ed9	0.08572168
105	0x3d0d15dc	0.034444675
106	0x3c1e2bca	0.009653995
107	0xbc8e3097	-0.017357154
108	0xbdc64750	-0.096815705
109	0xbcb98c9f	-0.022650061
110	0xbdfc5ac2	-0.12321998
111	0x3e1b7e4b	0.15184896
112	0x3e32324c	0.17401999
113	0x3e008a22	0.12552693
114	0x3e362c97	0.17790447
115	0xbca025d4	-0.019549288
116	0xbdd7021c	-0.10498449
117	0x3e1e779a	0.15475312
118	0xbc2e10ca	-0.01062412
119	0x3df14f7e	0.1178274
120	0x3dd05e57	0.10174244
121	0x3e15a921	0.14615299
122	0x3c02420c	0.007950317
123	0xbe2552b7	-0.16144834
124	0x3c93b194	0.018029012
125	0x3e0e9f6e	0.13928005
126	0xbdaf52b8	-0.08560699
127	0x3e2dc7e7	0.16970788
128	0xbd270297	-0.040773954
129	0x3e067c98	0.13133466
130	0x3dc83959	0.09776563
131	0x3e2a8278	0.16651332
132	0x3da870af	0.08224618
133	0x3da26a1a	0.079303935
134	0xbd95fbf9	-0.073234506
135	0x3dd79693	0.10526767
136	0xbde0c477	-0.10974973
137	0x3d30260f	0.043005046
138	0x3d0a421e	0.03375446
139	0xbe0f2269	-0.1397797
140	0x3ddab407	0.10678869
141	0x3d8243f6	0.06360619
142	0xbe2fc7dc	-0.17166084
143	0xbd50a76e	-0.050940923
144	0x3d9f7dcd	0.077876665
145	0x3e092fdc	0.13397163
146	0x3d6898bb	0.05678628
147	0x3d8a1841	0.06742907
148	0xbe22d6aa	-0.159022
149	0xbde71956	-0.11284129
150	0xbe0fdcca	-0.14049068
151	0x3e25b38e	0.16181776
152	0x3d150577	0.036382165
153	0xbe2c80af	-0.16845964
154	0x3d891bf0	0.06694782
155	0x3e44bee4	0.19213444
156	0xbdabd897	-0.083909206
157	0xbe508377	-0.2036265
158	0xbe04e1ed	-0.12976809
159	0xbcd74313	-0.0262771
160	0xbd4fa270	-0.05069202
161	0x3e32eeaf	0.17473863
162	0xbe16ea9e	-0.14737937
163	0x3e4e3084	0.20135695
164	0x3dc73241	0.09726382
165	0xbdde7dd3	-0.10863843
166	0x3d378644	0.04480578
167	0xbe79ba72	-0.2438753
168	0xbb92b890	-0.004477568
169	0xbd905da4	-0.070491105
170	0xbd8e3c61	-0.0694511
171	0xbd965d04	-0.0734196
172	0x3d0a8d23	0.033826005
173	0xbdc9fc13	-0.098625325
174	0xbd5d197c	-0.053979382
175	0x3e587491	0.21138217
176	0x3e092d81	0.13396265
177	0xbd758d9d	-0.059949506
178	0xbdba8b8f	-0.0910865
179	0xbdcb537f	-0.09928035
180	0xbdf18967	-0.117937855
181	0x3df14778	0.1178121
182	0xbb69ebf8	-0.0035693627
183	0xbded55e9	-0.11588652
184	0xbdfc1bfb	-0.12310024
185	0x3ca40bd2	0.020025168
186	0xbdc3a2fa	-0.0955257
187	0xbe15676b	-0.14590232
188	0xbdb82622	-0.08991648
189	0xbd398a55	-0.04529794
190	0xbe056139	-0.13025369
191	0x3dbc9a14	0.092090756
192	0xbe368f8b	-0.17828195
193	0x3d658577	0.056035485
194	0x3df9dede	0.12200712
195	0x3e283852	0.16427734
196	0xbcf9b8cc	-0.030483626
197	0x3dc4598a	0.09587391
198	0xbb4aa366	-0.0030920147
199	0x3e1050a9	0.1409327
200	0xbcec70d2	-0.02886239
201	0xbdd8b38e	-0.10581122
202	0xbd8d2225	-0.06891278
203	0xbd47ff61	-0.048827533
204	0xbe055d63	-0.13023905
205	0x3e1675a7	0.14693318
206	0x3bd497a3	0.006487803
207	0x3b9a5756	0.0047101183
208	0xbc559632	-0.013036298
209	0x3ddd49fe	0.108051285
210	0xbd058dad	-0.032605816
211	0x3e1186ee	0.14211628
212	0x3de486e1	0.111585386
213	0xbe068d00	-0.13139725
214	0x3d8ca382	0.06867124
215	0x3e03ffc2	0.12890533
216	0xbd7903ca	-0.06079463
217	0xbbe9ef08	-0.0071390904
218	0xbd6dc946	-0.058053277
219	0xbe15ec84	-0.14641005
220	0x3d8562f7	0.06513017
221	0x3e3cfa76	0.18454918
222	0x3e27eb80	0.1639843
223	0x3e127acc	0.14304656
224	0xbe1a1032	-0.1504524
225	0xbe343985	-0.17600067
226	0xbdbffb3b	-0.0937409
227	0xbe0e70a0	-0.1391015
228	0xbcd52dd9	-0.026022838
229	0x3dda4369	0.10657389
230	0x3d67abc6	0.0565603
231	0x3d322647	0.043493535
232	0xbd393b5a	-0.045222618
233	0x3e25ae6e	0.16179821
234	0xbde96071	-0.11395348
235	0x3dbdd584	0.092692405
236	0x3df52a7d	0.119709946
237	0xbe0413e1	-0.12898208
238	0x3d9833c0	0.074317455
239	0xbd836cfd	-0.06417272
240	0xbd4f74a7	-0.050648358
241	0xbc913e2c	-0.017729841
242	0xbcd5dce8	-0.026106313
243	0xbdd31134	-0.103060156
244	0xbd42a7a3	-0.047523152
245	0xbdf7c507	-0.12098127
246	0x3db1abf9	0.08675379
247	0x3d6fc0dd	0.058533538
248	0x3e19485d	0.1496901
249	0xbd80b084	-0.06283668
250	0xbe0ec00b	-0.13940446
251	0x3d58960e	0.05287748
252	0x3d229fbd	0.03970312
253	0xbe1b808a	-0.15185753
254	0x3d12e7d5	0.035865624
255	0xbd2d295d	-0.042275775

pre_mono.1.bias f4 [32]
0	0x3dc20cc7	0.09475093
1	0xbe17fa24	-0.14841515
2	0xbe268530	-0.16261744
3	0xbe0f40d1	-0.13989569
4	0xbdf23e93	-0.11828341
5	0x3e115ca3	0.14195494
6	0xbd3962a4	-0.045260087
7	0xbd69ece9	-0.0571107
8	0xbdf5ac80	-0.119957924
9	0xbd078a07	-0.033090618
10	0x3d9558e3	0.072923444
11	0xbd7eb70a	-0.06218628
12	0x3d749626	0.059713505
13	0x3d7b5b0f	0.061366137
14	0xbdfc78f0	-0.123277545
15	0x3dc4d8d1	0.09611667
16	0x3d55cf20	0.052199483
17	0x3e41afd9	0.18914737
18	0x3d4a2ddc	0.04936014
19	0x3d876180	0.066103935
20	0x3e3e4d3f	0.18584155
21	0xbd427681	-0.047476295
22	0x3cddc6b3	0.027072286
23	0x3da41c36	0.08013193
24	0xbda28325	-0.0793517
25	0x3e1b23a3	0.15150313
26	0x3e13ba04	0.14426428
27	0xbda54e8e	-0.08071624
28	0xbd8329fb	-0.064044915
29	0xbdec8e49	-0.11550576
30	0x3d6a172e	0.057151012
31	0x3d2f1621	0.042745713

pre_mono.2.weight f4 [32, 32]
0	0x3e1242a6	0.14283237
1	0x3aa77057	0.0012774569
2	0x3cb6152f	0.022226898
3	0x3ceeca45	0.029149184
4	0x3c924d80	0.01785922
5	0x3dacb2e8	0.08432561
6	0x3db650f2	0.08902158
7	0xbe20d4d3	-0.15706186
8	0xbe19b2e6	-0.1500965
9	0x3ccfbd13	0.025358712
10	0x3c955b46	0.018232
11	0xbd251207	-0.040300395
12	0x3df7f582	0.12107374
13	0xbc79b9cf	-0.015242054
14	0x3d3ad596	0.045613848
15	0x3e32072b	0.17385547
16	0xbdb720ab	-0.08941778
17	0xba3ce06f	-0.0007205074
18	0x3db3af1b	0.08773633
19	0xbd20cd86	-0.039258502
20	0xbe11d315	-0.14240678
21	0x3d905d25	0.07049016
22	0x3ac08eae	0.0014690959
23	0x3d3dc627	0.04633155
24	0x3e392f8e	0.18084547
25	0x3d5aa83a	0.05338309
26	0xbe03f466	-0.128862
27	0xbe1e10a6	-0.15436038
28	0x3df73799	0.12071151
29	0xbe26b57e	-0.16280171
30	0x3da909ea	0.08253844
31	0x3cd33fa2	0.025787178
32	0x3e18a7af	0.14907716
33	0x3d1a5afe	0.037684433
34	0xbd78e2dc	-0.060763225
35	0xbdabe5c4	-0.08393434
36	0xbdeacec5	-0.114652194
37	0xbd8398b0	-0.06425607
38	0xbd3bd3fe	-0.04585647
39	0x3e030698	0.12795484
40	0x3dc98ce3	0.09841325
41	0x3cf6b68f	0.030116348
42	0x3c836bbe	0.016042586
43	0x3dd9dd7e	0.106379494
44	0x3db7147e	0.089394554
45	0xbe149b40	-0.14512348
46	0x3c9ad4c8	0.01890029
47	0x3cf93094	0.030418672
48	0xbd8ad1a4	-0.06778267
49	0xbbe4337f	-0.0069641466
50	0xbc1d97fe	-0.009618757
51	0x3e27f9f9	0.16403951
52	0xbda56faa	-0.08077939
53	0xbd812e50	-0.063076615
54	0xbddda035	-0.10821573
55	0x3d75199b	0.059838872
56	0xbd0ac695	-0.03388079
57	0xbd5c295a	-0.053750373
58	0x3e100656	0.14064917
59	0x3d6c983f	0.05776238
60	0xbc9c349c	-0.019068055
61	0xbe1a2558	-0.15053308
62	0xbd554363	-0.052066218
63	0x3e21dd01	0.15806963
64	0x3e24592c	0.16049641
65	0x3cf5b0b0	0.029991478
66	0xbdaa0bb1	-0.08303011
67	0xbe1b26ed	-0.15151568
68	0xbdd8d7e9	-0.105880566
69	0x3cde3425	0.027124474
70	0xbd2438b1	-0.040093128
71	0x3ddf148c	0.10892591
72	0x3e1b01fe	0.15137479
73	0xbdc1a653	-0.09455552
74	0xba837033	-0.0010027945
75	0xbc4a7d43	-0.012358966
76	0x3e5ea83b	0.21743862
77	0x3dcc515a	0.09976454
78	0x3e29cfd2	0.16583183
79	0x3e16803d	0.14697357
80	0xbd288704	-0.041144386
81	0x3e281254	0.16413242
82	0xbde27fa3	-0.11059501
83	0xbdfa3832	-0.1221775
84	0x3d13940b	0.036029857
85	0x3cd83007	0.026390089
86	0x3b32f5fe	0.0027307267
87	0xbd1bb58a	-0.038014926
88	0x3e0acefc	0.13555521
89	0x3e134972	0.14383486
90	0x3e3a738a	0.18208137
91	0x3ceae881	0.02867532
92	0xbd87cdb9	-0.06631035
93	0xbd47e54b	-0.048802655
94	0x3e18389f	0.14865349
95	0x3d64d7ff	0.055870052
96	0x3e3752b8	0.17902648
97	0xbcaee5fc	-0.0213499
98	0xbde75f8e	-0.112975225
99	0x3da1e723	0.07905414
100	0xbdf4f5f2	-0.11960973
101	0x3dfb0b4e	0.122580156
102	0xbdb4c0f3	-0.08825865
103	0xbd03c85a	-0.032173492
104	0x3d36d820	0.044639707
105	0x3b2dac37	0.0026500353
106	0x3ceff9d0	0.029293925
107	0x3e4c13ee	0.19929478
108	0xbb8a353c	-0.004217772
109	0x3d7e84e9	0.06213847
110	0xbdff1696	-0.1245548
111	0x3dfdaad8	0.123861015
112	0xbc8fb97b	-0.017544499
113	0xbdae8390	-0.08521187
114	0x3e0b2615	0.13588746
115	0x3d44387e	0.047905438
116	0xbdff6168	-0.12469751
117	0x3e16bcb3	0.1472042
118	0x3e482cf2	0.19548395
119	0xbde6052d	-0.11231456
120	0xbe1e4b58	-0.15458429
121	0x3d6350c7	0.055496957
122	0x3e19d99d	0.15024419
123	0x3d7a0357	0.06103834
124	0x3de7d32a	0.11319573
125	0xbcdbf394	-0.026849546
126	0x3e450aa1	0.19242336
127	0x3e0e2641	0.1388178
128	0x3dbe9cd6	0.09307258
129	0xbd5d80d2	-0.05407793
130	0x3e234187	0.15942965
131	0x3d7d18cb	0.061791223
132	0xbd820532	-0.06348647
133	0x3e52b217	0.20575748
134	0x3d6b47b1	0.057441417
135	0xbd58ab51	-0.052897755
136	0xbd8ba379	-0.06818289
137	0x3c92de95	0.017928401
138	0x3e4a8388	0.19776738
139	0xbd6f7777	-0.05846354
140	0xbdcb62db	-0.099309646
141	0xbe13a16f	-0.14417051
142	0x3e1e425b	0.15455
143	0xbdca4fca	-0.098785
144	0xbd2a3546	-0.04155471
145	0x3c6a60f9	0.014305347
146	0x3e0709c5	0.1318732
147	0x3da61124	0.08108738
148	0xbdcb5f54	-0.09930292
149	0x3d020c14	0.0317498
150	0x3ded204a	0.11578424
151	0xbdf1a763	-0.117995046
152	0x3e37fec0	0.17968273
153	0x3d738154	0.05944951
154	0xbd4ccdfb	-0.050001126
155	0xbd1cf58b	-0.038320106
156	0x3ca00fc7	0.019538773
157	0xbd271c9e	-0.040798776
158	0xbd8376b8	-0.06419128
159	0x3dac87a7	0.08424311
160	0x3e05ae11	0.13054682
161	0x3c0e860a	0.00869895
162	0x3da36454	0.079781204
163	0x3c0f5af1	0.008749709
164	0xbe1e67a1	-0.15469219
165	0x3e304ec4	0.17217547
166	0xbb8c5179	-0.0042821732
167	0x3dc25dfc	0.09490582
168	0x3ac15db7	0.0014752661
169	0x3e4293da	0.19001713
170	0x3e653f94	0.22387534
171	0x3c5933ba	0.0132569615
172	0x3eabf6a3	0.33586606
173	0xbcf0a730	-0.029376596
174	0x3db59fda	0.0886838
175	0x3dfeaf19	0.12435741
176	0x3de22d63	0.11043813
177	0x3d808787	0.0627585
178	0xbdbe974c	-0.09306201
179	0xbda25be7	-0.07927685
180	0xbd01e647	-0.03171375
181	0x3cfd213f	0.030899642
182	0xbd0e329c	-0.034716234
183	0xbd811ddd	-0.06304524
184	0xbd80851f	-0.06275391
185	0xbd794b54	-0.060862854
186	0xbd9b168c	-0.0757266
187	0x3d4670ac	0.048447296
188	0x3d15198d	0.03640132
189	0xbd800200	-0.062503815
190	0xbdbb0223	-0.09131267
191	0xbb8fd06d	-0.00438886
192	0xbd03a713	-0.032141756
193	0x3cd6a875	0.026203373
194	0xbe14ba14	-0.14524108
195	0x3e432380	0.19056511
196	0x3e0af2dc	0.13569206
197	0x3de2d4aa	0.11075719
198	0xbe034eca	-0.12823024
199	0x3d7718e9	0.06032649
200	0xbdeeb440	-0.11655474
201	0x3d9fb304	0.077978164
202	0x3df41e7d	0.11919878
203	0x3e4e221c	0.20130199
204	0xbd62e1aa	-0.05539099
205	0xbcc897bb	-0.024486413
206	0xbd1115b3	-0.035421085
207	0x3e096b28	0.13419783
208	0x3d865f26	0.06561117
209	0x3c19853b	0.0093701435
210	0x3e09000f	0.13378929
211	0x3d11bc17	0.035579767
212	0x3e1f0367	0.15528642
213	0x3e13f9b0	0.14450717
214	0xbcb4aa9b	-0.022054007
215	0x3e093d11	0.13402201
216	0x3e39a7c9	0.18130411
217	0xbd30592f	-0.043053802
218	0x3dbfbdf7	0.09362405
219	0xbdffde07	-0.1249352
220	0x3dc241c4	0.094852
221	0x3e0407d7	0.12893616
222	0x3d583537	0.052785125
223	0xbcbb431f	-0.022859154
224	0x3d82e08f	0.063904874
225	0x3d63369e	0.05547201
226	0xbdfda57f	-0.123850815
227	0xbdd9695a	-0.10615797
228	0x3e13258e	0.14369795
229	0xbd9a3e80	-0.07531452
230	0xbd6caa6b	-0.05777971
231	0xbdb8a2df	-0.0901544
232	0xbdc49aec	-0.095998615
233	0x3b213d8f	0.0024603342
234	0x3d7b1d09	0.061306987
235	0x3e26a1bd	0.16272636
236	0x3e15aa7f	0.1461582
237	0x3dd6a63d	0.10480926
238	0x3df2f5eb	0.118633114
239	0xbd26208b	-0.04055838
240	0xbcefba6c	-0.029263698
241	0x3ddc57ff	0.107589714
242	0xbc93fbee	-0.018064465
243	0x3e169f99	0.14709319
244	0x3dc4618a	0.095889166
245	0xbd28a9bb	-0.041177493
246	0xbe051d85	-0.12999542
247	0xbd888fb0	-0.06668031
248	0x3e239f76	0.15978798
249	0xbe055958	-0.13022363
250	0x3e12ca3f	0.14334963
251	0x3d78f68b	0.060781997
252	0xbe0bf6ef	-0.13668416
253	0x3da51c47	0.08062034
254	0x3df08df1	0.11745823
255	0xbe26600f	-0.16247581

pre_mono.2.bias f4 [32]
0	0x3d7aca1a	0.061227895
1	0x3e02933b	0.12751476
2	0x3d710310	0.05884081
3	0x3e5e4635	0.2170647
4	0x3ce08619	0.027407693
5	0x3e09b68c	0.13448542
6	0xbcba3bf7	-0.022733672
7	0x3db6bb9f	0.08922505
8	0x3d14d371	0.03633446
9	0x3da157d3	0.07878079
10	0x3e574804	0.21023566
11	0x39c2f3a3	0.00037184087
12	0x3e4992f1	0.1968496
13	0x3e2a4d2e	0.16631004
14	0x3e142a51	0.14469267
15	0x3e4fb94f	0.20285533
16	0xbc9586b3	-0.018252706
17	0xbe2a5b4f	-0.16636394
18	0xbdc3d732	-0.095625296
19	0x3e15e78f	0.14639114
20	0x3d913b4b	0.07091387
21	0xbdba8321	-0.09107042
22	0xbde1bf53	-0.1102282
23	0x3deeada5	0.11654214
24	0x3cebaf7e	0.028770205
25	0x3d8609bd	0.06544826
26	0x3e10cd99	0.1414093
27	0x3d42c9ac	0.04755561
28	0x3e4de292	0.20105961
29	0x3e5eed62	0.21770242
30	0xbdb17591	-0.08665002
31	0x3daff34a	0.085913256

mono.0.weight f4 [32, 35]
0	0x3d159ea0	0.03652823
1	0x3d39b414	0.04533775
2	0x3e441b1c	0.19150966
3	0x3d87a73e	0.06623696
4	0xbdd1246f	-0.10212027
5	0xbdbceaca	-0.0922447
6	0x3d9da979	0.0769834
7	0x3df6143e	0.1201558
8	0x3d2ac742	0.041693933
9	0xbe11d324	-0.142407
10	0xbdbb8961	-0.09157062
11	0xbcfc5765	-0.030803392
12	0x3d9a02ee	0.0752009
13	0x3e002d4f	0.12517284
14	0xbdfe370a	-0.124128416
15	0x3e0691fd	0.13141628
16	0x3e133ef1	0.14379479
17	0x3d11a224	0.03555502
18	0xbd2e41d5	-0.04254325
19	0xbddaa581	-0.106760986
20	0xbe1031f3	-0.14081554
21	0xbdb02e73	-0.086026095
22	0xbce45797	-0.027873797
23	0x3e12d0f5	0.14337523
24	0x3d73dc4f	0.059536275
25	0xbd6cc05e	-0.057800643
26	0xbe04b025	-0.12957819
27	0x3e0daf85	0.13836487
28	0xbe2e337d	-0.17011829
29	0xbda04952	-0.07826485
30	0xbc12a7a3	-0.0089511005
31	0xbe35bb13	-0.17747144
32	0x3e2770a8	0.16351569
33	0xbe27ef64	-0.16399914
34	0x3e03c8f3	0.12869625
35	0x3da6ed8e	0.08150779
36	0xbdb4de68	-0.08831483
37	0xbdedd82a	-0.11613496
38	0x3e245916	0.16049609
39	0xbdad5a74	-0.08464518
40	0x3e68218b	0.22669046
41	0x3ca9e1ae	0.020737495
42	0x3e4c5769	0.1995522
43	0x3e11ed97	0.1425079
44	0xbda2c9ba	-0.079486325
45	0xbd8445e5	-0.06458644
46	0x3cdb8a7d	0.026799435
47	0x3e0e66c0	0.13906384
48	0x3d44b812	0.048027106
49	0xbdd374fe	-0.10325049
50	0xbd34ccd7	-0.044140663
51	0xbd2e159d	-0.04250108
52	0x3e1d8185	0.15381439
53	0x3d90554d	0.0704752
54	0xbe1172a0	-0.14203882
55	0xbe12c5b4	-0.1433323
56	0xbdd61c61	-0.104546316
57	0x3dabd2dc	0.083898276
58	0x3d455c4c	0.048183724
59	0xbd93f3fb	-0.0722427
60	0x3d82a826	0.06379728
61	0x3e0918b0	0.13388324
62	0x3d07ab96	0.03312262
63	0x3e0f0476	0.13966545
64	0xbd9bef3b	-0.07613989
65	0x3d582dab	0.052777927
66	0x3e120fff	0.14263915
67	0xbd69666d	-0.056982446
68	0xbd8e0886	-0.069352195
69	0xbda8a8b2	-0.08235301
70	0x3d7b70b8	0.061386794
71	0xbdec5300	-0.115392685
72	0x3e3c90ad	0.18414564
73	0x3df733cc	0.12070426
74	0xbe270efa	-0.16314307
75	0xbe082d27	-0.13298474
76	0x3e299777	0.16561686
77	0xbdcd5445	-0.10025839
78	0xbe3abbdb	-0.18235724
79	0x3e0c8e9e	0.13726279
80	0xbe2cdbc1	-0.16880704
81	0xbd7291a9	-0.059220944
82	0xbd9f9cf8	-0.07793611
83	0xbdfeccd8	-0.124414146
84	0x3e3ebc32	0.18626478
85	0x3e03a017	0.12854038
86	0xbdc777b0	-0.097396255
87	0xbc18c80c	-0.009325039
88	0xbd61fbbe	-0.05517172
89	0xbd8b4408	-0.06800085
90	0x3dc14a16	0.09437959
91	0xbd0f3ac1	-0.03496814
92	0x3d386790	0.04502064
93	0xbd76d511	-0.06026179
94	0xbe1dc9d7	-0.15409027
95	0x3e41dfb0	0.18932986
96	0x3e40e7b5	0.18838389
97	0xbde2d97b	-0.11076637
98	0xbdfb8270	-0.12280738
99	0xbe1ad11b	-0.1511883
100	0x3dd338d4	0.103135735
101	0x3dd8e13d	0.10589836
102	0x3da5b6f9	0.0809154
103	0xbd8e45aa	-0.06946881
104	0x3d17c46d	0.03705256
105	0x3dfee9f5	0.124469675
106	0x3d9cc6ec	0.07655129
107	0x3e41094a	0.188512
108	0x3dd1b5aa	0.10239728
109	0xbe0e31b3	-0.13886146
110	0xbe5b1db0	-0.21398044
111	0x3dfaafeb	0.12240585
112	0xbd903ac5	-0.070424594
113	0xbdba0aec	-0.090841144
114	0x3df4e57c	0.11957833
115	0xbd9e1b38	-0.07720035
116	0xbe174533	-0.14772491
117	0xbdcff8cc	-0.10154876
118	0xbd5b84db	-0.053593498
119	0xbda606cc	-0.08106765
120	0x3da50b8c	0.08058843
121	0xbd8e6287	-0.06952386
122	0x3e2c3f4b	0.1682102
123	0x3d749835	0.05971547
124	0xbde44aca	-0.111470774
125	0xbdfb7d0c	-0.1227971
126	0xbdae7fa1	-0.08520437
127	0x3dbcc345	0.09216932
128	0xbdc94ec5	-0.09829477
129	0x3cf14c1e	0.02945524
130	0x3e1be23a	0.15223017
131	0xbd97d13f	-0.074129574
132	0xbd228437	-0.03967687
133	0xbe2497b0	-0.16073489
134	0x3e4aab59	0.19791926
135	0x3d89e4ac	0.06733069
136	0xbd317ec4	-0.043333784
137	0xbdcea066	-0.10089187
138	0x3e1eb591	0.1549895
139	0x3df7405a	0.12072821
140	0x3d896237	0.06708186
141	0x3df0c4b7	0.117562704
142	0x3e2ff63c	0.17183775
143	0x3dbf9f46	0.09356551
144	0xbe27a296	-0.16370615
145	0xbe0b7d02	-0.13621905
146	0xbda4f175	-0.08053867
147	0x3e55efdf	0.20892285
148	0x3dde8743	0.10865643
149	0xbe012cbe	-0.12614724
150	0x3dd97f1a	0.10619946
151	0xbdcf611c	-0.10125944
152	0x3e40adde	0.18816325
153	0xbdaac7f8	-0.08338922
154	0x3db01c38	0.08599132
155	0x3e1955e0	0.14974165
156	0x3e12b4d1	0.14326788
157	0xbd2162c0	-0.039400816
158	0x3e16995d	0.14706941
159	0x3d5a96fc	0.053366646
160	0xbd6ec0ae	-0.058289222
161	0xbe334264	-0.17505795
162	0x3ca78b66	0.020452213
163	0x3d4c559e	0.04988634
164	0xbd38974c	-0.045066163
165	0xbd995f80	-0.07488918
166	0x3e36a76a	0.17837301
167	0xbd9ec2e0	-0.07752013
168	0xbe0b0600	-0.13576508
169	0xbde1c804	-0.11024478
170	0xbd5990a9	-0.053116474
171	0xbdf9ed6e	-0.12203489
172	0x3e3953e3	0.18098406
173	0x3e33905b	0.17535536
174	0xbe0f822b	-0.14014499
175	0xbdf6a492	-0.12043108
176	0x3d73daa7	0.059534695
177	0x3d9c5a1e	0.07634376
178	0xbdb80867	-0.089859776
179	0xbe316625	-0.17324121
180	0x3e6d2fe7	0.23162805
181	0xbd75568b	-0.059896987
182	0x3e2b3778	0.16720378
183	0xbdd131db	-0.10214587
184	0xbda165da	-0.07880755
185	0x3de9849b	0.114022456
186	0x3d023d1c	0.03179656
187	0xbd7eeea8	-0.06223932
188	0xbda11ddb	-0.078670226
189	0x3e0ccee7	0.13750802
190	0x3df4eca7	0.119592
191	0x3d36ed0e	0.044659667
192	0x3e16dba2	0.14732221
193	0x3c8f2199	0.017472075
194	0x3e3cf47b	0.18452637
195	0xbd434082	-0.04766894
196	0x3e2d6a6d	0.1693513
197	0x3cb7d87a	0.022442091
198	0xbe185195	-0.14874871
199	0xbdc97c5e	-0.09838174
200	0xbe416201	-0.18885042
201	0x3dc5326b	0.09628757
202	0x3de27494	0.11057392
203	0x3e70e7ea	0.23525968
204	0xbe2a9082	-0.16656688
205	0xbd14255e	-0.03616845
206	0xbe2b7f40	-0.16747761
207	0x3e0af843	0.13571267
208	0xbd1ae083	-0.037811767
209	0xbe02d724	-0.12777382
210	0xbd3b975a	-0.045798637
211	0x3db03d57	0.0860545
212	0x3e318d9a	0.17339173
213	0xbdcc4d98	-0.09975737
214	0x3ca56a48	0.02019228
215	0xbe483c3f	-0.19554232
216	0x3d8f8cba	0.07009263
217	0x3d852775	0.065016665
218	0x3db504a3	0.08838775
219	0x3e056626	0.13027248
220	0x3dcbccbe	0.09951161
221	0x3d311693	0.04323442
222	0xbe3e9385	-0.18610962
223	0xbd61a460	-0.0550884
224	0xbdf95084	-0.1217356
225	0x3d4202a8	0.047365814
226	0xbdf4396e	-0.11925016
227	0xbb004c62	-0.0019576778
228	0xbe0340ce	-0.1281769
229	0x3e0dbb4e	0.13840982
230	0xbdeba26d	-0.1150559
231	0xbdd61c84	-0.10454658
232	0x3e0d3201	0.13788606
233	0x3d8ef0ea	0.069795445
234	0xbe1b0b72	-0.15141085
235	0xbdfeb5b4	-0.12437001
236	0xbcf198ea	-0.02949186
237	0xbe40f631	-0.18843915
238	0x3e361f97	0.17785488
239	0x3e1e89ad	0.15482207
240	0xbe146e49	-0.14495195
241	0x3d2ab57e	0.04167699
242	0x3e268242	0.16260627
243	0xbddb1dff	-0.10699081
244	0xbe33625d	-0.17517991
245	0xbd94d3d6	-0.07266967
246	0xbe1e2bf4	-0.15446454
247	0x3d8cded3	0.06878438
248	0xbdd4f1ea	-0.10397704
249	0xbe1f1521	-0.15535404
250	0xbe42b1f6	-0.19013199
251	0x3e1e03c0	0.15431118
252	0xbe15bc1b	-0.14622538
253	0x3db73d04	0.08947185
254	0xbdd943a0	-0.106086016
255	0xbdf0dd76	-0.1176099

mono.0.bias f4 [32]
0	0xbdb7cd79	-0.08974738
1	0x3e0b6ee5	0.13616522
2	0xbd60d66e	-0.054891996
3	0x3e4b3928	0.19846022
4	0x3e55d404	0.20881659
5	0x3def4ff3	0.11685171
6	0x3e2e5921	0.17026187
7	0xbdf71dee	-0.120662555
8	0xbc675e92	-0.014121668
9	0x3c47b83e	0.012189923
10	0x3e2ccc0b	0.16874711
11	0x3e1f8ed5	0.1558183
12	0xbd03820a	-0.032106437
13	0x3d29d6f1	0.04146475
14	0xbde396c7	-0.11112743
15	0xbbef127a	-0.0072959037
16	0x3cbcbe59	0.023039984
17	0xbb306985	-0.0026918363
18	0x3deded58	0.11617535
19	0xbc85ed51	-0.016348513
20	0xbbb0f890	-0.0054007247
21	0x3d97d969	0.074145146
22	0x3cee73f8	0.029108033
23	0x3e3628f6	0.17789063
24	0x3d7e817f	0.062135216
25	0xbdccff35	-0.100096144
26	0xbdd54eb3	-0.10415401
27	0x3ddf4346	0.10901503
28	0xbd370a44	-0.044687524
29	0xbd0085d1	-0.031377617
30	0xbd805103	-0.06265452
31	0xbccda320	-0.025102198

mono.1.weight f4 [32, 32]
0	0x3dd7aa40	0.105305195
1	0xbe22feab	-0.1591746
2	0xbe0e0c76	-0.13871941
3	0x3e026922	0.12735417
4	0xbd6cb953	-0.057793926
5	0xbdeec0eb	-0.1165789
6	0xbc8bf244	-0.017083295
7	0xbde8d7a6	-0.11369257
8	0x3e4b37c0	0.19845486
9	0xbd636bfe	-0.05552291
10	0xbd60eb76	-0.054912053
11	0xbd157e9b	-0.036497694
12	0xbdedb084	-0.11605933
13	0x3c81b56c	0.015833579
14	0xbdf24997	-0.118304424
15	0xbda0699e	-0.07832645
16	0x3df1337a	0.117773965
17	0xbd8982df	-0.06714415
18	0xbd351394	-0.044208124
19	0x3d9187ac	0.071059555
20	0x3e03ebe1	0.1288295
21	0x3d93cd78	0.072169244
22	0xbde21930	-0.110399604
23	0x3e2e6cc9	0.17033686
24	0x3e3adf13	0.18249159
25	0x3d5304c8	0.05151823
26	0x3e2f4fbc	0.1712026
27	0x3e045ddb	0.12926428
28	0x3e4cb78b	0.19991891
29	0xbe1488db	-0.14505331
30	0xbc894de2	-0.01676077
31	0xbd447fe8	-0.047973543
32	0xbd646112	-0.055756636
33	0xbd208654	-0.039190605
34	0xbdcea21a	-0.10089512
35	0x3e51f3fc	0.20503229
36	0xbd3fe9e8	-0.04685393
37	0xbe1f3ac3	-0.1554976
38	0x3dacfc15	0.08446518
39	0x3e2b2180	0.16711998
40	0xbcff3ae6	-0.031156015
41	0x3e1529bc	0.14566702
42	0x3d29b44e	0.041431718
43	0x3e1ea8f5	0.1549414
44	0x3e037464	0.12837368
45	0xbd00d9af	-0.0314576
46	0xbdaf11f1	-0.08548344
47	0x3de28ad2	0.11061634
48	0x3e3c8f1a	0.18413964
49	0xbb8bd449	-0.0042672497
50	0x3d92fc85	0.071770705
51	0xbdee1264	-0.116246015
52	0xbe209a64	-0.15683895
53	0x3e08c6fc	0.13357157
54	0x3e0ccc99	0.13749923
55	0xbe26a49d	-0.16273732
56	0xbe1c0c4b	-0.15239064
57	0x3d351f03	0.04421903
58	0xbd3be2b8	-0.045870513
59	0x3dd77a4f	0.105213754
60	0xbd41b498	-0.04729137
61	0xbdac665e	-0.084179625
62	0x3dbf79ca	0.09349401
63	0x3e30e165	0.17273481
64	0x3cca2c77	0.024679406
65	0x3dcabffd	0.098999
66	0xbc5dc60d	-0.0135359885
67	0xbd4cd126	-0.050004147
68	0xbd79a114	-0.06094463
69	0x3d0c6486	0.034275554
70	0x3d8635ef	0.06553256
71	0x3e1b4779	0.15163983
72	0x3d70a66a	0.058752455
73	0x3e09c2a3	0.13453154
74	0x3dd2e851	0.10298217
75	0x3e22cc4d	0.15898247
76	0xbe1587da	-0.14602605
77	0x3d77c70a	0.060492553
78	0x3df55746	0.11979537
79	0xbd9d2a69	-0.07674105
80	0xbe00aa58	-0.12564981
81	0xbb2914fa	-0.0025799857
82	0xbe2d45a7	-0.16921102
83	0x3e22652c	0.15858907
84	0x3e0e92d9	0.13923205
85	0x3dbb0abc	0.09132907
86	0x3e365cbc	0.17808813
87	0x3d1ba485	0.037998695
88	0x3e284836	0.16433796
89	0x3d56fb03	0.052485477
90	0xbe09282a	-0.13394228
91	0xbde92c0b	-0.11385354
92	0xbd94989e	-0.07255672
93	0x3e12b056	0.1432508
94	0xbdc393f9	-0.09549708
95	0x3e08192c	0.13290852
96	0x3d9bf4f4	0.076150805
97	0xbe0375ba	-0.12837878
98	0xbe147dd6	-0.14501128
99	0xbddf134a	-0.10892351
100	0x3e439417	0.1909946
101	0x3d999d2a	0.0750068
102	0xbd13721e	-0.035997503
103	0x3dd2ddc6	0.10296206
104	0xbdd89041	-0.10574389
105	0xbcb988a4	-0.022648163
106	0xbe16a7d6	-0.14712462
107	0x3deed31f	0.11661362
108	0xbd05b74b	-0.032645505
109	0x3cecc729	0.02890356
110	0xbe1acd1a	-0.15117303
111	0x3e2c0111	0.16797282
112	0xbe1fc80a	-0.15603653
113	0xbccf1534	-0.025278665
114	0xbe125681	-0.14290811
115	0x3d938cfa	0.072046235
116	0x3e326c93	0.1742423
117	0xbdf40304	-0.11914638
118	0x3d1e2e38	0.038618296
119	0x3deb5058	0.11489934
120	0x3e281e95	0.16417916
121	0x3d9974af	0.07492959
122	0x3ded40c6	0.1158462
123	0xbd42bcaf	-0.047543224
124	0xbe0cfcdc	-0.13768333
125	0x3e4521fd	0.19251247
126	0xbd5abefd	-0.053404797
127	0x3bcfd171	0.006342106
128	0x3d2c8929	0.042122994
129	0xbb59ba0b	-0.0033222463
130	0x3d0bcf1f	0.034133073
131	0x3e03a6a3	0.12856536
132	0x3e178a71	0.14798905
133	0x3e1d0b39	0.15336312
134	0x3e53d824	0.2068792
135	0x3e081851	0.13290526
136	0x3dbbd187	0.091708235
137	0x3e404d2f	0.18779443
138	0xbe2962a6	-0.16541538
139	0x3e1161a4	0.14197403
140	0x3e3f69f1	0.18692757
141	0x3c26980b	0.010168086
142	0x3e0a3506	0.1349679
143	0x3e2803bd	0.16407676
144	0x3e350cb7	0.17680632
145	0xbbd7ce6b	-0.0065858862
146	0x3e53a93c	0.20670027
147	0xbccd8373	-0.025087094
148	0x3e45728b	0.19281976
149	0x3e46d97d	0.19418903
150	0x3e08acf9	0.13347234
151	0xbe31dbfc	-0.17369074
152	0xbdbbb0a4	-0.09164551
153	0x3e39f429	0.18159546
154	0x3de1fed6	0.11034934
155	0x3e31c938	0.17361915
156	0x3e4bd4e8	0.19905436
157	0x3d085d7a	0.03329227
158	0x3d8958b2	0.067063704
159	0xbdc12536	-0.094309255
160	0x3ddb3950	0.10704291
161	0x3d9d16f8	0.076703966
162	0x3db00857	0.08595341
163	0x3e021028	0.12701476
164	0x3e2d750f	0.16939186
165	0x3e45e519	0.19325675
166	0xbe17d1ae	-0.1482608
167	0xbcb1deb2	-0.021712635
168	0x3e4dc34e	0.20094034
169	0xbdb76ae9	-0.08955938
170	0xbdcc2e51	-0.09969772
171	0xbe19e8dd	-0.15030237
172	0x3c89e767	0.016833974
173	0x3e44b1a0	0.19208384
174	0x3dfc113c	0.12307975
175	0x3e2244cd	0.15846558
176	0x3e08a23b	0.13343136
177	0xbc294328	-0.010330953
178	0x3df0f0f6	0.1176471
179	0x3dab2b17	0.08357828
180	0xbdf04991	-0.11732782
181	0xbc91cd83	-0.017798191
182	0xbe1ba727	-0.15200482
183	0xbdb015e4	-0.08597925
184	0x3e0e8e76	0.13921532
185	0xbd2c4d1c	-0.042065725
186	0x3d88b451	0.066750176
187	0xbdc57bf8	-0.09642786
188	0xbc19c32a	-0.00938491
189	0x3c964531	0.01834354
190	0x3e47e297	0.19520031
191	0x3d300404	0.04297258
192	0xbcee56a3	-0.029094046
193	0x3d386242	0.04501558
194	0xbd8c8950	-0.06862128
195	0xbe091087	-0.13385211
196	0x3dcc837c	0.09986016
197	0xbd867036	-0.06564371
198	0xbddba141	-0.10724116
199	0x3cb86bf9	0.022512423
200	0xbe0daf15	-0.1383632
201	0x3e181594	0.14851981
202	0x3d22ae2b	0.03971688
203	0x3e2f03af	0.17091249
204	0x3c33e0e7	0.010978914
205	0xbd9408ba	-0.07228227
206	0xbd7bfba2	-0.061519273
207	0x3d5d52fe	0.054034226
208	0xbda43b8a	-0.08019169
209	0xbd221634	-0.039571956
210	0x3db464bc	0.08808276
211	0xbcf0ec17	-0.029409451
212	0xbe1a23fc	-0.1505279
213	0x3e0e5f9a	0.13903657
214	0xbe1eb20a	-0.15497604
215	0x3de18c01	0.11013032
216	0x3e14925f	0.14508961
217	0x3c9e85d5	0.019350925
218	0xbd7dca0c	-0.061960265
219	0xbe2ce875	-0.1688555
220	0xbbdb5c94	-0.006694386
221	0x3e0a980a	0.13534561
222	0x3e2e709c	0.17035145
223	0xbd50bc28	-0.05096069
224	0x3e0bdc72	0.13658312
225	0x3dd05297	0.10172003
226	0x3d9d650a	0.07685287
227	0xbdf5caa2	-0.1200154
228	0x3de502b0	0.11182153
229	0x3e051121	0.12994815
230	0xbdfc1fed	-0.12310777
231	0xbde7a4e2	-0.11310746
232	0x3d046460	0.032322288
233	0x3d82c9d9	0.06386156
234	0xbdd39d92	-0.103327885
235	0xbda2692f	-0.079302184
236	0x3dab1506	0.08353619
237	0x3e4efeee	0.20214435
238	0x3dd5997e	0.10429667
239	0xbd9b3b7a	-0.07579704
240	0x3dc6a402	0.09699251
241	0x3e4e2f8a	0.20135322
242	0xbd36241f	-0.04446804
243	0x3e2343b1	0.15943791
244	0xbc07e3fe	-0.008294104
245	0xbd98a57a	-0.07453437
246	0xbe2f5193	-0.17120962
247	0xbd766258	-0.06015238
248	0x3dadb75e	0.0848224
249	0x3e26f56b	0.16304557
250	0x3cb2913d	0.02179777
251	0x3e3f3d1b	0.18675654
252	0xbc5af23d	-0.013363418
253	0x3c916e62	0.01775283
254	0x3e46a9ad	0.19400664
255	0x3dd77d84	0.10521987

mono.1.bias f4 [32]
0	0x3e556855	0.20840581
1	0x3db94ac8	0.090474665
2	0xbd4c832c	-0.049929783
3	0x3d8a0b15	0.06740395
4	0x3db3482e	0.087540016
5	0xbdb64998	-0.08900756
6	0xbc934103	-0.017975336
7	0x3df87661	0.12131954
8	0xbd7cfea1	-0.06176627
9	0xbd01e341	-0.031710867
10	0x3d810b8b	0.0630103
11	0x3e0431c2	0.12909606
12	0x3e40206c	0.18762368
13	0x3e40820c	0.18799609
14	0x3d1ebf83	0.03875686
15	0x3e425a18	0.1897968
16	0x3c1ea99a	0.009683991
17	0x3e5e1eb8	0.21691406
18	0xbb5da86c	-0.003382231
19	0x3e1243a7	0.1428362
20	0xbba9e2bb	-0.005184499
21	0x3c8ecb20	0.017430842
22	0x3de0e4d3	0.10981145
23	0x3e0d699f	0.13809822
24	0x3b8fbea3	0.0043867393
25	0x3da891f4	0.08230963
26	0xbde9e793	-0.114211224
27	0x3d856c30	0.06514776
28	0xbd0e0e4e	-0.03468161
29	0x3ce75c9d	0.028242404
30	0x3e28213e	0.16418931
31	0xbe013661	-0.126184

mono.2.weight f4 [32, 32]
0	0xbe08c093	-0.13354711
1	0x3e53c72b	0.20681445
2	0xbd806599	-0.06269378
3	0x3e09821b	0.13428538
4	0xbd734c76	-0.05939909
5	0xbdc7e39b	-0.09760209
6	0x3e0187f6	0.12649521
7	0x3d2e22e2	0.042513736
8	0x3dc53f71	0.09631241
9	0xbd80f9f8	-0.06297678
10	0xbd40fd8a	-0.047116794
11	0x3e2578a0	0.16159296
12	0x3db765cc	0.08954963
13	0x3e526efe	0.20550153
14	0xbe0a5cbe	-0.13511941
15	0x3d6ab554	0.057301834
16	0x3cea8974	0.028629996
17	0xbd91a7b4	-0.07112065
18	0x3e23dcbc	0.16002172
19	0x3e156fb7	0.14593397
20	0x3cd2caf4	0.025731541
21	0xbc0764cc	-0.008263778
22	0x3d0d7993	0.03453977
23	0xbdc26d5e	-0.094935164
24	0x3e0244fe	0.12721631
25	0x3e1e19ff	0.15439604
26	0x3c4af925	0.012388502
27	0xbdecba60	-0.11558986
28	0x3e34ff94	0.1767562
29	0x3ded8967	0.11598473
30	0xbd432fdc	-0.047653064
31	0x3cfb3069	0.030662732
32	0x3e4c2f83	0.1994
33	0xbd312108	-0.04324439
34	0xbccd9833	-0.025096988
35	0xbbfc3b10	-0.0076974705
36	0xbde87dce	-0.1135212
37	0xbcbfb935	-0.023403743
38	0x3d2fa27e	0.042879574
39	0xbdf13caf	-0.117791526
40	0x3e43ea44	0.19132334
41	0x3dada6bb	0.08479067
42	0x3e1ad1b2	0.15119055
43	0xbe2c3b80	-0.16819572
44	0xbe18aabc	-0.1490888
45	0x3e0a347d	0.13496585
46	0xbdf7a5b3	-0.120921515
47	0x3dba2cda	0.09090586
48	0xbd254a9d	-0.04035436
49	0xbcecf1ae	-0.028923836
50	0x3e321623	0.17391257
51	0x3d069104	0.03285314
52	0x3de6ef2f	0.112760894
53	0x3df108f6	0.11769287
54	0xbe26ab55	-0.16276295
55	0xbcc1bd5a	-0.02364986
56	0xbdb9340b	-0.090431295
57	0x3e0d4bdc	0.1379847
58	0xbd773013	-0.06034858
59	0x3e3eea48	0.18644059
60	0x3e32fffb	0.17480461
61	0x3e1bcb86	0.15214357
62	0x3e298d27	0.16557752
63	0x3e00adad	0.12566252
64	0x3e546857	0.20742927
65	0x3c8308d5	0.015995422
66	0xbcd4a700	-0.025958538
67	0xbe215217	-0.15753971
68	0xbdb18ff9	-0.08670039
69	0xbd73dc7e	-0.05953645
70	0xbdc98c43	-0.09841206
71	0x3e236e03	0.15959935
72	0x3df94474	0.121712595
73	0x3e13e0e0	0.14441252
74	0xbd5d2d33	-0.053998183
75	0xbd87e479	-0.066353746
76	0x3e304a4a	0.17215839
77	0x3e048e80	0.12944984
78	0x3d71b575	0.05901094
79	0x3d6beac1	0.057596926
80	0xbe0774a0	-0.13228083
81	0xbe16e7ae	-0.14736816
82	0xbe18735d	-0.14887758
83	0x3e15ee35	0.1464165
84	0xbda2d0db	-0.07949992
85	0xbdc8efaa	-0.09811337
86	0x3e22da1b	0.15903513
87	0xbdd77a62	-0.105213895
88	0x3e3f7965	0.18698652
89	0x3e2d8581	0.16945459
90	0x3e2dce69	0.1697327
91	0x3d62c719	0.055365656
92	0xbd2f78f1	-0.042839948
93	0xbdf206b1	-0.118176825
94	0xbdc01df9	-0.09380717
95	0x3e1f0f28	0.15533125
96	0xbd9a0ce9	-0.07521994
97	0xbda83863	-0.0821388
98	0x3d992c6b	0.07479175
99	0xbdfcf9c0	-0.123523235
100	0x3d16c47c	0.036808476
101	0x3daf3798	0.085555255
102	0xbdda7083	-0.10665991
103	0x3d0ab12d	0.033860374
104	0x3e0e6d6d	0.1390893
105	0x3d503afd	0.050837506
106	0xbe102309	-0.14075865
107	0xbdbf8824	-0.09352139
108	0x3e27f694	0.16402656
109	0xbe140956	-0.14456686
110	0x3d728364	0.059207335
111	0xbcaf4483	-0.021394974
112	0x3e28af02	0.1647301
113	0x3df9d177	0.121981554
114	0x3db49603	0.08817675
115	0xbbd0aabc	-0.0063680094
116	0xbdc9fbf1	-0.09862507
117	0xbdec897f	-0.11549663
118	0xbe1f5fcf	-0.15563892
119	0x3d92687a	0.071488336
120	0x3ddbe628	0.10737258
121	0xbdaf5ec3	-0.08562996
122	0xbc8edfdc	-0.017440729
123	0x3db1750c	0.08664903
124	0x3e1526d5	0.14565594
125	0xbd9686ae	-0.07349907
126	0x3e450587	0.1924039
127	0xbb40ebe5	-0.002943748
128	0xbddbff33	-0.10742035
129	0x3d4ae06c	0.04953043
130	0x3e17fe7f	0.14843176
131	0xbcbc83d9	-0.023012089
132	0xbe0c308c	-0.13690394
133	0xbd8296b7	-0.06376403
134	0x3e17589c	0.14779896
135	0x3dba2d01	0.09090615
136	0xbaf4d63c	-0.001867957
137	0x3d1fa250	0.038973153
138	0x3d189094	0.037247255
139	0x3de3f7bb	0.11131235
140	0xbe0fc2ef	-0.14039205
141	0xbddd1f30	-0.10796964
142	0x3e39c140	0.18140125
143	0xbd58a392	-0.052890368
144	0x3d01bfd6	0.03167709
145	0xbe0c8283	-0.13721661
146	0xbdc65fcf	-0.09686243
147	0xbd7a2d55	-0.06107839
148	0x3dc32a39	0.09529538
149	0x3e0042ea	0.12525526
150	0xbcc203dc	-0.02368348
151	0xbd247f86	-0.04016068
152	0x3e0fdaf2	0.14048365
153	0xbd98c2b0	-0.07459009
154	0xbd8f4ac8	-0.06996685
155	0xbc02f2ce	-0.007992459
156	0x3e450368	0.1923958
157	0x3e2f6b80	0.17130852
158	0x3e0a84be	0.135272
159	0xbb831a42	-0.004000933
160	0x3d3a47ea	0.04547874
161	0x3e335ea8	0.17516577
162	0xbe1e1bb2	-0.15440252
163	0xbc980095	-0.018554965
164	0xbe1b706b	-0.15179603
165	0x3debebe4	0.11519602
166	0x3e4f86ec	0.20266312
167	0x3d84e284	0.06488517
168	0x3dc00671	0.093762286
169	0x3db2e692	0.08735384
170	0x3e2bacdb	0.16765158
171	0x3e4436f7	0.19161592
172	0xbd2706b4	-0.040777877
173	0x3de02eb9	0.10946412
174	0xbc8d4517	-0.017244859
175	0xbdc42003	-0.09576418
176	0x3dbbe83f	0.09175157
177	0xbdce15f7	-0.10062783
178	0x3e3ce1c6	0.184455
179	0xbe0c9439	-0.13728417
180	0xbdf3aaf7	-0.11897843
181	0xbd7a3829	-0.061088715
182	0x3da16391	0.07880319
183	0xbdfdeea2	-0.12399031
184	0xbd02f640	-0.031973124
185	0xbdbb5502	-0.09147073
186	0x3e293a24	0.16526085
187	0x3dc75ff1	0.09735096
188	0xbdaf4d59	-0.08559675
189	0x3e2b65ef	0.16738103
190	0xbdaedecc	-0.08538589
191	0xbe004edb	-0.12530081
192	0x3dad5caf	0.084649436
193	0x3dc73e94	0.09728733
194	0x3db7eced	0.08980737
195	0xbd1dadf3	-0.03849597
196	0x3d10c040	0.035339594
197	0x3dd2731e	0.10275863
198	0x3e4378b7	0.19089018
199	0xbd8982d9	-0.0671441
200	0x3e2a01c6	0.16602239
201	0xbdc343c9	-0.09534413
202	0x3d92bf7f	0.07165431
203	0x3d9a1a9c	0.075246066
204	0x3dfe1246	0.12405829
205	0x3dc57ab1	0.09642542
206	0x3dd37c41	0.10326434
207	0x3dee0bc7	0.1162334
208	0x3e024aef	0.12723897
209	0x3e22b4eb	0.15889327
210	0xbc32e6a9	-0.0109192515
211	0xbe2789c3	-0.16361146
212	0xbe16bb6e	-0.14719936
213	0x3d978536	0.07398455
214	0xbe2351c5	-0.15949161
215	0xbdd5fecf	-0.104489915
216	0xbda8492c	-0.082170814
217	0x3e4be8a9	0.19912972
218	0xbe112e02	-0.14177707
219	0x3d9f4179	0.0777616
220	0x3ca04282	0.019562963
221	0xbdc570e4	-0.09640673
222	0xbd5cd75e	-0.053916328
223	0x3d70c661	0.05878294
224	0xbe045eac	-0.1292674
225	0xbdbf03c4	-0.0932689
226	0xbde382c7	-0.11108928
227	0x3e1e18af	0.15439104
228	0xbb1baea9	-0.0023755229
229	0x3de98124	0.11401585
230	0x3dd4c6b0	0.10389459
231	0x3e0f0c1f	0.13969468
232	0x3dd210ab	0.102570854
233	0xbca55647	-0.020182742
234	0xbdacfe5c	-0.08446953
235	0x3e418e95	0.18902047
236	0xbe2aebf4	-0.16691571
237	0xbe12f373	-0.14350681
238	0xbdb747ca	-0.089492396
239	0xbce4070b	-0.02783539
240	0x3e4104b9	0.18849458
241	0xbd5ee8d7	-0.054421272
242	0x3e459384	0.19294554
243	0x3e02ce91	0.12774111
244	0xbd385216	-0.04500016
245	0x3da01803	0.0781708
246	0xbc8dce50	-0.017310292
247	0x3e25f58b	0.16206948
248	0x3d99b2b5	0.07504789
249	0xbdb8773e	-0.09007119
250	0x3d30fd83	0.043210518
251	0xbddb858a	-0.1071883
252	0xbd40dbc4	-0.047084585
253	0xbde59c57	-0.1121146
254	0x3e0163d1	0.12635733
255	0x3e277524	0.1635328

mono.2.bias f4 [32]
0	0xbd12370b	-0.035697024
1	0x3e20db14	0.15708572
2	0x3e4046da	0.18777028
3	0x3e299887	0.16562091
4	0xbbfa16dc	-0.0076321196
5	0x3da053cd	0.07828484
6	0xba9e8d70	-0.0012096595
7	0x3df2a81d	0.11848471
8	0x3d9daee7	0.076993756
9	0x3df6bcbc	0.12047717
10	0x3e58e782	0.21182063
11	0x3e56686b	0.2093827
12	0x3ce0ef79	0.02745794
13	0x3de58320	0.11206651
14	0x3dbc1716	0.09184091
15	0xbcaec22c	-0.021332823
16	0xbd97686b	-0.07392963
17	0xbdb35e07	-0.08758169
18	0x3da980de	0.082765326
19	0xbc757067	-0.014980412
20	0x3e394a02	0.18094638
21	0x3de6aeed	0.11263833
22	0x3be19b50	0.00688497
23	0xbc9c57b3	-0.019084787
24	0xbc90f544	-0.017695077
25	0x3e16a2dd	0.14710565
26	0xbde3ca5c	-0.11122581
27	0x3dcf2834	0.1011509
28	0xbc3cb564	-0.011517856
29	0x3d991f85	0.07476715
30	0xbc699f5d	-0.014259187
31	0xbda9f7c8	-0.08299214
