models/auto-11.pth (torch, 32038 bytes, 15 tensors)

pre_mono.0.weight f4 [32, 7]
0.32301593 0.22348213 0.20583162 0.06599914 0.069104835 0.30285588 0.14129704 -0.27809966
-0.25476933 0.031894255 0.23786022 0.18721129 0.32621086 0.1376769 -0.34142408 -0.2043651
0.22675493 0.020174753 0.12346386 0.14276098 -0.1810982 -0.059040684 0.15957 -0.3997439
0.23123114 0.052284602 0.33854297 -0.07478755 -0.030121928 0.09903128 -0.23287055 0.10703527
-0.062039584 0.043481093 -0.29874864 -0.29588655 0.31546792 -0.34100175 0.34801054 0.25106558
0.21967271 0.18120117 0.060194775 0.18448474 -0.13186964 -0.17135434 0.19338112 0.36385682
-0.15484048 0.15966396 -0.17247917 -0.353942 0.023040824 -0.24010131 0.2688893 0.2617811
0.09861538 -0.2630595 0.33382547 -0.050153114 -0.30958953 -0.3189529 0.14061627 0.04995962
-0.09114698 0.018875476 -0.12805997 0.0778228 0.033336468 0.17692745 -0.3453112 0.37048447
-0.118672 0.3103467 -0.34024054 -0.36763993 -0.3108918 0.22543128 0.05001931 -0.005750665
-0.27077755 -0.037195433 0.21240611 0.21587773 0.29197535 -0.391 0.04859222 -0.19217125
-0.30409887 -0.07604237 0.06778248 -0.34117666 -0.09386471 0.3710423 -0.24534054 -0.13877381
-0.17166725 -0.3959936 -0.07705457 0.2581349 0.091212206 -0.36581722 -0.10081459 -0.27590922
0.04466028 -0.20042525 0.2525494 -0.32049257 0.26703542 0.29590428 -0.28577816 0.2035479
-0.07596781 0.09856653 0.30155665 -0.113331854 -0.009776278 -0.2509026 0.21625 0.24793422
0.20963836 -0.047567528 0.20692067 -0.24946861 -0.35712963 -0.18269882 -0.3201025 0.17806439
-0.38364437 0.11186826 0.11295771 0.17286101 0.25362557 -0.04737095 -0.077495605 0.013475093
-0.34346366 -0.2996732 0.049522694 -0.3011202 -0.22245003 0.101571605 0.1169208 0.102389224
-0.24039197 0.2714591 0.13065042 0.26065257 -0.25920174 0.22374293 0.13338596 0.26840514
0.1370647 -0.01761327 0.08221395 0.3731614 -0.0599727 0.27633843 -0.07195802 0.09967612
0.3178007 -0.0018906213 -0.32800102 -0.087773256 0.11504558 -0.12270085 -0.1716531 -0.24596259
0.09253375 0.26739317 0.14573091 0.3625239 0.00883158 0.22195306 -0.37171617 -0.060047135
-0.06376847 0.017574565 -0.24056375 0.19493812 -0.22261582 0.272523 0.1313663 0.03984052
-0.14936092 0.073323056 -0.16717933 -0.09291895 0.1562516 -0.13580859 -0.16070771 0.22843315
-0.25331938 0.27935725 0.064632215 0.26229793 -0.14796296 -0.094574966 -0.37010264 -0.17068113
0.23560326 0.008261879 0.09549304 -0.35996863 -0.21909738 0.27486685 -0.21659447 -0.27386463
0.22663859 -0.35043424 -0.07710878 0.30345538 -0.0075706956 0.020999733 -0.06687 0.27497602
-0.24409093 -0.18672171 0.11041629 -0.2707582 -0.022153204 -0.34113783 0.39413297 0.10666276
00000000: 5862 a53e 80d8 643e 86c5 523e 8f2a 873d
00000010: d686 8d3d ed0f 9b3e 2cb0 103e 1463 8ebe
00000020: 2071 82be 8da3 023d a191 733e 51b4 3f3e
00000030: 1c05 a73e 2cfb 0c3e 23cf aebe 1645 51be
00000040: 7232 683e 8645 a53c 9fda fc3d ef2f 123e
00000050: ce71 39be a5d4 71bd 5166 233e 3cab ccbe
00000060: dbc7 6c3e 6128 563d 8155 ad3e 372a 99bd
00000070: 43c2 f6bc e9d0 ca3d 9e75 6ebe 4f35 db3d
00000080: 381d 7ebd 3b19 323d 95f5 98be 717e 97be
00000090: 0385 a13e c897 aebe 702e b23e ab8b 803e
000000a0: e2f1 603e cd8c 393e cc8e 763d 91e9 3c3e
000000b0: d608 07be 8377 2fbe b305 463e 714b ba3e
000000c0: 818e 1ebe f37e 233e 619e 30be e337 b5be
000000d0: 1cc0 bc3c 1edd 75be dcab 893e 2c08 863e
000000e0: dcf6 c93d bcaf 86be 2ceb aa3e 5a6d 4dbd
000000f0: 8582 9ebe cb4d a3be b6fd 0f3e 75a2 4c3d
00000100: 45ab babd bea0 9a3c 2722 03be 8f61 9f3d
00000110: d28b 083d 782c 353e a1cc b0be 24b0 bd3e
00000120: 4e0a f3bd c3e5 9e3e 0234 aebe 4d3b bcbe
00000130: 362d 9fbe 75d7 663e 0ce1 4c3d 1370 bcbb
00000140: 5ba3 8abe 3d5a 18bd fd80 593e 0d0f 5d3e
00000150: cb7d 953e 2731 c8be a308 473d 8ac8 44be
00000160: d9b2 9bbe 1abc 9bbd 8ad1 8a3d b5ae aebe
00000170: 243c c0bd 42f9 bd3e 8d3a 7bbe b91a 0ebe
00000180: 8ac9 2fbe acbf cabe c9ce 9dbd 422a 843e
00000190: 77cd ba3d 654c bbbe e177 cebd f943 8dbe
000001a0: b3ed 363d 473c 4dbe 284e 813e 9a17 a4be
000001b0: deb8 883e c480 973e 8451 92be dc6e 503e
000001c0: 0395 9bbd 40dd c93d a265 9a3e 881a e8bd
000001d0: af2c 20bc 4e76 80be a470 5d3e 78e2 7d3e
000001e0: 70ab 563e 2bd6 42bd 03e3 533e b374 7fbe
000001f0: b2d9 b6be 6615 3bbe 7ae4 a3be 8356 363e
00000200: 096d c4be 301b e53d 5f56 e73d 7a02 313e
00000210: 36db 813e 0b08 42bd 04b6 9ebd a3c6 5c3c
00000220: 78da afbe c46e 99be 4fd8 4a3d 6d2c 9abe
00000230: f1c9 63be c604 d03d 2c74 ef3d 71b1 d13d
00000240: 5029 76be b0fc 8a3e 39c9 053e 4174 853e
00000250: 17b6 84be de1c 653e 5496 083e 666c 893e
00000260: b05a 0c3e b449 90bc ca5f a83d 030f bf3e
00000270: efa5 75bd 3b7c 8d3e ba5e 93bd fe22 cc3d
00000280: c6b6 a23e b9ce f7ba c0ef a7be 77c2 b3bd
00000290: 049d eb3d 954a fbbd d5c5 2fbe 9edd 7bbe
000002a0: 5682 bd3d c2e7 883e 7c3a 153e bc9c b93e
000002b0: 55b2 103c aa47 633e 9551 bebe fcf3 75bd
000002c0: 0b99 82bd 89f8 8f3c 5856 76be dc9d 473e
000002d0: 67f5 63be 2288 8b3e e384 063e d02f 233d
000002e0: 12f2 18be 662a 963d 0f31 2bbe 4a4c bebd
000002f0: 6b00 203e 6811 0bbe 9090 24be 61ea 693e
00000300: 14b3 81be ea07 8f3e e55d 843d ea4b 863e
00000310: 9a83 17be 85b0 c1bd 187e bdbe 09c7 2ebe
00000320: fb41 713e d55c 073c db91 c33d cf4d b8be
00000330: 105b 60be 59bb 8c3e f1ca 5dbe fc37 8cbe
00000340: f213 683e 1e6c b3be 35eb 9dbd 815e 9b3e
00000350: 9913 f8bb a207 ac3c 23f3 88bd a8c9 8c3e
00000360: f9f2 79be fa33 3fbe f021 e23d d2a0 8abe
00000370: a37a b5bc 9ea9 aebe cccb c93e 0172 da3d

pre_mono.0.bias f4 [32]
-0.05165926 -0.14035985 -0.023169171 0.28455335 0.25360447 -0.30428576 0.0015670683 -0.113808066
-0.2311258 -0.15293086 -0.14019512 -0.30099404 0.41512272 0.036782194 0.35346496 -0.0626142
-0.07794309 0.10447252 0.40102136 0.029958528 -0.2704219 -0.3850628 -0.036527637 -0.1857919
-0.33131543 0.20365456 -0.14449629 0.024282632 0.080392234 -0.17666204 0.35921112 0.28301325
00000000: a998 53bd 7eba 0fbe 46cd bdbc fab0 913e
00000010: 72d8 813e 58cb 9bbe 1666 cd3a 3414 e9bd
00000020: 3eac 6cbe e899 1cbe 4f8f 0fbe e41b 9abe
00000030: f78a d43e eda8 163d 5cf9 b43e e03b 80bd
00000040: a0a0 9fbd b0f5 d53d ac52 cd3e 966b f53c
00000050: bd74 8abe f426 c5be 019e 15bd 3b40 3ebe
00000060: 2da2 a9be d28a 503e d6f6 13be 5fec c63c
00000070: afa4 a43d e5e6 34be 85ea b73e 1de7 903e

pre_mono.1.weight f4 [32, 32]
0.06325109 -0.016179804 0.09017037 0.0887638 0.12518719 -0.1214191 0.18390563 0.15158275
0.035973273 0.18874158 0.094682276 0.11866551 0.11383396 -0.022554487 0.20771886 0.04693429
-0.10166006 0.0315276 0.039293736 0.17542343 0.18242735 -0.04705899 -0.08923946 -0.06425542
0.1528975 0.052401494 0.036397457 0.18650258 -0.1345529 -0.03274362 0.117772005 0.023313245
0.056978095 -0.07991669 0.14134818 -0.06664366 -0.020375015 -0.052258044 -0.14365914 0.10916235
0.187855 -0.17800595 0.10275935 -0.11182191 0.06181054 -0.12902576 0.07190176 -0.07409495
0.027050413 0.07940474 -0.13610728 -0.13937677 -0.107537836 0.13975073 0.13902469 -0.14659274
-0.12826233 -0.17360006 0.18916866 0.15500236 -0.009551394 0.08830468 -0.112898625 -0.025011376
-0.08729372 -0.072615705 -0.11779305 -0.024103157 -0.018892858 0.10540413 -0.1513083 0.17377667
-0.13404205 0.09045497 -0.04611896 0.15738843 -0.019356698 0.04250104 -0.0722452 0.18435931
0.11085363 0.13683148 -0.013033909 0.10197482 -0.12455791 -0.10184787 0.19258015 0.20617016
0.05040869 -0.14797078 0.032441076 0.0072373017 0.08040735 0.1451491 0.15711083 -0.09340852
0.07400106 -0.06837434 -0.05226196 0.0037865627 0.08857139 0.018838756 -0.13592042 -0.14157991
0.07499315 0.08727086 -0.1533302 0.056988124 0.025636418 0.09374936 -0.07693713 -0.16802746
-0.1164575 0.09908502 0.06405492 0.05758484 -0.036239408 0.10763515 -0.11476861 0.08034815
-0.09711817 0.006143359 -0.055179328 -0.14445043 -0.017276943 -0.023890626 -0.070783295 -0.0703536
0.12828685 -0.06038043 0.015480254 0.03316977 0.14076647 0.057484034 0.14144668 -0.07879343
0.16269174 -0.016230375 0.032772433 0.06541678 -0.07162787 0.083800495 -0.12942213 -0.13544539
0.058639806 -0.021726605 0.16755994 -0.04798661 0.16165166 -0.1368829 0.09189859 0.13529156
0.123982884 -0.12050196 -0.15339191 -0.07902588 0.17194332 0.056379873 0.15490514 0.1208808
0.1893902 -0.13827951 0.076050125 -0.034471586 0.12062489 -0.1071469 0.02878189 0.065167725
-0.14398381 -0.01178103 0.12205994 0.12320196 0.16369012 0.15707189 -0.030260613 -0.00973133
-0.11108547 0.19719034 -0.06684407 0.04566763 0.06142759 0.18050446 -0.07573112 -0.09205532
-0.14199336 -0.07171794 0.09048118 0.097452864 -0.12478818 -0.08352015 -0.08520063 0.2029823
0.033921268 0.026150176 -0.10864514 0.13078307 -0.14911628 0.13043894 -0.065432794 -0.11547282
0.031637374 0.17758957 0.0507633 -0.05728136 0.048802678 -0.08665144 0.060270455 -0.071733765
-0.08906071 -0.08737387 0.14436556 -0.039612483 -0.12656283 -0.09369637 0.014629028 0.009213396
-0.19516195 -0.13808624 -0.10767015 0.028442174 -0.13890351 -0.049331523 -0.13985363 0.17400858
-0.14639923 0.19036955 0.019331148 -0.0918803 0.037539113 -0.052849114 0.17350899 0.02827042
-0.06608846 -0.1222269 -0.016793516 0.16841735 0.06889036 -0.08257226 -0.05900121 0.14699945
-0.07463592 0.09163949 0.17747074 0.07845033 0.04434004 0.025312943 0.15184559 0.20726323
0.120280884 0.07309858 0.03437212 -0.014785205 0.117043175 0.14407495 -0.004724279 0.10312809
00000000: ca89 813d 828b 84bc 3eab b83d ccc9 b53d
00000010: 1231 003e 94aa f8bd c251 3c3e 8238 1b3e
00000020: b658 133d 7945 413e c8e8 c13d e706 f33d
00000030: c721 e93d 30c4 b8bc 41b4 543e 2c3e 403d
00000040: 2633 d0bd 1623 013d 78f2 203d 33a2 333e
00000050: 3cce 3a3e edc0 40bd 2ec3 b6bd 5898 83bd
00000060: 2a91 1c3e f3a2 563d 8015 153d 88fa 3e3e
00000070: 3cc8 09be 2d1e 06bd 7332 f13d 6bfb be3c
00000080: dd61 693d 5dab a3bd 94bd 103e 797c 88bd
00000090: 81e9 a6bc 880c 56bd 621b 13be 8390 df3d
000000a0: 105d 403e 3147 36be 7e73 d23d e302 e5bd
000000b0: 0c2d 7d3d 541f 04be 3b41 933d 18bf 97bd
000000c0: d498 dd3c f49e a23d b55f 0bbe c9b8 0ebe
000000d0: cc3c dcbd d11a 0f3e 7d5c 0e3e 681c 16be
000000e0: 3357 03be 37c4 31be 6eb5 413e f0b8 1e3e
000000f0: 737d 1cbc 16d9 b43d 6537 e7bd a8e4 ccbc
00000100: 0dc7 b2bd 8bb7 94bd 7c3d f1bd fc73 c5bc
00000110: 32c5 9abc 1fde d73d 90f0 1abe 83f2 313e
00000120: 5242 09be 7540 b93d 3ce7 3cbd 6f2a 213e
00000130: f091 9ebc 9215 2e3d 4bf5 93bd b0c8 3c3e
00000140: 3a07 e33d 8d1d 0c3e 2d8c 55bc 2dd8 d03d
00000150: 3818 ffbd 9e95 d0bd bb33 453e 451e 533e
00000160: 5879 4e3d a785 17be efe0 043d e326 ed3b
00000170: 9cac a43d f7a1 143e a9e1 203e f74c bfbd
00000180: de8d 973d d907 8cbd a310 56bd fb27 783b
00000190: eb64 b53d bc53 9a3c b92e 0bbe 53fa 10be
000001a0: 0296 993d 11bb b23d 9802 1dbe 616c 693d
000001b0: 7703 d23c aaff bf3d 3791 9dbd 640f 2cbe
000001c0: 4581 eebd 16ed ca3d 3a2f 833d 15de 6b3d
000001d0: c66f 14bd d16f dc3d ce0b ebbd 928d a43d
000001e0: e4e5 c6bd 3b4e c93b b803 62bd d0ea 13be
000001f0: 6088 8dbc 46b6 c3bc d5f6 90bd 8c15 90bd
00000200: a15d 033e 7851 77bd e4a0 7d3c 06dd 073d
00000210: 1625 103e 6174 6b3d 66d7 103e 735e a1bd
00000220: aa98 263e 90f5 84bc 633c 063d 3cf9 853d
00000230: a2b1 92bd 989f ab3d 3c87 04be 32b2 0abe
00000240: 4b30 703d fefb b1bc d594 2b3e 9c8d 44bd
00000250: 0388 253e 082b 0cbe 5435 bc3d df89 0a3e
00000260: bdea fd3d bbc9 f6bd c512 1dbe 52d8 a1bd
00000270: e911 303e 95ee 663d 749f 1e3e 5a90 f73d
00000280: 81ef 413e 2599 0dbe 2bc0 9b3d 1432 0dbd
00000290: 2f0a f73d d56f dbbd 00c8 eb3c a876 853d
000002a0: 7e70 13be 3905 41bc 90fa f93d 4f51 fc3d
000002b0: 629e 273e 74d7 203e 1be5 f7bc 2870 1fbc
000002c0: c780 e3bd 44ec 493e 8be5 88bd fb0d 3b3d
000002d0: 7f9b 7b3d 29d6 383e eb18 9bbd 8087 bcbd
000002e0: b566 11be dbe0 92bd 324e b93d 5e95 c73d
000002f0: f290 ffbd 9d0c abbd ab7d aebd 98da 4f3e
00000300: 07f1 0a3d e538 d63c 5881 debd ffeb 053e
00000310: f0b1 18be c991 053e a101 86bd 047d ecbd
00000320: 3196 013d 0ada 353e 2eed 4f3d dc9f 6abd
00000330: 51e5 473d 4f76 b1bd 27de 763d 27e9 92bd
00000340: 7665 b6bd 12f1 b2bd 91d4 133e b340 22bd
00000350: b099 01be e2e3 bfbd 97ae 6f3c c9f3 163c
00000360: 89d8 47be 7b66 0dbe 2b82 dcbd 90ff e83c
00000370: b93c 0ebe da0f 4abd ca35 0fbe 4e2f 323e
00000380: aee9 15be 3cf0 423e 5b5c 9e3c bd2b bcbd
00000390: 9dc2 193d 5078 58bd 57ac 313e 5e97 e73c
000003a0: 6359 87bd 1952 fabd 8e92 89bc 9975 2c3e
000003b0: 6416 8d3d a51b a9bd 41ab 71bd 0687 163e
000003c0: b8da 98bd 7cad bb3d e4ba 353e 91aa a03d
000003d0: e79d 353d 175d cf3c 697d 1b3e d03c 543e
000003e0: d355 f63d b5b4 953d c8c9 0c3d a53d 72bc
000003f0: 55b4 ef3d 6288 133e 20ce 9abb d234 d33d

pre_mono.1.bias f4 [32]
0.13059922 -0.07326532 0.03545216 -0.09968308 -0.061210763 0.023394858 -0.000709619 0.01727334
-0.1173878 -0.025416275 -0.054266356 0.061482724 0.049101274 0.037351064 -0.13492204 -0.00052599184
0.074587375 -0.11710519 -0.07387936 -0.10265714 0.057631332 0.15992688 0.034525696 -0.0543903
0.04093273 0.10809443 0.12391865 -0.051281568 -0.15441924 0.14882675 0.092126004 -0.114312224
00000000: cdbb 053e 210c 96bd 4936 113d a526 ccbd
00000010: 23b8 7abd 93a6 bf3c ba05 3aba d280 8d3c
00000020: 0469 f0bd cb35 d0bc 6646 5ebd 4fd5 7b3d
00000030: 6b1e 493d 6efd 183d 0129 0abe b7e2 09ba
00000040: 44c1 983d d9d4 efbd 104e 97bd e83d d2bd
00000050: d50e 6c3d dfc3 233e d16a 0d3d 5dc8 5ebd
00000060: 14a9 273d 9d60 dd3d 10c9 fd3d 9f0c 52bd
00000070: 1420 1ebe 0a66 183e 8fac bc3d 871c eabd

pre_mono.2.weight f4 [32, 32]
-0.087095656 -0.018483486 0.08472882 -0.124675125 -0.0978529 0.18644285 0.18823984 0.16731794
-0.0389431 0.12724033 -0.016437678 -0.1617742 0.04990773 0.11518006 0.049268644 -0.017998153
-0.042238455 0.010226807 -0.074645504 0.11305648 -0.15992963 -0.0943442 0.13953637 -0.074987836
-0.08721585 -0.034998145 0.017952967 -0.018297916 0.116507016 -0.005760592 0.18178466 0.0676421
-0.10251425 -0.1189199 -0.14254926 -0.01259542 0.14920603 0.16919091 0.15256679 0.11495839
-0.09310309 0.18684627 0.14271972 0.19732188 -0.084515065 0.06319854 0.15241042 0.0066799996
0.16047962 0.036253244 0.19327606 0.12767531 0.11767295 -0.0511307 0.17923196 -0.11746656
-0.055310965 0.11638051 0.08301981 0.028274057 0.16223904 0.081609115 0.19985223 0.15867719
0.08129806 -0.15577042 0.01452671 -0.118409365 0.097078934 -0.00083416805 0.14413206 0.18120006
-0.0075983284 -0.072326556 0.044003744 -0.09223947 0.106511705 0.015463074 -0.10644127 -0.098798
-0.036790818 0.02507337 -0.11080692 -0.110133186 -0.042326957 -0.06094234 0.046253134 -0.05630661
0.0075444686 0.14079791 -0.0909764 -0.019912729 0.06443823 0.1989469 0.00014855714 0.11624723
-0.06712431 0.11593963 -0.14628926 0.074622974 0.10941042 -0.049305085 0.0886763 -0.043942563
-0.11592168 0.10650203 -0.04850569 -0.01426967 -0.045133468 -0.059223246 -0.097864814 0.13270949
-0.09123397 0.026868278 -0.077179864 -0.10497475 -0.16226268 -0.11985222 0.14755112 -0.10802372
0.13765638 -0.15526818 -0.0030682706 0.12972377 -0.14068647 0.07189507 -0.03631636 0.13988288
0.113318235 -0.17625818 -0.08035804 -0.079484835 -0.114909716 -0.06866009 -0.19375998 -0.13149269
-0.13786195 -0.011193927 -0.08280176 0.18575299 0.058847614 0.040742792 -0.0019361397 -0.054287426
0.0469362 -0.07347984 -0.09458004 -0.09507839 0.0072443374 -0.13875373 0.14738742 -0.0910968
-0.112789124 -0.13915539 0.07422782 0.121575646 0.13390462 0.043519083 -0.10567561 0.0062241917
-0.08748034 0.12544295 -0.079623796 0.14507923 0.14011015 0.043029483 0.092553295 0.18986236
0.009047296 0.19147943 -0.11986275 0.13876179 0.14389625 -0.13430195 0.12267034 0.16196325
0.19798808 -0.06578034 -0.05694165 -0.07367838 0.05694041 0.14616646 -0.078945674 0.10047383
-0.043975014 0.013628076 -0.023796186 -0.11854315 -0.1755749 0.1705837 -0.06991547 0.11411762
0.035633754 -0.088411815 0.16888279 0.14226042 0.014054805 -0.08047194 -0.13188116 -0.014499983
0.12658611 -0.13062157 0.028393822 -0.068185784 0.033097412 0.12182207 -0.08675768 -0.06926578
0.13270843 -0.17180362 -0.013811234 0.04322542 0.06780684 -0.12193923 0.15582387 -0.106335744
0.102976434 -0.068030715 0.04820583 0.09417035 -0.04982279 -0.018675964 -0.080129296 -0.095076464
0.0098032225 0.12222368 0.04492935 -0.0135819055 0.19834492 0.14221679 -0.053000342 0.002174935
0.050114226 -0.038586363 0.10091292 -0.11399242 -0.05403259 0.19530268 0.10084962 -0.043366723
-0.08846638 -0.1120761 0.025659613 0.019602394 0.11747242 0.16506736 0.20550688 -0.13208678
0.08621426 0.19680493 0.08556675 0.012227227 0.045601245 0.005117607 0.13403629 -0.103821374
00000000: 355f b2bd ae6a 97bc 4e86 ad3d ac55 ffbd
00000010: 1a67 c8bd e0ea 3e3e f2c1 403e 6555 2b3e
00000020: cd82 1fbd 4a4b 023e 4fa8 86bc 23a8 25be
00000030: 0c6c 4c3d 86e3 eb3d ebcd 493d dd70 93bc
00000040: 3b02 2dbd 568e 273c bedf 98bd 288a e73d
00000050: 98c4 23be 8837 c1bd 9fe2 0e3e 3993 99bd
00000060: 399e b2bd 375a 0fbd 1a12 933c 83e5 95bc
00000070: 3b9b ee3d 59c3 bcbb c225 3a3e f187 8a3d
00000080: fef2 d1bd 478c f3bd 6ff8 11be 055d 4ebc
00000090: 77c9 183e 6240 2d3e 783a 1c3e 4e6f eb3d
000000a0: d5ac bebd a154 3f3e 1e25 123e bf0e 4a3e
000000b0: 3c16 adbd 3c6e 813d 7a11 1c3e e6e3 da3b
000000c0: c554 243e 487e 143d 29ea 453e 51bd 023e
000000d0: 84fe f03d 6d6e 51bd 9588 373e 4f92 f0bd
000000e0: c08d 62bd e858 ee3d 4a06 aa3d ff9e e73c
000000f0: fe21 263e ae22 a73d 10a6 4c3e 467c 223e
00000100: 997f a63d 4882 1fbe 7001 6e3c 9c80 f2bd
00000110: 52d1 c63d 12ac 5aba 5b97 133e 828c 393e
00000120: 66fb f8bb f21f 94bd 453d 343d 0ce8 bcbd
00000130: cf22 da3d d558 7d3c e1fd d9bd 9b56 cabd
00000140: f8b1 16bd ab66 cd3c bdee e2bd 828d e1bd
00000150: 085f 2dbd ad9e 79bd ed73 3d3d c3a1 66bd
00000160: 9737 f73b 542d 103e d651 babd 0520 a3bc
00000170: 31f8 833d bcb8 4b3e 01c6 1b39 0713 ee3d
00000180: 7878 89bd c271 ed3d dacc 15be eed3 983d
00000190: 9212 e03d 21f4 49bd ec9b b53d 1efd 33bd
000001a0: 5968 edbd bc1d da3d e7ad 46bd 55cb 69bc
000001b0: dfdd 38bd 1394 72bd 596d c8bd ffe4 073e
000001c0: e0d8 babd dd1a dc3c 7a10 9ebd 00fd d6bd
000001d0: 3028 26be 1575 f5bd a417 173e 8a3b ddbd
000001e0: cbf5 0c3e 9ffe 1ebe 0a15 49bb 4fd6 043e
000001f0: 1d10 10be b93d 933d 77c0 14bd 753d 0f3e
00000200: 6413 e83d 067d 34be c292 a4bd f2c8 a2bd
00000210: c955 ebbd a99d 8cbd 0469 46be 05a6 06be
00000220: af2b 0dbe bc66 37bc f893 a9bd 0836 3e3e
00000230: 320a 713d eae1 263d 11c6 fdba 7e5c 5ebd
00000240: 2c40 403d 997c 96bd 2eb3 c1bd 75b8 c2bd
00000250: e861 ed3b 7515 0ebe baec 163e f690 babd
00000260: fcfd e6bd c07e 0ebe c104 983d a7fc f83d
00000270: 4b1e 093e 1141 323d 746c d8bd 4ef4 cb3b
00000280: e428 b3bd 1e74 003e cd11 a3bd a68f 143e
00000290: 0979 0f3e af3f 303d 958c bd3d 476b 423e
000002a0: 1c3b 143c 2f13 443e 9a7a f5bd 9217 0e3e
000002b0: 8a59 133e 7386 09be 963a fb3d b2d9 253e
000002c0: 63bd 4a3e d8b7 86bd a63b 69bd b1e4 96bd
000002d0: 593a 693d a9ac 153e 45ae a1bd 39c5 cd3d
000002e0: 251f 34bd 4b48 5f3c 38f0 c2bc c0c6 f2bd
000002f0: e8c9 33be 7ead 2e3e d82f 8fbd 80b6 e93d
00000300: b3f4 113d 4111 b5bd 9cef 2c3e b7ac 113e
00000310: 2046 663c 79ce a4bd db0b 07be 5691 6dbc
00000320: ca9f 013e a9c1 05be 299a e83c fda4 8bbd
00000330: 2791 073d d97d f93d 03ae b1bd 38db 8dbd
00000340: b8e4 073e 4aed 2fbe 8448 62bc 230d 313d
00000350: 50de 8a3d 46bb f9bd 4b90 1f3e 8ec6 d9bd
00000360: 4fe5 d23d b053 8bbd 7a73 453d 62dc c03d
00000370: fb12 4cbd 56fe 98bc d41a a4bd 73b7 c2bd
00000380: b29d 203c 6950 fa3d d707 383d a486 5ebc
00000390: ee1a 4b3e 47a1 113e e316 59bd 5b89 0e3b
000003a0: 9344 4d3d bc0c 1ebd 6fab ce3d dc74 e9bd
000003b0: 4751 5dbd 6dfd 473e 3f8a ce3d 4ea1 31bd
000003c0: dd2d b5bd 2888 e5bd 1c34 d23c 3395 a03c
000003d0: 6195 f03d 6b07 293e 6570 523e c241 07be
000003e0: 1a91 b03d 3b87 493e 9f3d af3d b554 483c
000003f0: 5fc8 3a3d 99b1 a73b cf40 093e 4da0 d4bd

pre_mono.2.bias f4 [32]
0.098981224 -0.03507243 0.21568581 -0.11552453 -0.042633664 0.1575746 0.20580322 0.03507393
0.15884154 0.050701603 -0.006327148 0.21790329 0.0233448 0.12812978 0.038666263 0.09512999
0.102107756 -0.010387944 -0.12260796 0.0012045872 -0.104498394 0.14487116 0.13168024 -0.053289484
0.18557133 0.003566711 -0.14545053 -0.030450428 0.0411645 0.107968576 0.1904154 -0.08546791
00000000: abb6 ca3d 1ca8 0fbd bedc 5c3e 2098 ecbd
00000010: a3a0 2ebd 3c5b 213e 14be 523e aea9 0f3d
00000020: 5ba7 223e 7cac 4f3d f753 cfbb 0a22 5f3e
00000030: 983d bf3c 7434 033e 8460 1e3d 83d3 c23d
00000040: df1d d13d 3232 2abc e219 fbbd 3de3 9d3a
00000050: 4103 d6bd 1b59 143e 2fd7 063e 1346 5abd
00000060: 6906 3e3e 7bbf 693b fcf0 14be 2d73 f9bc
00000070: 1b9c 283d a11e dd3d 41fc 423e cd09 afbd

mono.0.weight f4 [32, 35]
-0.15458602 -0.035773445 0.20261721 -0.10260772 0.04956936 0.10279358 0.067357495 -0.15707836
0.059985384 0.17593299 -0.111601606 0.13358042 -0.11057796 -0.049397264 0.122964956 0.03410732
-0.16996042 0.12023849 0.102615885 0.12243444 0.12559278 0.11305673 0.15151924 0.06005123
0.15209262 -0.18548702 -0.016257044 -0.037936475 -0.11734093 0.077995725 0.16550045 -0.1339256
-0.117712736 -0.08435321 0.16269141 -0.17957519 0.19742787 -0.14204018 -0.015682247 -0.04230828
-0.105756216 0.15692368 -0.039222647 -0.13950501 -0.12603302 0.05573931 0.076429285 -0.1263645
0.0661331 -0.13964136 -0.036441952 0.10943221 -0.047113232 -0.04846558 -0.038965855 0.05961534
-0.12172359 0.047329485 0.14376707 -0.039122693 0.14823918 -0.14582063 -0.16004437 -0.11407221
0.12542915 0.14020993 -0.14585997 0.096736506 -0.06080707 0.08420875 0.19511539 -0.19517627
0.06848331 0.091999024 0.03549728 -0.1387432 -0.07055241 -0.08213565 0.16680272 0.18352553
-0.10022854 -0.20430525 -0.08725757 -0.13044275 0.17692578 0.1931075 0.12310324 -0.047015637
-0.1629642 0.04511445 -0.06533686 0.039715957 -0.11712509 -0.050205577 0.1330159 0.20372681
0.13206397 -0.11085221 0.14719926 0.14415906 0.10590737 0.18034224 0.04536408 -0.048333883
-0.12737295 -0.07366258 0.09144385 -0.15789174 0.02541939 -0.06698752 -0.17295735 -0.060068708
-0.09663854 0.18658446 -0.11345438 0.1988738 0.13547008 0.19911385 -0.037747774 -0.038347177
-0.17706743 0.101148285 0.14187704 -0.015622815 -0.038291495 -0.012085978 0.12571807 -0.13576119
-0.038859725 0.06919625 0.10758099 0.13963485 -0.16422777 0.07080652 0.0704184 -0.109170906
-0.051348895 -0.071490414 -0.1622885 -0.16848378 -0.04569541 0.14207402 0.20520993 0.014236769
-0.13720176 -0.09099943 0.07232281 0.071598336 0.062104646 -0.09822926 0.0716651 0.18492824
-0.15057701 -0.085177824 -0.13419497 -0.1032201 0.18867064 0.10874569 -0.0100529995 -0.03873986
0.1376686 0.09179041 -0.05647914 0.08323496 -0.06206817 0.050383613 -0.102005824 -0.087192945
-0.16899158 0.13226002 -0.11540386 0.037828594 -0.12418728 0.04609229 -0.11726305 0.10975807
0.18643579 -0.14014989 -0.13405041 0.035572764 0.17361586 0.20369057 -0.13534541 0.18256482
-0.061884563 -0.11694869 0.042965095 -0.081656285 0.045707863 -0.048644222 -0.16273934 -0.14596732
0.076809146 -0.018231077 -0.038932268 0.026789505 0.08026754 -0.1247129 -0.08554649 -0.16418669
-0.051569816 -0.0123572 0.12254573 0.08308325 -0.100360334 0.14297575 -0.06945465 -0.059798088
-0.14332023 0.13781962 -0.06916299 0.12757424 -0.19036087 0.1434241 0.1692724 -0.16705163
0.2050805 0.11826448 0.06309082 0.12799236 -0.08923428 0.1502277 -0.18324734 -0.19749604
0.18212762 -0.16500087 -0.16498198 0.06744632 0.0038677612 0.10735124 -0.045231305 0.16554004
0.080223314 0.044241842 -0.12269843 0.19550341 -0.03740209 0.022310583 -0.12919268 -0.06260076
0.16163996 0.16146755 -0.14500454 -0.027467072 -0.08752208 -0.117770106 -0.051178735 0.0389283
-0.03814772 -0.033383887 -0.18191475 0.065186426 0.07545375 0.17154565 0.18926165 -0.19701435
00000000: cc4b 1ebe 2d87 12bd e37a 4f3e ff23 d2bd
00000010: 3e09 4b3d 7185 d23d baf2 893d 26d9 20be
00000020: 3cb3 753d c727 343e 628f e4bd 4ec9 083e
00000030: b376 e2bd c954 4abd 0dd5 fb3d 1eb4 0b3d
00000040: 1b0a 2ebe 993f f63d 4728 d23d e8be fa3d
00000050: 659b 003e 498a e73d dc27 1b3e 47f8 753d
00000060: 2bbe 1b3e 4ff0 3dbe 7e2d 85bc 4763 1bbd
00000070: 7150 f0bd 39bc 9f3d f378 293e cb23 09be
00000080: 6013 f1bd 60c1 acbd 9498 263e 8fe2 37be
00000090: 882a 4a3e fb72 11be 0e78 80bc 724b 2dbd
000000a0: b796 d8bd 9ab0 203e eda7 20bd 67da 0ebe
000000b0: cd0e 01be e74e 643d f586 9c3d b265 01be
000000c0: ca70 873d 25fe 0ebe 2844 15bd ff1d e03d
000000d0: cef9 40bd d883 46bd a99a 1fbd 372f 743d
000000e0: 384a f9bd 90dc 413d ad37 133e 1e3f 20bd
000000f0: 03cc 173e 0152 15be ace2 23be b19e e9bd
00000100: 8070 003e 3193 0f3e 515c 15be ca1d c63d
00000110: d610 79bd a375 ac3d 54cc 473e 4adc 47be
00000120: fa40 8c3d fc69 bc3d 9965 113d b312 0ebe
00000130: c87d 90bd bc36 a8bd 55ce 2a3e 1eee 3b3e
00000140: 9f44 cdbd 6535 51be 19b4 b2bd c992 05be
00000150: 082c 353e f9bd 453e 8d1d fc3d 7893 40bd
00000160: 16e0 26be eec9 383d 55cf 85bd 33ad 223d
00000170: 47df efbd 5da4 4dbd 5235 083e c39d 503e
00000180: c73b 073e 7c06 e3bd 67bb 163e 6f9e 133e
00000190: f7e5 d83d a3ab 383e b0cf 393d c0f9 45bd
000001a0: 0e6e 02be 68dc 96bd ea46 bb3d 5fae 21be
000001b0: 533c d03c c130 89bd bb1b 31be 9b0a 76bd
000001c0: 6dea c5bd ff0f 3f3e c55a e8bd 93a5 4b3e
000001d0: abb8 0a3e 80e4 4b3e 699d 1abd ee11 1dbd
000001e0: 2a51 35be d526 cf3d 3748 113e d6f6 7fbc
000001f0: 8bd7 1cbd 4404 46bc 3dbc 003e fb04 0bbe
00000200: 602b 1fbd c3b6 8d3d 6c53 dc3d 70fc 0e3e
00000210: 532b 28be 0203 913d 8637 903d ff94 dfbd
00000220: 3853 52bd 9169 92bd f52e 26be 0387 2cbe
00000230: 1c2b 3bbd da7b 113e 8d22 523e 5641 693c
00000240: 9e7e 0cbe e95d babd fb1d 943d 26a2 923d
00000250: 7161 7e3d 6c2c c9bd 27c5 923d d45d 3d3e
00000260: dc30 1abe b671 aebd 686a 09be 0f65 d3bd
00000270: e032 413e 0fb6 de3d 56b5 24bc b0ad 1ebd
00000280: fff8 0c3e 9cfc bb3d ac56 67bd 1777 aa3d
00000290: 323b 7ebd 0c5f 4e3d 6ee8 d0bd 3792 b2bd
000002a0: 210c 2dbe 2c6f 073e dc58 ecbd 28f2 1a3d
000002b0: e755 febd 45cb 3c3d 9c27 f0bd d7c8 e03d
000002c0: 06e9 3e3e 7483 0fbe 8344 09be bfb4 113d
000002d0: 5bc8 313e 4394 503e fd97 0abe 46f2 3a3e
000002e0: ab7a 7dbd cb82 efbd 2bfc 2f3d 693b a7bd
000002f0: 2b38 3b3d 2a3f 47bd 24a5 26be 7578 15be
00000300: 1d4e 9d3d 5759 95bc 7177 1fbd aa75 db3c
00000310: 4f63 a43d 7a69 ffbd 0033 afbd 8e20 28be
00000320: df3a 53bd da75 4abc 41f9 fa3d 8d27 aa3d
00000330: b889 cdbd 3c68 123e 3d3e 8ebd d7ee 74bd
00000340: 8ac2 12be 9620 0d3e 53a5 8dbd d2a2 023e
00000350: f6ed 42be c4dd 123e be55 2d3e 950f 2bbe
00000360: 9f00 523e a634 f23d c335 813d 6e10 033e
00000370: 76c0 b6bd 4ad5 193e 31a5 3bbe 673c 4abe
00000380: aa7f 3a3e fdf5 28be 09f1 28be 4c21 8a3d
00000390: 447a 7d3b f8da db3d 7644 39bd 5483 293e
000003a0: 1f4c a43d ef36 353d 5149 fbbd 0c32 483e
000003b0: ef32 19bd afc4 b63c 164b 04be d434 80bd
000003c0: f284 253e c057 253e 127c 14be a002 e1bc
000003d0: c73e b3bd 7431 f1bd cba0 51bd 4873 1f3d
000003e0: c940 1cbd 8bbd 08bd dc47 3abe 7680 853d
000003f0: 7f87 9a3d aaa9 2f3e cecd 413e 21be 49be

mono.0.bias f4 [32]
-0.035508957 0.01861916 0.1655545 0.14601134 0.05856601 -0.08460192 -0.010651988 0.19852617
0.00646256 -0.103773564 -0.020274045 0.029752247 0.08523946 -0.07761707 0.10014756 0.19103317
0.04846525 0.1721595 -0.10314241 0.14161688 0.15922369 0.13131505 0.025799407 0.07054885
0.0041900584 0.06991596 0.1693638 0.078696474 0.20587523 0.20167461 0.024396976 0.0031764829
00000000: d771 11bd 3587 983c 1e87 293e ff83 153e
00000010: eae2 6f3d c543 adbd ad85 2ebc 724a 4b3e
00000020: e2c3 d33b 3c87 d4bd c115 a6bc fcba f33c
00000030: 0792 ae3d b3f5 9ebd 2a1a cd3d 339e 433e
00000040: 7f83 463d 944a 303e 543c d3bd 0404 113e
00000050: 890b 233e 7477 063e 4759 d33c ea7b 903d
00000060: c24c 893b 1930 8f3d b46d 2d3e 9e2b a13d
00000070: f5d0 523e ca83 4e3e 2bdc c73c 8a2c 503b

mono.1.weight f4 [32, 32]
0.085155495 -0.1404088 0.08955196 0.14817789 0.17997365 0.020606853 -0.086005755 0.20474799
-0.033605434 -0.091640174 0.07328432 -0.14771467 0.14859219 0.090290025 0.14316934 0.074730314
0.1178929 -0.14034468 -0.14060983 -0.13885778 -0.12456541 0.061534155 0.051332187 0.14653721
-0.03400859 -0.06485705 0.081816465 -0.028258245 -0.17133412 -0.09037437 0.025418064 0.054168347
0.03843968 0.20452198 -0.0024167846 -0.014939484 0.065158516 0.12155815 -0.085022636 0.16569337
-0.11653989 0.14358638 -0.060581494 0.049390655 0.15533367 -0.0012256253 -0.104919374 -0.05522552
-0.053009074 -0.011890342 -0.086273834 -0.046560697 -0.04794697 0.20204346 0.1925401 0.06326296
0.049948074 0.19596083 0.21392404 -0.076445475 0.041506607 0.15955567 -0.08127542 0.13045897
0.069076575 0.17853832 -0.022854887 -0.055436857 0.17487141 -0.09696591 0.17691569 -0.052738126
0.16106348 -0.039716646 0.20363714 0.04771729 -0.07457563 0.15200363 0.10774717 0.18085025
0.13858058 -0.016880509 0.15675679 -0.023801062 0.2141617 0.16722503 0.1570302 -0.020628106
0.018959716 0.08216523 0.10840705 -0.06703429 -0.0064784973 0.044637438 -0.03336665 0.052143097
-0.0882011 0.19903885 -0.10268609 0.06940057 -0.0066303005 -0.073764205 -0.1459277 0.17420973
-0.114990234 0.040269192 -0.034226976 0.117178105 0.04035957 0.16444822 0.07817166 -0.00095662806
-0.14107433 -0.17584458 -0.15336037 0.11463213 -0.15750009 -0.019717602 -0.12806769 -0.15040234
0.07711682 0.062749065 -0.105724186 0.18100408 -0.10329615 0.036171164 0.20361842 0.17012244
-0.0840762 -0.059232984 0.09673278 -0.12475972 0.18454759 -0.14105815 0.087428644 0.068062104
-0.010402547 0.19403493 -0.032734483 -0.14523634 -0.09066041 0.102406725 0.15714915 0.18742934
0.147949 -0.00803831 -0.016826723 -0.07215443 -0.13296014 -0.09761754 0.07456776 -0.08266437
-0.04372241 -0.015268557 -0.047322143 0.10139894 0.14874107 -0.05204931 -0.09595245 0.1054513
0.06743956 0.20116383 0.07804441 0.032627936 -0.1440366 0.036737517 -0.12827623 -0.17055741
-0.14109498 0.13036442 -0.110904865 0.120766565 0.06748604 0.11555239 0.13707335 -0.0816192
-0.025737375 -0.0033032591 -0.021978399 0.18125056 0.08059853 0.08290832 -0.06507911 0.17761016
-0.035667446 0.08751285 -0.15888849 0.20573373 0.15640596 -0.005688732 0.057777986 -0.055934064
0.043430034 0.10641295 0.11140971 0.077475205 -0.072650425 -0.09884959 -0.08940748 0.043329585
0.09988348 -0.09385969 -0.010750927 -0.06592459 0.12782066 0.16481583 0.09068754 -0.014419406
-0.06485646 0.13907458 0.17806403 -0.03994752 0.11698196 -0.15185884 -0.10324405 0.06317176
0.05710085 0.18398274 -0.030037088 0.057558518 0.086937234 -0.14881796 -0.065294005 -0.0069107153
-0.11891229 0.09339884 -0.10373709 -0.13116874 0.041547183 0.18373983 -0.08695014 -0.0353441
0.030804746 0.049512938 0.18877582 0.11394245 -0.05668038 -0.006521345 0.05888121 0.05138823
0.039521504 0.06844801 -0.14213207 -0.13449712 -0.17274697 0.16230641 -0.0559388 -0.07485225
0.16323878 -0.11078701 -0.023783255 0.20435667 -0.12653932 -0.12215297 -0.153178 0.18312193
00000000: 0166 ae3d 53c7 0fbe 0567 b73d f2bb 173e
00000010: 034b 383e b4cf a83c c923 b0bd 75a9 513e
00000020: daa5 09bd d8ad bbbd 1716 963d 8442 17be
00000030: 8d28 183e fae9 b83d fc9a 123e 350c 993d
00000040: d571 f13d 84b6 0fbe 06fc 0fbe bc30 0ebe
00000050: 261c ffbd 3d0b 7c3d b341 523d da0d 163e
00000060: 974c 0bbd c6d3 84bd 648f a73d d67d e7bc
00000070: 3672 2fbe 3316 b9bd 8b39 d03c a1df 5d3d
00000080: ed72 1d3d 366e 513e eb62 1ebb bdc4 74bc
00000090: d471 853d 7bf3 f83d 5920 aebd 86ab 293e
000000a0: 77ac eebd 4f08 133e 4d24 78bd db4d 4a3d
000000b0: ca0f 1f3e 29a5 a0ba f8df d6bd 2834 62bd
000000c0: 0b20 59bd b6cf 42bc 56b0 b0bd 6eb6 3ebd
000000d0: 0b64 44bd 7be4 4e3e 3b29 453e 0390 813d
000000e0: 5a96 4c3d f5a9 483e e70e 5b3e 728f 9cbd
000000f0: d502 2a3d 9062 233e ba73 a6bd 0997 053e
00000100: 0578 8d3d c0d2 363e 2c3a bbbc c211 63bd
00000110: 7e11 333e 1096 c6bd 6329 353e ef03 58bd
00000120: d3ed 243e ecad 22bd 4186 503e 3573 433d
00000130: 1cbb 98bd d7a6 1b3e 8caa dc3d cf30 393e
00000140: 11e8 0d3e fe48 8abc da84 203e 72fa c2bc
00000150: 344d 5b3e 0a3d 2b3e 86cc 203e 46fc a8bc
00000160: 6851 9b3c 3e46 a83d 8404 de3d 4649 89bd
00000170: 9349 d4bb bfd5 363d 78ab 08bd 0094 553d
00000180: c7a2 b4bd d7d0 4b3e 164d d2bd e321 8e3d
00000190: fe42 d9bb b011 97bd 126e 15be 0964 323e
000001a0: 0080 ebbd 4ff1 243d 9631 0cbd 13fb ef3d
000001b0: 1450 253d 1d65 283e 7718 a03d 39c6 7aba
000001c0: ca75 10be 9a10 34be 800a 1dbe 40c4 ea3d
000001d0: b447 21be cf86 a1bc 2d24 03be 1203 1abe
000001e0: 6cef 9d3d 9582 803d ec85 d8bd 2259 393e
000001f0: ef8c d3bd 3728 143d 5981 503e 9434 2e3e
00000200: 2530 acbd 499e 72bd d61b c63d 0682 ffbd
00000210: 0bfa 3c3e 8c71 10be ca0d b33d 2564 8b3d
00000220: 726f 2abc 18b1 463e 9814 06bd d6b8 14be
00000230: 2aac b9bd 9eba d13d b5eb 203e 7aed 3f3e
00000240: f17f 173e 1eb3 03bc 32d8 89bc b4c5 93bd
00000250: b426 08be b4eb c7bd fbb6 983d f04b a9bd
00000260: 4516 33bd f828 7abc ddd4 41bd 3faa cf3d
00000270: 944f 183e a831 55bd b882 c4bd daf6 d73d
00000280: c11d 8a3d e4fd 4d3e bfd5 9f3d dfa4 053d
00000290: 557e 13be 147a 163d d85a 03be 9aa6 2ebe
000002a0: 347b 10be 407e 053e 1722 e3bd 7654 f73d
000002b0: 1f36 8a3d bba6 ec3d f55c 0c3e f827 a7bd
000002c0: 30d7 d2bc 7e7b 58bb 0b0c b4bc bf99 393e
000002d0: d810 a53d d6cb a93d 3248 85bd 70df 353e
000002e0: 0718 12bd f039 b33d aab3 22be ddab 523e
000002f0: e228 203e 8b68 babb 9ca8 6c3d 1e1b 65bd
00000300: b1e3 313d 08ef d93d c62a e43d 52ab 9e3d
00000310: bfc9 94bd a771 cabd 451b b7bd 5d7a 313d
00000320: b68f cc3d 8239 c0bd a824 30bc 7903 87bd
00000330: 6be3 023e 7bc5 283e 64ba b93d 5f3f 6cbc
00000340: 77d3 84bd 9169 0e3e 6b56 363e 03a0 23bd
00000350: 3d94 ef3d e280 1bbe 9e71 d3bd 3260 813d
00000360: 95e2 693d f965 3c3e 5710 f6bc 7bc2 6b3d
00000370: 260c b23d bc63 18be ddb8 85bd 4873 e2bb
00000380: 4988 f3bd e447 bf3d 1d74 d4bd 1951 06be
00000390: 612d 2a3d 4b26 3c3e ea12 b2bd fac4 10bd
000003a0: 3c5a fc3c 14ce 4a3d 734e 413e a95a e93d
000003b0: b029 68bd 02b1 d5bb 6c2d 713d 777c 523d
000003c0: 4de1 213d 782e 8c3d 128b 11be 9db9 09be
000003d0: 95e4 30be a733 263e 1520 65bd 234c 99bd
000003e0: 1128 273e 4de4 e2bd 1ad5 c2bc e042 513e
000003f0: 8693 01be 562b fabd b2da 1cbe 5184 3b3e

mono.1.bias f4 [32]
0.014867052 0.04546324 -0.062466335 0.13713868 0.21381995 0.2065537 -0.02801528 0.046099033
0.10613005 0.18711539 -0.075860955 -0.034877583 0.079933345 0.20377941 0.11116998 -0.07737913
0.09414665 0.12357329 0.08590267 -0.09016092 0.06358039 0.17989376 -0.12707184 0.11234474
0.0061800475 -0.06748613 -0.0082004415 -0.004217174 -0.020370744 0.10364516 0.03801531 0.19234017
00000000: f094 733c aa37 3a3d b3dc 7fbd 156e 0c3e
00000010: 9ef3 5a3e d082 533e 4d80 e5bc 57d2 3c3d
00000020: b65a d93d 2d9b 3f3e fd5c 9bbd ccdb 0ebd
00000030: 18b4 a33d 8dab 503e 16ad e33d f378 9ebd
00000040: f5cf c03d fe13 fd3d bded af3d 4aa6 b8bd
00000050: 6f36 823d 1236 383e 1f1f 02be 0015 e63d
00000060: ff81 ca3b 2b36 8abd 255b 06bc 3830 8abb
00000070: 8ce0 a6bc ea43 d43d f1b5 1b3d d2f4 443e

mono.2.weight f4 [32, 32]
0.1609537 -0.13260795 0.17874342 0.10779553 0.11493783 -0.018652046 0.07520092 -0.08895207
-0.12996025 -0.008456808 0.028568791 0.18346868 0.083073385 0.07135395 0.15546234 0.068741575
0.14282192 0.043100677 -0.061501935 0.056437463 0.16281985 -0.14284755 0.10031998 -0.10123961
-0.07504195 0.20638245 -0.03933735 0.19278061 0.04394243 -0.038239777 0.11495682 0.15085366
-0.007772666 0.060588073 -0.101598926 0.16761607 0.18966185 0.0986774 0.09805068 -0.0010905877
-0.15980086 0.15760083 -0.014606063 0.1399713 0.06981976 0.18151693 -0.0582893 0.023466421
-0.13388264 -0.11343573 -0.12206506 0.19554082 0.109747246 -0.026881961 -0.051173523 0.17337525
0.051249567 -0.10969826 0.21010584 -0.10435692 -0.11937399 -0.04580396 -0.087574214 0.14927854
-0.10488375 0.107581876 0.104722515 0.04081418 0.056692533 -0.15721157 -0.062336925 0.1159401
-0.15539561 -0.15736662 0.08903542 -0.08674306 0.052803986 -0.012535526 0.2061864 0.08381803
0.17541115 0.18012705 0.13865967 0.08231055 0.21428864 -0.06270332 0.17962733 -0.048448715
-0.12788503 0.20583038 0.1670132 -0.013558903 0.015033594 -0.09515711 0.061214022 -0.056452204
0.20934232 -0.11436715 0.07089215 0.15447538 -0.11981312 -0.05044084 0.04008592 0.123616084
-0.013207085 -0.08935077 -0.13841626 0.08609894 0.17373212 0.10585444 -0.1507017 -0.13271968
-0.018849932 0.085261725 -0.11123373 -0.15635847 0.086536 0.1662003 -0.14280152 -0.039040055
0.17634031 -0.07447814 -0.16194369 0.06288136 0.058443483 -0.16063875 -0.12980443 0.20220713
-0.0099963285 0.020016775 0.15297072 0.091843866 0.0789042 -0.06674099 -0.10658997 0.10408024
-0.05143859 -0.08376692 -0.011156606 -0.11304555 -0.10563054 -0.021521613 0.04854836 0.12922387
0.08518932 -0.10601736 -0.055959474 -0.10823078 0.1204601 0.17419875 0.11550849 0.15924717
0.20816588 0.03218836 0.21119851 0.16332546 0.21340193 0.21196547 -0.12906642 -0.051924348
-0.1255683 -0.11186404 -0.05770972 -0.04657965 -0.080583006 0.16968021 -0.068671174 -0.1368803
0.09249527 0.04110944 -0.06904974 0.17609887 -0.06915513 -0.0633544 0.041126467 0.20091109
-0.03369151 0.050594542 -0.13032684 -0.045868143 -0.035904888 -0.13786894 -0.013442677 0.11600637
0.17440744 -0.1400679 0.14189681 -0.1531594 -0.018445704 0.046723478 0.20803356 -0.07305309
0.096969225 0.13893138 0.1778699 0.051649567 0.113371946 0.07782441 0.043831374 0.108025685
-0.16934264 -0.14202312 -0.12226331 0.044997275 0.1556921 -0.1554103 0.1530832 0.18353629
-0.074923955 -0.008834759 0.06600069 0.14297113 -0.111640975 0.060887493 0.1714737 0.16158307
-0.142328 0.123045065 0.08794187 0.112441905 -0.03497453 0.0355049 0.18938437 -0.104983225
-0.14132407 0.046365347 0.08662794 0.17452317 0.14988613 0.13163762 0.081435345 0.10050259
-0.059056923 0.15103166 -0.020586263 -0.1445405 0.050110705 0.20882307 0.16016956 0.07249312
0.072174385 0.21037567 0.20827298 0.11479067 0.10943233 -0.09314103 0.1275166 0.15786864
0.087075025 -0.08402172 -0.082847044 0.07215293 0.14270605 0.05755433 -0.08422461 0.10702253
00000000: 0cd1 243e 61ca 07be 8408 373e e7c3 dc3d
00000010: 8664 eb3d 2dcc 98bc f102 9a3d 812c b6bd
00000020: 4d14 05be 6c8e 0abc 1909 ea3c 37df 3b3e
00000030: 6122 aa3d 0522 923d 8531 1f3e 62c8 8c3d
00000040: e93f 123e 568a 303d 74e9 7bbd f82a 673d
00000050: 3fba 263e a146 12be 9074 cd3d b656 cfbd
00000060: 98af 99bd ec55 533e 3320 21bd 4868 453e
00000070: fafc 333d 50a1 1cbd 7b6e eb3d 6279 1a3e
00000080: d9b1 febb 332b 783d 1913 d0bd 8ca3 2b3e
00000090: b736 423e 6017 ca3d cbce c83d 0df2 8eba
000000a0: d6a2 23be 1d62 213e 454e 6fbc a354 0f3e
000000b0: aafd 8e3d 93df 393e c3c0 6ebd a73c c03c
000000c0: 8818 09be fe50 e8bd 3ffd f9bd da3b 483e
000000d0: 2ac3 e03d 8f37 dcbc 549b 51bd 4889 313e
000000e0: 11eb 513d 7ba9 e0bd fc25 573e 15b9 d5bd
000000f0: 5a7a f4bd ef9c 3bbd 1c5a b3bd 79dc 183e
00000100: 4bcd d6bd e353 dc3d c278 d63d c52c 273d
00000110: 6e36 683d 12fc 20be 0155 7fbd 0172 ed3d
00000120: 0720 1fbe b724 21be 3458 b63d 58a6 b1bd
00000130: fe48 583d cf61 4dbc 8722 533e caa8 ab3d
00000140: fb9e 333e 3a73 383e cdfc 0d3e 6f92 a83d
00000150: 7b6e 5b3e 996a 80bd 3af0 373e 2972 46bd
00000160: 4bf4 02be 33c5 523e 8205 2b3e 2926 5ebc
00000170: 774f 763c bbe1 c2bd 8ebb 7a3d 6d3a 67bd
00000180: d55d 563e 5339 eabd e72f 913d cb2e 1e3e
00000190: 9560 f5bd 0e9b 4ebd 2231 243d 6e2a fd3d
000001a0: 8862 58bc 89fd b6bd febc 0dbe a454 b03d
000001b0: d5e6 313e 36ca d83d 8c51 1abe abe7 07be
000001c0: 2c6b 9abc b39d ae3d 83ce e3bd 6f1c 20be
000001d0: c939 b13d 6930 2a3e 903a 12be 77e8 1fbd
000001e0: 8e92 343e ff87 98bd 91d4 25be f1c7 803d
000001f0: 6f62 6f3d 7c7e 24be 74eb 04be 630f 4f3e
00000200: a4c7 23bc 38fa a33c 5ba4 1c3e a318 bc3d
00000210: 8698 a13d 80af 88bd d84b dabd 0528 d53d
00000220: 45b1 52bd fe8d abbd 32ca 36bc 6d84 e7bd
00000230: d354 d8bd 184e b0bc a5da 463d 4353 043e
00000240: bd77 ae3d a11f d9bd c335 65bd 19a8 ddbd
00000250: c9b3 f63d 2861 323e b78f ec3d b111 233e
00000260: 7029 553e f1d7 033d 6c44 583e ca3e 273e
00000270: 0986 5a3e 7a0d 593e fd29 04be a0ae 54bd
00000280: fa94 00be f918 e5bd 0761 6cbd 4eca 3ebd
00000290: b408 a5bd a6c0 2d3e 79a3 8cbd 592a 0cbe
000002a0: 296e bd3d 5f62 283d f369 8dbd 4353 343e
000002b0: 34a1 8dbd f4bf 81bd 3a74 283d a3bb 4d3e
000002c0: 1c00 0abd 393c 4f3d 6674 05be 3ce0 3bbd
000002d0: 0111 13bd 842d 0dbe ad3e 5cbc bf94 ed3d
000002e0: dd97 323e f66d 0fbe 664d 113e d1d5 1cbe
000002f0: 721b 97bc 1e61 3f3d c006 553e dc9c 95bd
00000300: cd97 c63d 0744 0e3e 8723 363e 7f8e 533d
00000310: 8d2f e83d 6762 9f3d 8788 333d 923c dd3d
00000320: 2868 2dbe 826e 11be 3065 fabd 104f 383d
00000330: c06d 1f3e e123 1fbe d8c1 1c3e f0f0 3b3e
00000340: bb71 99bd aabf 10bc 5f2b 873d 0667 123e
00000350: 06a4 e4bd 2a65 793d cd96 2f3e 0876 253e
00000360: 6ebe 11be 0dff fb3d de1a b43d f147 e63d
00000370: 7441 0fbd 966d 113d faed 413e 7201 d7bd
00000380: 42b7 10be 97e9 3d3d fd69 b13d 34b6 323e
00000390: c07b 193e 03cc 063e 93c7 a63d 4dd4 cd3d
000003a0: ace5 71bd 0ba8 1a3e 86a4 a8bc 6d02 14be
000003b0: e240 4d3d b7d5 553e 7d03 243e 4677 943d
000003c0: 2ad0 933d b86c 573e 8345 553e 5f17 eb3d
000003d0: 0f1e e03d b9c0 bebd b693 023e 51a8 213e
000003e0: 6454 b23d 9413 acbd b6ab a9bd eac4 933d
000003f0: 8921 123e 17be 6b3d f47d acbd a12e db3d

mono.2.bias f4 [32]
0.17283596 0.17892967 0.060112096 -0.04576821 -0.008371508 0.15565556 0.07675553 0.10887886
-0.050632685 0.12020522 0.09407836 -0.038697995 0.031922117 0.020882491 -0.08652116 -0.12994899
0.032658428 0.18708272 0.13254385 -0.0124917505 -0.084822655 -0.07171977 0.14150876 0.1330558
0.06925317 0.046987444 0.10903554 -0.06554524 0.16948037 -0.09173223 0.08790453 0.15035114
00000000: e9fb 303e 5739 373e 1a38 763d 7277 3bbd
00000010: a628 09bc 2c64 1f3e 0132 9d3d e1fb de3d
00000020: 3864 4fbd 282e f63d 28ac c03d ca81 1ebd
00000030: c4c0 023d c211 ab3c 0232 b1bd 5911 05be
00000040: d8c4 053d 9d92 3f3e 93b9 073e 33aa 4cbc
00000050: 80b7 adbd d1e1 92bd ace7 103e c83f 083e
00000060: 9bd4 8d3d e875 403d 064e df3d 953c 86bd
00000070: 438c 2d3e 1bde bbbd 4a07 b43d a6f5 193e

mono.3.weight f4 [32, 32]
0.062263556 0.11714972 -0.12708613 -0.103788316 -0.14934504 -0.16482939 -0.09268912 -0.034878097
0.04289024 0.15033174 -0.10844816 0.1171366 -0.03248144 -0.049541533 -0.14746073 -0.11818906
0.113878 0.16984381 -0.045712303 -0.09279699 -0.07782696 -0.14795417 -0.076734975 0.19342433
-0.13854454 0.10397323 0.10658167 -0.043950565 0.13190356 -0.15008427 -0.15126656 -0.1600373
0.1657574 -0.117229685 0.15252201 -0.067332156 0.04909643 0.05482071 -0.14932306 -0.038879476
0.07475697 -0.021158269 0.051028024 -0.1033237 0.12748244 -0.12867422 -0.0149762165 0.17379475
0.12411888 0.1872779 0.20421252 0.11114259 -0.05053626 -0.10405893 0.05599162 -0.0708764
0.17487668 -0.01663226 -0.015791032 0.14747475 0.022033457 -0.13520569 0.15391545 0.19496489
-0.101082474 -0.1371334 -0.09589002 -0.04683031 -0.0038758416 0.12969418 -0.0052217413 0.08207382
-0.11048361 0.16569327 0.054032397 0.104407586 -0.057626456 -0.020734597 0.07373372 0.079110816
0.10748724 0.11675492 0.15625158 0.0035815677 0.07397196 0.07799942 0.12223119 0.11990221
0.090403914 0.17375803 0.12783976 0.03592515 0.13106045 -0.13427907 -0.157887 0.01583177
-0.0045317765 0.054430578 -0.13708022 -0.11789654 -0.11283684 -0.15693651 -0.11361897 0.05058534
-0.009731987 0.056600094 -0.12069909 0.08812547 0.048103806 0.12715179 0.18425336 -0.14094973
-0.08459751 -0.07614266 0.087604366 0.10154731 0.06548655 -0.08230096 0.14519705 0.0963379
0.09147358 -0.01843782 -0.12119221 -0.020079283 -0.08869012 0.16377832 -0.114613 -0.07044165
-0.09905361 0.20202738 0.103043 0.11386664 0.08556257 0.19250195 -0.05902747 0.20415206
-0.069164045 -0.10185806 -0.11283389 -0.13746122 -0.041541748 -0.1544644 0.1821839 -0.06577845
-0.10695625 -0.17097044 0.14359997 -0.13503124 -0.024278602 -0.109741025 0.10858733 -0.07818755
0.14743795 -0.03553138 0.15858512 -0.017184407 0.14964907 0.14120178 0.124663524 0.17224951
0.1493598 0.18107417 -0.016897487 0.0044125565 -0.052472685 0.017241156 -0.02914 0.08005979
-0.1634032 -0.16819237 0.07098498 0.0926174 0.009425047 -0.1640579 -0.13045906 -0.0035966071
-0.16100389 0.08139332 -0.110716335 0.06581485 -0.11921702 -0.074133016 0.1612658 -0.10333259
-0.07938316 0.017399231 0.09065457 -0.080904245 0.13716649 0.12697086 0.011102872 0.18515645
0.12789242 0.0417185 0.024839412 0.010413853 -0.1373945 -0.09334123 0.12656274 0.059756868
-0.059346844 0.12406875 -0.114946425 -0.008707167 -0.16637766 0.043141283 -0.1621179 -0.04886384
-0.027320355 0.026076505 0.042197004 0.038091984 -0.1454053 -0.03608542 0.0074985353 0.15354204
0.09913895 0.03517814 -0.015535207 -0.14668413 -0.05376944 0.012293877 0.16045256 0.15504907
-0.1328429 0.18033424 -0.028068863 -0.055659518 -0.019069726 -0.16889709 -0.10935887 0.069977164
-0.1374469 -0.13991578 -0.06838272 0.0067582536 -0.109179884 0.09568667 0.101694025 0.03506186
0.14561574 -0.16708131 -0.013236313 -0.0026786828 -0.0025649583 -0.121210374 0.13464284 0.18742527
-0.06663095 -0.018507252 -0.064726815 0.09247448 -0.02922618 -0.027063387 -0.12474476 -0.16286837
00000000: 1208 7f3d 31ec ef3d de22 02be f88e d4bd
00000010: e8ed 18be 09c9 28be cbd3 bdbd 56dc 0ebd
00000020: adad 2f3d 90f0 193e 121a debd 50e5 ef3d
00000030: 420b 05bd 10ec 4abd f2ff 16be 1b0d f2bd
00000040: de38 e93d 89eb 2d3e d33c 3bbd 590c bebd
00000050: be63 9fbd 4c81 17be 3a27 9dbd 0711 463e
00000060: 9fde 0dbe ebef d43d 7e47 da3d 8205 34bd
00000070: ba11 073e b1af 19be 9fe5 1abe d1e0 23be
00000080: 4fbc 293e 1e16 f0bd bb2e 1c3e 71e5 89bd
00000090: 5719 493d ae8b 603d 25e8 18be 1640 1fbd
000000a0: 2f1a 993d 1b54 adbc c302 513d 609b d3bd
000000b0: c28a 023e 2dc3 03be ce5e 75bc 40f7 313e
000000c0: 0a32 fe3d c7c5 3f3e 161d 513e ba9e e33d
000000d0: 1cff 4ebd d91c d5bd 7857 653d a527 91bd
000000e0: df12 333e 6140 88bc 325c 81bc 9f03 173e
000000f0: 827f b43c 5c73 0abe 039c 1d3e e0a4 473e
00000100: 5404 cfbd b36c 0cbe fd61 c4bd 24d1 3fbd
00000110: d501 7ebb 8dce 043e 241b abbb 5216 a83d
00000120: 3b45 e2bd 7fab 293e 1351 5d3d a5d3 d53d
00000130: b809 6cbd 9adb a9bc b401 973d da04 a23d
00000140: 4522 dc3d 341d ef3d 6a00 203e bcb8 6a3b
00000150: 9c7e 973d 29be 9f3d 5954 fa3d 4a8f f53d
00000160: b025 b93d a0ed 313e 6de8 023e 4026 133d
00000170: b634 063e 7480 09be 21ad 21be a1b1 813c
00000180: 4c7f 94bb 99f2 5e3d c25e 0cbe be73 f1bd
00000190: 0017 e7bd f7b3 20be 10b1 e8bd 9332 4f3d
000001a0: e972 1fbc 80d5 673d 1631 f7bd 207b b43d
000001b0: 7f08 453d 1434 023e eaac 3c3e 2055 10be
000001c0: 7641 adbd aff0 9bbd eb69 b33d 09f8 cf3d
000001d0: d01d 863d 688d a8bd 89ae 143e ce4c c53d
000001e0: 8056 bb3d e90a 97bc 9f33 f8bd 4f7d a4bc
000001f0: 2aa3 b5bd 81b5 273e 38ba eabd b643 90bd
00000200: 9edc cabd 44e0 4e3e 3508 d33d ea32 e93d
00000210: 6e3b af3d 3b1f 453e cac6 71bd 3d0d 513e
00000220: e1a5 8dbd f59a d0bd 7415 e7bd a2c2 0cbe
00000230: ae27 2abd ea2b 1ebe 6b8e 3a3e dab6 86bd
00000240: e10b dbbd e012 2fbe df0b 133e a145 0abe
00000250: ebe3 c6bc e7bf e0bd 0963 de3d cb20 a0bd
00000260: f9f9 163e 5a89 11bd 2364 223e 50c6 8cbc
00000270: 9b3d 193e 3397 103e 974f ff3d 2d62 303e
00000280: c7f1 183e 826b 393e 996c 8abc 3597 903b
00000290: 99ed 56bd 533d 8d3c 02b7 eebc 63f6 a33d
000002a0: 2b53 27be 9f3a 2cbe 9360 913d 31ae bd3d
000002b0: 836b 1a3c cbfe 27be 0f97 05be 0eb5 6bbb
000002c0: 34de 24be 8ab1 a63d 3fbf e2bd f0c9 863d
000002d0: 0e28 f4bd 0dd3 97bd dd22 253e 09a0 d3bd
000002e0: a393 a2bd d588 8e3c 1aa9 b93d 20b1 a5bd
000002f0: 5f75 0c3e a604 023e d2e8 353c a799 3d3e
00000300: 3bf6 023e 05e1 2a3d 067c cb3c de9e 2a3c
00000310: 25b1 0cbe b029 bfbd aa99 013e 9ec3 743d
00000320: ad15 73bd c217 fe3d 0869 ebbd 81a8 0ebc
00000330: e85e 2abe eab4 303d 3c02 26be 7325 48bd
00000340: f0ce dfbc 659e d53c c4d6 2c3d 5706 1c3d
00000350: 21e5 14be 4ece 13bd 46b6 f53b 203a 1d3e
00000360: 5d09 cb3d f416 103d 6287 7ebc 5d34 16be
00000370: 583d 5cbd 426c 493c ad4d 243e 2fc5 1e3e
00000380: f807 08be 8aa9 383e acf0 e5bc 3cfb 63bd
00000390: 1d38 9cbc 5cf3 2cbe 8bf7 dfbd 3050 8f3d
000003a0: e1be 0cbe 1546 0fbe 3d0c 8cbd 5774 dd3b
000003b0: b499 dfbd 5ff7 c33d f544 d03d 069d 0f3d
000003c0: 4b1c 153e 5d17 2bbe 1fdd 58bc d78c 2fbb
000003d0: dc18 28bb 253d f8bd d0df 093e 69ec 3f3e
000003e0: cf75 88bd 859c 97bc 7e8f 84bd 4363 bd3d
000003f0: be6b efbc 09b4 ddbc 2e7a ffbd f7c6 26be

mono.3.bias f4 [32]
-0.09472576 0.20796864 0.020461066 0.12592363 0.108562514 -0.038969435 0.10967986 -0.052994218
-0.12048341 0.06270003 0.16710809 -0.0915258 -0.104594 0.1141261 -0.14780743 0.039854445
0.030884419 0.15986641 0.16184983 -0.14169511 -0.13749689 -0.1458662 -0.044190235 -0.089063436
0.09104826 -0.018211482 0.21389133 -0.13243024 0.17956775 -0.11812313 -0.062708326 -0.04805114
00000000: 94ff c1bd bbf5 543e f79d a73c 20f2 003e
00000010: 0656 de3d 6a9e 1fbd d69f e03d 7710 59bd
00000020: 02c0 f6bd e068 803d 621e 2b3e e171 bbbd
00000030: 6135 d6bd f2ba e93d d55a 17be 6a3e 233d
00000040: 5201 fd3c 05b4 233e f6bb 253e 8618 11be
00000050: fccb 0cbe f35d 15be d200 35bd e466 b6bd
00000060: 8377 ba3d 3f30 95bc 5406 5b3e cb9b 07be
00000070: 9ce0 373e 8aea f1bd 396d 80bd 46d1 44bd

mono.4.weight f4 [1, 32]
0.10395586 0.1715564 -0.06430719 0.21041892 0.036002662 -0.0072188512 -0.08299776 -0.11085995
-0.093556866 0.148383 -0.10838252 -0.053766355 -0.007751651 -0.06307036 -0.13483198 -0.020663636
-0.113582276 0.15417589 -0.053811457 -0.1523096 0.15144628 -0.045954164 0.03273543 0.093755424
0.11058441 -0.079597734 0.20666757 -0.060616214 0.17355384 -0.051327545 0.04900393 0.18276428
00000000: cfe6 d43d 7bac 2f3e 7db3 83bd 0f78 573e
00000010: 8777 133d 1d8c ecbb bbfa a9bd 8b0a e3bd
00000020: be9a bfbd b7f1 173e a8f7 ddbd 1c3a 5cbd
00000030: 9001 febb 082b 81bd 6511 0abe c946 a9bc
00000040: d39d e8bd 49e0 1d3e 6769 5cbd 0cf7 1bbe
00000050: bc14 1b3e 6f3a 3cbd 9615 063d d802 c03d
00000060: 147a e23d 2304 a3bd aaa0 533e b548 78bd
00000070: 19b8 313e d53c 52bd 58b8 483d 8f26 3b3e
