models/auto-7.pth (torch, 31570 bytes, 15 tensors)

pre_mono.0.weight f4 [32, 7]
00000000: 2e7f 9a3e 217d 15bd 9610 a23e 2f0d 1c3d
00000010: ee28 1b3e 1e8e 93be de8b 3e3e 963f 56bb
00000020: 2b37 cc3d bdd8 213d 8426 a03e 43c4 243e
00000030: 9158 8c3e e11c 9fbd 94e8 16bc c8b5 8b3d
00000040: 65f7 843e 3efe 21be 8e1b 89be b225 083d
00000050: 9288 2fbe b423 9a3e f189 d63d 039c 85be
00000060: 32c8 75be fa61 98be 4a46 84be ba45 bf3e
00000070: 5e92 763d a7e3 c8bc 2f8b fe3c 04c5 153e
00000080: 432e e33d ec00 033e 2b08 17be 4b31 b03d
00000090: 690e 45be db04 9a3e 5c7e 16be 885d 453e
000000a0: 84b0 153e d7a0 bbbe 4f60 90be 085a 9bbe
000000b0: d231 91be 017f 86bd 1208 ad3d cc53 23be
000000c0: 1d53 2dbe 3265 ce3e c293 063e 338b b8be
000000d0: 54f5 1a3e a719 0a3e c4bd 9ebe d20f 323e
000000e0: 3731 f0bd cd5f 063e 8d84 bbbe e1f0 a03e
000000f0: a2fe fbbd a0c0 493d c635 1b3e 900e b03e
00000100: 81bd c1be 24e2 f2bd 4453 b9be 2f57 c93d
00000110: c2e6 0a3d bf47 2bbe 81c4 43be d0e4 61be
00000120: 2bc8 cbbd c345 6cbe 2efe 9f3e c189 80be
00000130: c482 32bd 0367 b1be 57a3 e5bc 888a 763e
00000140: 0970 90be 142a 96be 03bb 643e 3385 9a3e
00000150: e00c fd3d 81a8 b63e 0af7 a0be caba 953e
00000160: 0534 a8be dad0 663d 549f aabe c313 debd
00000170: 5cc8 68be ecfc aabe 74ac 6c3e 615c 44bd
00000180: 3234 fbbd 0b77 b6be 6ddb b53e 4253 b63d
00000190: bc6a ca3e 400d ad3c 0d33 953e 6dd9 9abe
000001a0: a332 3b3e f820 573d 3961 00be b951 cabe
000001b0: 6d66 d0be f92c ca3e 0f3e 97be 8614 8f3e
000001c0: e44b 343e 2e52 f1bd a820 75be b0a6 9abd
000001d0: e705 5f3c 2f7d 10bd e711 b23e 96aa 76be
000001e0: c86d ba3e 402b 0a3e 951b 153e ecae dbbd
000001f0: e273 a1be 549c a43e 0d49 6cbe a5fd c8be
00000200: 1df5 85bc a84c c1be ddc2 08bd b2b0 9fbe
00000210: 3879 063e 0c13 943e 1a0e 963e 72a4 533e
00000220: b37c 67be c984 bdbe 84b3 023e 01b5 89be
00000230: fd65 c2be bd1e b1be 1964 353d 2780 c4bd
00000240: f8bc 95be 47d4 aa3e 338d a6be 486a 14be
00000250: fe28 83be ee5b 87be 95fa 893e a914 303e
00000260: cb05 c03e 119b 94be 01aa b0be d399 953c
00000270: 9e13 a03e 9fb5 70be 3e0d a33e f7b3 643e
00000280: 08e2 6dbe 6e10 873e a0da 2ebe 3b8f 9dbd
00000290: 8ce3 babe 426c 123e 492b 7c3e a7ee f7bd
000002a0: 7209 b7be 3ac2 9a3e 284b 8dbe 2e79 23be
000002b0: fce0 4a3e 9401 96be e834 bd3d 797d 86bd
000002c0: 8e09 bf3e 1027 bfbd b517 4a3e e036 b2be
000002d0: b2c0 f93d 52be 993e 2da9 df3d 77ab 913e
000002e0: 1b8c 3e3e de2b 3dbe b688 9d3e 4c02 9b3e
000002f0: 47b8 373e 7965 2cbc a695 57bd a0ad 86be
00000300: 8b63 193d 347d c8bc ef2e 2abe 87fe a93e
00000310: a384 653e 8014 d3bd d7d3 c5bd a003 4d3e
00000320: 3a18 3e3d 5242 3bbe bd8c 23bd cbd1 b7be
00000330: ae86 12be 10f4 503d 6ffc a83d f9f6 debd
00000340: 6168 de3e a074 9f3e bcea ba3e ae25 b23d
00000350: 3220 643e b49b 85bb 9751 323e 7d07 debd
00000360: 6e86 f83d ee0e f23d c495 d0bd 0215 a6be
00000370: b692 0f3e 5572 103e 2009 95be d4fa 31be
0.30175155 -0.036496285 0.3165328 0.03809851 0.15152332 -0.28819364 0.18608043 -0.0032691709
0.0997146 0.03951334 0.31279385 0.16090493 0.2741132 -0.0776918 -0.009210724 0.068217814
0.25969997 -0.15819642 -0.26778835 0.033239074 -0.17141941 0.30105364 0.10475529 -0.2609559
-0.2400215 -0.2976225 -0.25834876 0.37357885 0.06019818 -0.024522616 0.031072227 0.14625937
0.11092808 0.1279332 -0.1474921 0.08603152 -0.19243778 0.3008183 -0.1469664 0.1927396
0.14618117 -0.3664615 -0.28198478 -0.30342126 -0.28358322 -0.06567193 0.08448805 -0.15949935
-0.16926236 0.4031158 0.13142303 -0.360437 0.15132648 0.13486348 -0.31004155 0.17388847
-0.11728137 0.13122483 -0.36624566 0.31433776 -0.12304427 0.049255967 0.15157232 0.3438611
-0.37839893 -0.11859539 -0.3619634 0.09831082 0.033911474 -0.16726588 -0.19117929 -0.22059941
-0.099502884 -0.23073487 0.3124861 -0.25105098 -0.04358174 -0.34648904 -0.028031988 0.24076283
-0.28210476 -0.29328978 0.22336964 0.30179748 0.12355971 0.35675433 -0.31438476 0.2924407
-0.32852188 0.05635152 -0.33324683 -0.10843613 -0.22732681 -0.3339609 0.2311266 -0.047939662
-0.12265815 -0.35637698 0.3551897 0.08902599 0.39534557 0.021124482 0.2914051 -0.30244008
0.18281035 0.052521676 -0.12537088 -0.39515474 -0.40703145 0.39487436 -0.29539534 0.27945346
0.17607075 -0.11783253 -0.23938239 -0.07551324 0.013612247 -0.035275634 0.34779283 -0.24088511
0.3641188 0.13493061 0.14561303 -0.10726723 -0.31533724 0.3215052 -0.23074742 -0.39256015
-0.01635223 -0.37753797 -0.03338896 -0.31189495 0.13132179 0.28920782 0.29307634 0.206682
-0.22606163 -0.3701537 0.12763792 -0.26895908 -0.37968436 -0.34593764 0.044284914 -0.095947556
-0.29245734 0.3336508 -0.325296 -0.14493668 -0.25617212 -0.26437324 0.2694899 0.17195381
0.3750442 -0.29024556 -0.34504703 0.018261826 0.31264967 -0.23506783 0.3184604 0.22334276
-0.23230755 0.26379722 -0.17075586 -0.07693335 -0.3650173 0.1429911 0.24625887 -0.12106066
-0.35749394 0.30226308 -0.27596402 -0.15964195 0.19812387 -0.2929808 0.09238607 -0.06566901
0.37311977 -0.093336225 0.19735606 -0.3480749 0.12194957 0.30028015 0.109209396 0.2845113
0.18608133 -0.18473765 0.30768365 0.3027519 0.1794139 -0.01052224 -0.05263295 -0.2630434
0.037448447 -0.024473764 -0.16619466 0.33202 0.22413878 -0.103066444 -0.09659546 0.20020914
0.046409823 -0.18287018 -0.03992914 -0.35902247 -0.14309189 0.051014006 0.08251273 -0.1088695
0.4343901 0.31143665 0.36507213 0.08698593 0.22277907 -0.004077399 0.17413937 -0.10841272
0.121350154 0.11819254 -0.101848155 -0.32437903 0.1402081 0.14106114 -0.29108524 -0.1738084

pre_mono.0.bias f4 [32]
00000000: fe92 ecbd 7f71 ab3e ff57 c13e 7911 823d
00000010: 0ca4 2dbe 6866 1e3d 8d2a 54be 60f5 703e
00000020: 5065 c83e 4c9f 6e3e a057 763e 4a47 d83e
00000030: 9d46 203e 812a 1a3e b512 413e 393e 323e
00000040: 9b89 c6bd ee5c b03e 309f ac3e 2337 94be
00000050: 2546 a4be f5b4 94be aaa4 d33e 1430 7b3e
00000060: efcc 283e cbc2 a5be 794d 1c3d 064c 8c3e
00000070: e983 8ebd eabd 2fbe bf8f 1d3e a47a 9dbd
-0.11551474 0.33485028 0.37762448 0.06350989 -0.1695711 0.03867188 -0.20719357 0.23531103
0.39139795 0.23302954 0.24056864 0.4224189 0.15651937 0.15055276 0.18854792 0.17406549
-0.09694215 0.344459 0.337152 -0.28948316 -0.32084766 -0.2904431 0.41336566 0.24530059
0.16484426 -0.32375178 0.03815982 0.2740175 -0.069587536 -0.1716229 0.15386866 -0.076894075

pre_mono.1.weight f4 [32, 32]
00000000: aa80 4abe 686e 3dbd 3823 5e3d e9fb 7bbd
00000010: 77be cabd a7d2 0d3e bd8d 12be dc3b af3d
00000020: 27bd e23d 5762 063e 505d a1bd 2a5e 463e
00000030: 338a 52bd 91a3 343e 966e e13b 87e8 bfbd
00000040: ed71 133d c751 0d3e c043 d9bd 69fa 883c
00000050: 1d72 0d3d 7cd6 50bc 4491 2c3c 905e 333e
00000060: 484d 043d 2bf2 08be 1a52 443e 6781 41bd
00000070: b397 713d 1943 ad3d 4673 353d a69d 483d
00000080: 0f20 23bd fc2c 97bd c014 e63d f243 febd
00000090: 5d4b 32ba a202 893c 309e 413c 53ba 033e
000000a0: 38db 9a3d bb72 b7bd 0123 a5bd 8d39 7e3d
000000b0: d809 f9bc f9ba d63d 3be6 343d 9386 4c3d
000000c0: 12c6 113e e8c1 07be c5f7 fbbd 626b bbbd
000000d0: cc65 6dbe 7c00 1a3d dcb3 a53a ebc6 d23d
000000e0: 0605 06be d920 8e3d 1c81 1a3e c07f 4d3e
000000f0: 0dcf e9bd 9826 f93d 0545 d53c 51b0 0a3e
00000100: cf4d 6b3c fe17 03be d970 123d 337b 5bbd
00000110: 1112 403d 47f8 c7bd c9c4 0ebd 79d8 70bd
00000120: eda5 40be 8a07 153e 45b6 0c3e 770d 143e
00000130: fb69 0abb 48ac 38be bf3b 4bbd 083f a6bd
00000140: 6087 5cbd e5bc 1dbe 4daa 58bd a6e9 1abe
00000150: 10f4 6e3d c0da 0d3e 5248 3abe 3d80 b13d
00000160: de62 48bc b197 23be 2f30 0a3e 0bc8 593d
00000170: bece 2b3e 7b23 29be 9250 eaba c2d9 1d3e
00000180: 5e66 c5bd dd13 663e 17ce f9bd 39a2 08be
00000190: 0924 4d3e e9d3 0a3e 9a51 313e aef9 01bd
000001a0: 3baf d7bd cb60 853d 4e5e 0abe 786d 9f3d
000001b0: 62ab 14bb d047 823d 6c0c e73d ad03 b2bd
000001c0: 217e 603c 383b a63d e5a8 583d cb3b 103e
000001d0: f9e4 6bbc 480a 573e 6380 2c3d 31f1 f2bd
000001e0: 34dc 43bd 4beb c53a 79ec 0d3e 2d6e 3abd
000001f0: 622c 2a3e e2ba f83d db8b 9c3d a428 1a3e
00000200: 3784 063e 8acf f4bd 046a f4bd e30b 383e
00000210: 9d4f 06be 667a f6bd 58d2 213d 565e 17bc
00000220: 1773 5a3c f5b7 ffbd 4c99 a839 9c7c c03d
00000230: da18 073e d7d0 413e be21 8abd 3122 873d
00000240: 0e05 febd 0aa4 2b3e 6e6a 2b3e b645 24bd
00000250: 1959 70bd a671 353e 9e47 8cbc 8c8e d83d
00000260: 10ad 0a3d 35ed 94ba 862d e93d ad7a c4bd
00000270: c94b 2d3c cf80 e3bd 356a 1abe c69a 8fbd
00000280: 44ff 413d d9f8 38bc 767b 2c3e 7de6 88bc
00000290: 6998 fd3a ceff 1bbd ba88 333e cb2f 183a
000002a0: fa77 2b3e 355f b03d 2d27 6f3d 5abb d73d
000002b0: 0538 3b3e cdc0 973c e608 1c3e 6154 90bd
000002c0: 9953 3a3e 50fa 1abe 92dc d63d 4155 16bc
000002d0: 3476 cc3d 1ad5 103e cbc2 1b3e 915f cfbc
000002e0: 022e 03be e93f d0bd e61a b63d 051d 253e
000002f0: 8bd2 1f3d 2a2c 8a3d cb48 c1bd a120 473d
00000300: 29cf aebd ec68 b3bd d8d5 803d 9021 27be
00000310: 4f04 1bbe 7630 323e e236 03bd 8a31 203d
00000320: ef28 3a3e fa0c a53d a168 003e 5b15 bbbc
00000330: 09b0 183e ed7b 07be 9948 803d 9e9b 2f3e
00000340: 72ac b43c bda3 f5bc f589 2f3e e2df 26be
00000350: ab29 3e3e 6702 323e 7e92 ea3d f166 003d
00000360: a850 a1bc 7dfc 313d cafb 2a3d a238 c5bc
00000370: e7b8 4f3b bc6d c6bd b2dd fabd 74d4 1f3e
00000380: 7850 033e d09b 9c3d a6c2 a23d d6ee a13d
00000390: 7f27 fd3d aa8f 22be bcba 39be fe4e 653d
000003a0: e874 f4bd 37bc 2f3d a3a1 42be 6eea 04bd
000003b0: 2963 d23d 0829 003e 97f6 1abe 4922 efbd
000003c0: cafa 143d 63f1 133c e897 27bd ae56 113e
000003d0: 0076 dcbc 924c edbc 5948 cebd e2d5 99bd
000003e0: 3642 c23d 68a3 c33c 8fc5 a6bd aa52 7fbd
000003f0: b053 f23d 76bf dd3d 8fb4 39be 3691 d3bd
-0.19775644 -0.04624787 0.054232806 -0.061519537 -0.098996095 0.13849889 -0.14311881 0.08556339
0.11071234 0.13123451 -0.07879126 0.19371858 -0.05140133 0.1764052 0.006879638 -0.09370523
0.03599732 0.13800727 -0.106086254 0.016720967 0.034532655 -0.01274645 0.010532681 0.17516541
0.032300264 -0.1337363 0.19171944 -0.04724255 0.058982562 0.084600635 0.044299386 0.04897847
-0.039825495 -0.07381627 0.112344265 -0.12415303 -0.0006801391 0.016724888 0.0118175 0.12864046
0.07561344 -0.0895743 -0.08063317 0.062066603 -0.030400202 0.10484881 0.044164877 0.049933027
0.14235714 -0.13257563 -0.12303118 -0.09151341 -0.23183364 0.03759812 0.0012642103 0.10291847
-0.13087854 0.06939859 0.15088314 0.20068264 -0.11416445 0.12165564 0.026033888 0.13543822
0.014361813 -0.12802121 0.03575215 -0.05358429 0.04689223 -0.09764152 -0.034855638 -0.058800194
-0.18813296 0.14553657 0.13741405 0.14458261 -0.0021120298 -0.1803447 -0.049617525 -0.08117491
-0.05384004 -0.15404089 -0.052896786 -0.15128192 0.058338225 0.13852978 -0.1819165 0.08667038
-0.012230603 -0.15975834 0.13494943 0.05316929 0.16778085 -0.16517441 -0.0017876795 0.154151
-0.096386656 0.22468515 -0.12197512 -0.13343133 0.20033278 0.135574 0.17316285 -0.031732254
-0.105314694 0.065126024 -0.13512537 0.077845514 -0.002268516 0.063613534 0.11281666 -0.08692107
0.0137019465 0.08116764 0.052895445 0.14085309 -0.014397853 0.21000016 0.042114627 -0.1186241
-0.047817424 0.001510003 0.13859738 -0.045515228 0.16618493 0.1214502 0.07643863 0.15054566
0.13136373 -0.119536474 -0.119342834 0.17973284 -0.13116308 -0.120350644 0.03950724 -0.0092388
0.013333104 -0.12486259 0.00032157672 0.09398767 0.13193074 0.18927322 -0.06744717 0.06598318
-0.12403308 0.16761795 0.16739818 -0.040105544 -0.05867872 0.17719135 -0.017123993 0.10574064
0.03385645 -0.0011362197 0.11385636 -0.09593711 0.010577151 -0.11108553 -0.15079577 -0.070119426
0.04736258 -0.011289799 0.16843972 -0.016711468 0.001934779 -0.03808575 0.17532626 0.00058054616
0.16744986 0.08611909 0.05838697 0.10533781 0.18283089 0.018524552 0.1523777 -0.07047344
0.18195952 -0.15134549 0.10491289 -0.0091756 0.09983483 0.14143792 0.15211026 -0.025314124
-0.1281052 -0.1016844 0.08891849 0.16124351 0.03901915 0.06746705 -0.09437712 0.0486151
-0.085356064 -0.08760247 0.062907875 -0.16321397 -0.15138362 0.17401299 -0.032034762 0.039109744
0.18179677 0.08059116 0.12539913 -0.022837332 0.14910902 -0.13230868 0.06263847 0.17149207
0.022054885 -0.029985303 0.1714247 -0.16296342 0.18570583 0.17383729 0.114537224 0.031348173
-0.01969178 0.043453682 0.04174403 -0.024074856 0.0031695904 -0.09688899 -0.12249316 0.15608388
0.12823665 0.076469064 0.079472825 0.079068825 0.12361049 -0.15875116 -0.1813764 0.055983536
-0.119363606 0.042904105 -0.19006972 -0.032450132 0.102728195 0.12515652 -0.15133129 -0.11676461
0.036371984 0.009029719 -0.040916353 0.14193222 -0.026911736 -0.028967176 -0.10072393 -0.07511498
0.09485285 0.02388163 -0.0814315 -0.062334694 0.118323684 0.10827534 -0.18135284 -0.10330431

pre_mono.1.bias f4 [32]
00000000: 04a6 9fbb 986d 1ebd a655 d8bd 6a2e f63b
00000010: 4a7d a3bd 2e29 983c 6502 6bbc 4338 46bd
00000020: 4392 263c 7c75 09be c67e 203e a09e b6bd
00000030: 2f61 1c3e a361 313c 06d0 15be e700 003e
00000040: 13e5 cebd 4a20 943d 1e01 813d 6a96 f83d
00000050: 2079 b6bd 6f4e 21be 8db9 ffbd fcfd 593e
00000060: ddca 34be f67c 8bbd 0c51 b93c 1a7b 2d3e
00000070: 9250 77bd 5453 663c bbda d33d dc58 21bd
-0.0048720855 -0.038678735 -0.10563211 0.007512857 -0.07982881 0.018574324 -0.014343833 -0.0483935
0.010166707 -0.13423723 0.1567336 -0.08916974 0.15271448 0.010826501 -0.14630136 0.12500344
-0.10102286 0.07232721 0.06299041 0.12138064 -0.089098215 -0.15752576 -0.12486563 0.21288294
-0.17655511 -0.06810944 0.022621654 0.16941491 -0.060379572 0.014057953 0.10344454 -0.039391384

pre_mono.2.weight f4 [32, 32]
00000000: a11b 98bd 017d 01be 9ec9 493d 4479 143d
00000010: 019f 49bd e571 38bd 3f3d c73c 8737 5dbd
00000020: e011 25be 1b05 e93d b595 313d 5112 b4bd
00000030: 6974 0cbe 6fe2 8dbd 667b 27be 253f fe3d
00000040: 1ff1 acbd 0434 57bd a40f 293d 29ba 6fbd
00000050: 89f0 b13d 4ecb 11be 2ed9 8d3d 90e0 17be
00000060: d449 f4bd 432c 91bd 0f5a 803d e6d1 19be
00000070: 5409 033e dc52 a53c 27df b63d 1af3 15be
00000080: 0c37 26bd 21d3 3b3e 45a1 6b3d 0a13 11be
00000090: 63cc eebc 951b 033e faea 13bd d92e 33bd
000000a0: 7b10 abbd 28cf b83d 56ac 003d 59b6 3a3e
000000b0: a163 b13c cf95 3d3d 9f62 c83d 2d52 05be
000000c0: 81ac a43c ee96 1e3e b597 9ebb 0fc5 403e
000000d0: b022 1f3e 47a2 b4bc 6d86 2b3e c500 223e
000000e0: 4309 acbc dcb0 1ebe 8a1c 693d dcc9 4c3e
000000f0: b8f3 52bd 1834 e9bc 2fc0 053e 5366 7dbb
00000100: 2aec ae3d 021a 573e c74c 2c3e 502c 46bd
00000110: 83cf 183e aaeb c5bd 29c8 febd e67f 3c3e
00000120: 6f76 003e bf9b 8cbd 8d5a 39bd e0a4 e5bb
00000130: 5cb7 debd 60b3 e3bd 71c1 0cbe f21e cebd
00000140: 48cb cc3d 5339 6f3d 02b4 1c3e 02de 3d3e
00000150: 5126 2bbd ba79 c83d cdf8 d03d efa4 3bbc
00000160: 3e93 273d 7005 163e 3745 a43d fbcd aebd
00000170: 28a1 3b3e a2f6 00bd dd80 18bd 8a46 bf3c
00000180: 9dcf 2b3e a05f 75ba 1077 00be d643 d43d
00000190: 62a3 033e da70 4f3e 329d 4a3d c636 7bbc
000001a0: 927b 9abd 03ea 2b3e 557e 00be 72aa 4f3d
000001b0: 7b88 c13c 52d1 0a3e 6b07 12be 1476 b3bd
000001c0: d0fc c93c 7ea9 fcbc aa25 163e f7b6 6fbc
000001d0: ab3c 803d 4351 7cbd c7ca ac3d f7f3 4f3c
000001e0: 24e3 03be 0334 3a3e 732c cabd ba08 edbd
000001f0: 257c 383e d453 07be 7ec4 9dbd 6fa0 f23d
00000200: 99ae af3b 78f9 243e 6450 c03b 7d21 ebbc
00000210: d513 c6bc 7dda a13d df16 c9bd 3a8b 70bd
00000220: 739d 343e 043e 16be 9868 8a3c 524d f4bd
00000230: df44 cc3d 6f95 323e f73b f5bc c6cb cc3c
00000240: 94ac 30be 0bdf 44bb f7a2 0e3e 75fd 053e
00000250: b1c9 3b3e a05a fbbd e0d8 363d 0288 573c
00000260: dbf2 f93d 53a0 08be 1d80 7abd 4778 133e
00000270: 1029 123e 9259 403d 0973 713d ae33 243d
00000280: e41c bdbd ba74 583e dcc5 ba3d d08e bfbd
00000290: 476b fc3d bcf6 c3bb 8fbd 223d 1df2 c2bd
000002a0: 158b 51bb 783b 16be 25a0 8bbd 849c 79bd
000002b0: 2c8f debd 3bbe e03d 6263 243d eb5c 3abd
000002c0: 9b36 25be 3e60 0c3e da8a f1bd 2fc1 f53b
000002d0: 1eee 96bc bc6e b33c b326 bf3d 8ae9 8e3d
000002e0: a367 a3bd a8c6 92bd 2281 c43d 4a2e 4c3e
000002f0: 6e3f 463e d4e1 133c 4fcb b8bd 9c20 9e3d
00000300: c222 82bd e23d 7b3d 6d52 c83d f56b 273e
00000310: abaa 413d d04d b6bd 24c3 153e e575 0e3e
00000320: ed95 8cbc 7acb d6bd 934a c1bd ff21 0bbe
00000330: 8f65 3abd bc1c e0bd dc02 d13c 0248 b2bd
00000340: 974a 15be 3eab ee3d c629 da3c c6cd 493e
00000350: 0867 86bc 1f50 63bd 27d4 543c fb7e 0abe
00000360: a88f fcbd f888 243b 1db7 183d abdc 6dbd
00000370: 5c39 1abd 87a1 abbd 8bfc d3bd 58fe a5bd
00000380: 0f37 1abe 47d2 6bbd 15ed 043e 8850 2b3e
00000390: 4407 90bc c4f5 15be 080a 20bc 5060 583d
000003a0: f190 343e 3bf8 9d3c 2c5a dcbc f480 d4bd
000003b0: c811 5c3d 0947 ef3d c01a 15be 15f5 173e
000003c0: 84ce 193e fd3e 2cbe 298f 713d a39f d1bd
000003d0: 3fac a43c 29eb e7bd eae7 25be 190a c2bd
000003e0: 9b2e f9bd 8ea6 ee3b 0d27 9b3d be63 18bd
000003f0: c46b 70bc f526 783d 8b44 30be 54e1 063d
-0.07427145 -0.12645341 0.049264543 0.03624846 -0.049223904 -0.045030493 0.024321197 -0.054008033
-0.161201 0.11377927 0.043355662 -0.08792556 -0.13716282 -0.069279544 -0.16355667 0.124143876
-0.08444428 -0.05253984 0.04127468 -0.058527146 0.086884566 -0.14237711 0.06926189 -0.14831758
-0.11928144 -0.070885204 0.06267177 -0.15021476 0.12796527 0.020181112 0.08929282 -0.14643517
-0.04057984 0.18342258 0.057526845 -0.14167419 -0.029150194 0.1280349 -0.036112763 -0.04374585
-0.08352753 0.09023887 0.031414352 0.18233623 0.021653952 0.046285447 0.097844355 -0.13019629
0.020101788 0.15487263 -0.004839862 0.18825172 0.15540576 -0.022050036 0.16750498 0.15820606
-0.02100051 -0.15497154 0.056911983 0.19998878 -0.05150196 -0.028467223 0.13061593 -0.0038665726
0.085411385 0.21006015 0.16826163 -0.048382103 0.1492291 -0.0966409 -0.12440521 0.18408164
0.12545179 -0.06865644 -0.04525237 -0.00700818 -0.10874817 -0.111181974 -0.13745667 -0.10064496
0.0999971 0.058404278 0.15303043 0.1854172 -0.04178459 0.097888425 0.10203705 -0.011452897
0.040911905 0.14650512 0.08021014 -0.085353814 0.18323195 -0.031485207 -0.03723227 0.023349065
0.16778417 -0.00093602575 -0.12545419 0.10364501 0.12855294 0.20257893 0.04946632 -0.015332883
-0.075431004 0.16788487 -0.12548192 0.05069966 0.02362465 0.13556412 -0.14260642 -0.08762756
0.024656683 -0.030842539 0.14662805 -0.014631025 0.062615715 -0.061600935 0.08437114 0.012692443
-0.12879616 0.18183903 -0.09871759 -0.1157393 0.18016107 -0.13215572 -0.077034935 0.118470065
0.00536139 0.1611079 0.0058689583 -0.028702492 -0.024179379 0.079030015 -0.098188154 -0.058726527
0.17638187 -0.14672095 0.016895577 -0.1192881 0.099740736 0.17439817 -0.02993582 0.02499951
-0.17253333 -0.003004017 0.13929354 0.13084967 0.18338658 -0.12273145 0.044640422 0.013154985
0.12204524 -0.13342409 -0.061157335 0.14401351 0.14273477 0.04696042 0.058947597 0.040088348
-0.09234026 0.21138278 0.0911977 -0.09353411 0.12325149 -0.0059803408 0.03973156 -0.09518836
-0.0031973768 -0.14671123 -0.068176545 -0.06094028 -0.108671516 0.109737836 0.04013384 -0.04549877
-0.16134112 0.13708588 -0.11794062 0.007499836 -0.01842409 0.021903388 0.09333553 0.06978138
-0.079787515 -0.07166797 0.09594943 0.19939533 0.19360134 0.00902601 -0.09023153 0.077210635
-0.06354286 0.061338313 0.097813465 0.16349776 0.047281902 -0.0890156 0.14625221 0.1391216
-0.017161334 -0.10488029 -0.09438052 -0.13587187 -0.04550701 -0.10942981 0.025514059 -0.08705141
-0.14579235 0.116537556 0.026631247 0.19707403 -0.016406551 -0.05549633 0.012990034 -0.13525002
-0.12332088 0.0025106054 0.037284005 -0.058071773 -0.03765236 -0.08380418 -0.10350903 -0.08105153
-0.15060066 -0.057573583 0.12981065 0.16729939 -0.01758159 -0.14644533 -0.009768017 0.052826226
0.17633416 0.019283405 -0.026898466 -0.10376158 0.053727895 0.11683471 -0.14560986 0.14839585
0.15020186 -0.16820903 0.05897442 -0.102355264 0.020101665 -0.1132415 -0.1620175 -0.09474582
-0.121670924 0.0072830385 0.07575808 -0.037204497 -0.014674131 0.060584027 -0.17213647 0.032929733

pre_mono.2.bias f4 [32]
00000000: a3b6 69bd eabf 753d 2ad2 e93c b509 1f3e
00000010: e1cc 413e 8bba 0a3e ba5e 1e3e 37fb 2ebe
00000020: deb6 e63d 1020 e63d ebb0 c83d ed9f 6f3d
00000030: d235 0a3e 3121 973d 774e 94bd 793c 283e
00000040: 7bbf 5b3e 4b72 f5bc abd3 803d 7a85 433e
00000050: 408f 30be f3fa b53d bd6c 613e 4075 2cbe
00000060: 967c d9bd 1031 403c 54f3 563e e803 613e
00000070: 0b45 34bc a5a2 943d 9ec8 4c3e be65 473e
-0.05705894 0.059997477 0.028542597 0.15531047 0.18925811 0.13547723 0.15465823 -0.17088018
0.11265348 0.11236584 0.097993694 0.058502126 0.13497093 0.07379378 -0.072415285 0.16429318
0.21459763 -0.029961726 0.062903725 0.19093886 -0.17242146 0.088857554 0.22014137 -0.16841602
-0.10619466 0.011730447 0.2099126 0.21974146 -0.011002789 0.072575845 0.19998404 0.19472405

mono.0.weight f4 [32, 35]
00000000: d76d 413c ee50 0cbe ab54 a03d 929f ab3d
00000010: 3242 05be a091 81bd 6e05 08be 62a5 333d
00000020: 9b26 a5bd 7495 1d3e b54c 1b3e 7118 553d
00000030: 4ae4 d8bd a0bf 06be 964d 1abd 3ebb b0bd
00000040: cb28 e23d c9e9 28be f864 413e ba5e 37be
00000050: 2024 f93d e817 81bd b738 023e 1be7 863d
00000060: 84b5 7138 08f3 763d f11f 343e f772 ad3d
00000070: 945c e13d af50 28be ecff 263e 2ba5 bf3d
00000080: ae15 8d3d bc22 923d 33e7 e63d 29f8 1e3e
00000090: fd85 95bd b573 f3bd 7470 96bd 7376 12be
000000a0: 569f f43d 7b93 f0bd dcc0 b8bd 6c76 393e
000000b0: f692 423e eef8 513d 70a1 83bd 4132 65bd
000000c0: 0b82 e63d 6665 35be b35f 35be 443b 2f3e
000000d0: 9a10 403e 8c83 24bd 4588 38be 738e 4fbb
000000e0: 11a7 e6bd d21b 27bd b270 a93d 263a 883d
000000f0: 3bb7 47bd c43d 883d 8d32 b33d 559d 1cbe
00000100: 49a4 babd 6223 4b3d 782f 07be 913f cebd
00000110: f1bd d83d 2ecc 033e 6f37 1b3b 1dc2 cebd
00000120: 88a8 ef3d 60c7 fcbd 1058 a2bd c708 4a3e
00000130: 22f6 843d b322 433c c861 bc3d 28cf 9bbd
00000140: 447a 343e eac5 30be 326a a4bd 03a6 7bbd
00000150: 9d9b b5bd 123d a4bd cdef 0f3e e545 e83d
00000160: eec5 213d 3f33 463e 1a79 e4bd 8fa4 09be
00000170: 9e3d ee3d e8da 14bc 194d 15be b155 15be
00000180: c3c4 19be cba3 2f3e 6891 c63d ca59 283e
00000190: 4c40 2cbe 23f8 4cbe c451 0abe 831a 853d
000001a0: eeb6 7ebd 8926 dabd d802 223e 4de8 a1bd
000001b0: d29b 03be 784b f13d 77d7 aabd 0aee 103e
000001c0: bf00 253d b6a8 203d 4b48 903d fe71 22be
000001d0: b837 00be 1e21 e8bd 2cfa 02be f324 493d
000001e0: f24f 943d 9846 d9bd c1ed 053e 0df8 fdbd
000001f0: 27ef a43d 36cf 25bd d2aa 38be 7ce0 19be
00000200: b067 8d3d 0318 703d 1279 08be 8f46 cdbd
00000210: 6603 4cbe 11c0 e33d b010 383e 9792 c83d
00000220: f74a 0fbe af4b ee3d 2e5b 423e f233 87bd
00000230: 9ffc e2bc e64a c03d be37 3e3d bdbd b1bd
00000240: 5da9 49be c064 20be d669 303d 6f8f 14bc
00000250: 3e0a 333e f385 283d e249 9abd e4f5 4cbe
00000260: 2b16 42be 6650 d23d 00ed 2d3e ee34 2abd
00000270: eaab 3fbe 1f42 a53d 5ccb 2b3e 8456 22be
00000280: 0d65 16bd c742 453d 3a2b 0cbe 837e 20be
00000290: 1e86 863d eea5 2bbe d809 b9bd d767 06be
000002a0: d31a 173e c314 883d e38f f83d ee9e 19be
000002b0: 648d 2d3e 6492 833d c252 00be 842a 35bc
000002c0: d9a8 1ebe 8906 05bd 683e 003e 2945 edbd
000002d0: 131f 393e 640b af3d 8c4d f2bc 961f b43d
000002e0: 04a2 87bd f775 91bd 6649 15be dec1 073e
000002f0: ce14 093e 22c7 9d3d c51d 0e3e 9ec4 513e
00000300: 842d 383e f9bb 45be 5e17 ae3d 0820 dbbb
00000310: 6906 bb3d 82e2 95bd d03d 413d 03cc 16be
00000320: 8655 d93d 0709 573e 62f5 92bd e49c 1ebe
00000330: f359 32be ca0a 9abd 8bac 1bbd d40d 403d
00000340: a060 923d babf 233e 7d36 fbbc 1f56 aa3d
00000350: ed4b eabd 547b 493e bedb d53d 800c 79bd
00000360: 5738 143e 2515 753d c88d 823d c914 abbd
00000370: 5536 583d 36a7 3e3d f3bd 07be 78f8 0c3d
00000380: 8b20 643d d314 0ebe e4c1 863d da40 9dbd
00000390: fc4b 2ebe fddf 16be 2e66 01be aa80 933d
000003a0: 20fe 123e d65b 1d3e 993f 213e c507 c33d
000003b0: ddfd 043e e021 8fbd 4cec 233e 109c c8bd
000003c0: db0a b5bd 9d03 bbbd a124 15be 79a9 3cbe
000003d0: c697 8fbd 1be4 0b3e 49c4 f4bd da56 36be
000003e0: 8a4f 8ebd d4b6 453e 5064 a13d d181 36bd
000003f0: 88ea 45bd d803 3c3e 246e 4abe 4e97 023e
0.011805973 -0.13702747 0.07828649 0.08380045 -0.13013533 -0.06326604 -0.13283321 0.043858893
-0.08064004 0.15389043 0.1516598 0.052025262 -0.10590418 -0.13159037 -0.037671648 -0.086294636
0.11042937 -0.16495432 0.18886173 -0.17907229 0.121650934 -0.06303388 0.12716947 0.065870486
5.7627927e-05 0.060290366 0.1759031 0.084691934 0.11003986 -0.16437028 0.16308564 0.09357675
0.06888901 0.07135531 0.112745665 0.15524353 -0.07300947 -0.11887304 -0.073456675 -0.14302997
0.119444534 -0.1174688 -0.0902116 0.1811158 0.19001374 0.05126279 -0.06427276 -0.05595613
0.112552725 -0.17714462 -0.17712288 0.17112452 0.18756333 -0.040164515 -0.18020733 -0.00316706
-0.11262334 -0.040798016 0.08273448 0.06651716 -0.048758727 0.06652406 0.08749876 -0.15294392
-0.09113366 0.04959429 -0.13201702 -0.10070718 0.105831034 0.12870857 0.0023684164 -0.10095618
0.11702067 -0.12342715 -0.07926953 0.19729911 0.064922586 0.011910128 0.09198338 -0.07607871
0.17624766 -0.17262998 -0.08028068 -0.061437618 -0.088675715 -0.08019461 0.1405632 0.11341456
0.0394954 0.19355486 -0.11155911 -0.1344168 0.11632846 -0.009085394 -0.14580192 -0.1458347
-0.15016465 0.17152326 0.09695703 0.16440502 -0.16821402 -0.20016532 -0.13507754 0.06499197
-0.062186174 -0.10651881 0.15821397 -0.07905636 -0.1285241 0.11781973 -0.08341878 0.14153305
0.040283915 0.039223395 0.07045039 -0.15863797 -0.12521255 -0.113344416 -0.12790745 0.049107503
0.07241811 -0.10609168 0.13078977 -0.124008276 0.08053427 -0.040480815 -0.18033913 -0.1502704
0.069045424 0.05861665 -0.13327435 -0.100232236 -0.19923171 0.11120618 0.17975116 0.09793585
-0.1399344 0.11635529 0.18980095 -0.06601705 -0.02770835 0.09389286 0.04643988 -0.08678768
-0.19693513 -0.15663433 0.043069683 -0.0090674 0.17484376 0.04114337 -0.07533623 -0.20015675
-0.18953769 0.10269241 0.1698494 -0.041554384 -0.18717924 0.08069252 0.16776794 -0.15853316
-0.036717463 0.048159387 -0.13688365 -0.1567326 0.065685496 -0.16762516 -0.09035081 -0.1312555
0.14756326 0.06644585 0.12136819 -0.15002033 0.16948467 0.06424406 -0.1253157 -0.0110575
-0.15494098 -0.032476936 0.12523806 -0.11585457 0.1807826 0.085470945 -0.029577993 0.08795087
-0.06622699 -0.07102578 -0.1457878 0.13257548 0.13386843 0.07703997 0.13878544 0.2048516
0.17986113 -0.19309987 0.08500551 -0.006687168 0.09132082 -0.073185936 0.04717809 -0.14726262
0.106120154 0.20999537 -0.07175709 -0.15489537 -0.17417125 -0.07521589 -0.038006347 0.046888188
0.07147336 0.15991107 -0.03066563 0.083172075 -0.11440263 0.19675952 0.10442303 -0.060802937
0.14474617 0.059834618 0.06374699 -0.08353574 0.05278619 0.046546184 -0.13256054 0.034416646
0.055695098 -0.13875131 0.065799505 -0.07678385 -0.17021173 -0.14733882 -0.12636635 0.07202275
0.14354753 0.15367064 0.15746917 0.09522966 0.12987466 -0.06988883 0.16008109 -0.097953916
-0.08839961 -0.091315486 -0.14564754 -0.18424024 -0.0701137 0.13661234 -0.11951501 -0.17806569
-0.069487646 0.19308025 0.07880461 -0.044557396 -0.04831937 0.18360841 -0.19768578 0.1275303

mono.0.bias f4 [32]
00000000: 35e8 e2bb 5564 503e 31c0 b0bd cdcc 49bd
00000010: a667 553e 84c4 4b3d dcb2 27bd 1e2e 663d
00000020: 6abd f53c 93ab e0bd b0bc c43d 411a 083e
00000030: a151 383d 037e c5bd 6de1 01bc 6e90 d63d
00000040: 3b6a 64bc 3ec4 373e d715 23bc ce0d 803b
00000050: 6f61 0e3e 2a1d 7a3d 0323 0f3e 3b04 94bd
00000060: 7fb3 2a3e bd99 30bc 17a6 353d bf26 023e
00000070: 6b11 c13d e4fa a6bc d943 103e eaae db3c
-0.006924654 0.20350774 -0.086304076 -0.04926758 0.2084032 0.04974796 -0.040942058 0.056196325
0.029997546 -0.10970225 0.09606302 0.13291265 0.044999722 -0.096431755 -0.007927281 0.104767665
-0.013941343 0.17945954 -0.0099539375 0.0039078956 0.13904355 0.06106297 0.139782 -0.072273694
0.16670035 -0.010778842 0.04434785 0.12710093 0.0942715 -0.020383306 0.14088382 0.026816804

mono.1.weight f4 [32, 32]
00000000: 9f07 ee3d 7bb4 40bd cd9a 393d a0de 1bbd
00000010: 07a4 0f3e 1d9f 2e3e 52f8 9b3d c437 453e
00000020: 0fe9 c23d 6aae ffbd 2c66 d1bd 43d2 b9bb
00000030: fbed febd ece3 cd3d 3a17 4a3e c589 bcbd
00000040: 7fb8 18bd f6f4 0dbe 979b a23d d2e0 283d
00000050: 64b0 253e 8547 5abd 2336 0ebe 2f01 453e
00000060: 3246 593e effb d5bd 2415 4abd 41fc 05bd
00000070: 4ca2 c5bd 8241 15be 4b4d 2a3e 7bf6 0d3e
00000080: 20c4 ed3d 6273 1bbe 48f7 a8bc 03c7 123e
00000090: 5eb4 023e 24b7 e9bc 0a64 163d 26e0 e93d
000000a0: e1af 433e 8fb9 493e cfbe 4e3e 3225 473e
000000b0: edad 83bd 1346 4c3e 54be debb b640 fcbc
000000c0: 528d 3c3e 3f33 43bc dc11 6f3d da0e 11bc
000000d0: f53a 00be 4a8d f3bd b9f5 453e cb8b 4d3e
000000e0: b23f 31bc 6b09 c4bd 72bd 573e 4eb8 9c3d
000000f0: 4188 063e db1c 03be 01e4 e03d 96d5 4d3d
00000100: 0719 443e 1da8 303e 6260 0c3e 0259 a33d
00000110: bd02 d83d bfc5 c43d e784 4c3e 21d3 093e
00000120: e3e3 f63c 19a1 a93d 2958 86bd 4234 363e
00000130: b679 92bd 0a6b 463e d8ea 2d3e e7f1 f9bd
00000140: 70e3 12be cf50 de3c 891a ee3d 8753 343e
00000150: 1e25 1bbe 920c ebbc a8ee a33d f65d 1ebd
00000160: 1c23 0ebe 1813 ad3d fb18 e73d 59d2 0dbc
00000170: dfe8 033e 8e2a 843d 30fc 383e df4e a93d
00000180: d32a a03d 45ee e5bc 9a6c 87bd ac6c df3d
00000190: 3b40 533e 5c0d cd3d 3b7e 06be 6104 203e
000001a0: c254 523e b743 e63c 9eb1 f0bd a9d7 2fbd
000001b0: 21ac 203e 0a8e 013e 4d76 9dbc 0388 8b3d
000001c0: 6f19 f23c 91c3 1cbe 979c 203e db11 e8bb
000001d0: 0bf4 15be 1439 9c3d f483 073e 13db 06be
000001e0: 831f 1dbb e794 0dbe 1ef5 af3d 5dab 7b3d
000001f0: ed70 033e 1f80 46bc c984 513e 5f25 15be
00000200: 0e05 cbbc 59d6 f9bd 96d5 e6bd 2ca1 3a3e
00000210: fe42 093e 758b 393e 20fd e53d 5988 a9bd
00000220: 70e9 9ebc 28b4 02be 5890 463e cd84 80bc
00000230: d8a0 cb3c 2e45 ce3d 2efa babc cf40 e3bd
00000240: 9d6c 2f3d f5e6 233e d65a 163e a399 18be
00000250: 21f6 483e 987f df3d 6631 1ebe 3416 88ba
00000260: ff26 ddbd 593f 643d e44c 10be 9d4f e8bc
00000270: 79aa 2e3e 2311 f9bb 1198 933d 1b5b 98bd
00000280: 4b47 223e b6a4 323e 8a21 103d c696 2f3d
00000290: c7ce 4c3e fda9 23be 9e39 e73d d48e dabd
000002a0: 865e 79bd cb51 16be 855e a33d 4098 3e3e
000002b0: 6d25 86bc 6aa9 d93d 3b86 d0bc 03d4 0cbe
000002c0: fb67 0cbe 6236 d83c 794b 233e 145d 263e
000002d0: 9231 8ebd 2145 933d fdf0 443e 17c9 f7bd
000002e0: 525d 2dbe 9055 22be a680 0c3e 0751 07be
000002f0: b6c4 09be 948b c03d 790a 0e3e 1162 ee3d
00000300: f7fb 12be 4c5b 4e3e 1415 203e b15a 21bd
00000310: c0e5 f9bd e5c3 b4bd 5cec 98bd 7a31 0cbe
00000320: e8f1 013e ed64 233e f602 cd3d 446a fb3d
00000330: a01c acbd 7884 043e e6ae 3b3e 5e33 083e
00000340: f9dc 343e 5ec5 88bd bf4a df3d b28f 5abd
00000350: f126 34bd ca90 533e 150b 03bc 2c0c 293d
00000360: 4edd 4c3d aa50 633d 9148 72bd 9c4e 2a3e
00000370: 12bf 3f3e 9437 9dbd 83f1 23be e461 84bc
00000380: 79c4 8ebd cdc9 1d3e 1eed 27bd 6581 243e
00000390: fa1c 9f3d 0103 48bd 11f3 80bd 5826 953d
000003a0: c1d7 ffbd 0bd5 27bc 59b0 2fbe d581 18be
000003b0: 1807 b8bd 06fb 013e 9708 0bbe 6823 533e
000003c0: 79ed 1cbe 942e 16be 26ed e63d 75cb 293d
000003d0: 5206 2d3e ada0 cbbc 890b e43d 8c36 333e
000003e0: eec6 ecbd 6cce d6bd 731f 433e a806 413e
000003f0: 304a da3c f093 0c3e 1e8e fbbd b552 353e
0.11622547 -0.04704712 0.045313645 -0.03805411 0.14027415 0.17052884 0.07615723 0.19259554
0.09517109 -0.12484439 -0.10224566 -0.005670817 -0.12447735 0.10053238 0.19735423 -0.09205965
-0.037285324 -0.13862976 0.07939833 0.04123003 0.16180569 -0.053290863 -0.13887839 0.19238733
0.21218184 -0.10448443 -0.049336568 -0.03271127 -0.09650096 -0.1457577 0.16631047 0.13863556
0.116096735 -0.15180734 -0.020625725 0.1433373 0.12764117 -0.028529711 0.0367165 0.11419706
0.19110061 0.19699691 0.20189975 0.19447783 -0.06429658 0.19948606 -0.006797591 -0.030792575
0.18413284 -0.0119140735 0.05836664 -0.008853639 -0.1252249 -0.11892183 0.19332017 0.20072858
-0.010818409 -0.09572109 0.21068361 0.07652341 0.13137914 -0.12803976 0.10980988 0.05025252
0.19150172 0.1725163 0.13708642 0.07975961 0.10547397 0.096080296 0.19972573 0.13459446
0.030137962 0.0828268 -0.06559784 0.17793372 -0.07152121 0.1937677 0.16984117 -0.12204342
-0.14344573 0.027138142 0.11626155 0.17609988 -0.15150878 -0.028692517 0.080045044 -0.038663827
-0.1388058 0.084509075 0.112840615 -0.008656108 0.12881802 0.06453429 0.18064952 0.082669966
0.07820668 -0.028067717 -0.06612511 0.109093994 0.2062997 0.10012314 -0.1313409 0.1562667
0.20540145 0.02810846 -0.11752628 -0.04293028 0.15690662 0.1265184 -0.01922145 0.068130516
0.029553143 -0.15308978 0.15684734 -0.0070822067 -0.14643876 0.07628074 0.1323393 -0.13169508
-0.0023975081 -0.13826333 0.08591674 0.06144272 0.12836047 -0.012115507 0.2046081 -0.14565037
-0.024782684 -0.12199087 -0.11271207 0.18225545 0.13404462 0.18119605 0.112299204 -0.082779594
-0.019398421 -0.12764037 0.19391 -0.015688324 0.02485697 0.10071789 -0.022824373 -0.11096346
0.04282819 0.16006072 0.14683089 -0.14902358 0.1962514 0.109130085 -0.15448532 -0.0010382594
-0.107984535 0.055724476 -0.14091831 -0.028358275 0.17057218 -0.00760092 0.07206739 -0.07439252
0.15847509 0.17445645 0.035188235 0.042868398 0.20000754 -0.15982814 0.112902865 -0.106717736
-0.06088116 -0.14679639 0.079770125 0.18612766 -0.016375268 0.10628016 -0.025454631 -0.13752751
-0.1371154 0.02639312 0.1594676 0.16246444 -0.069430485 0.0719092 0.19232555 -0.12098902
-0.1693013 -0.15852952 0.1372095 -0.13214503 -0.13453946 0.094016224 0.13871183 0.116397984
-0.1435393 0.20152014 0.1563304 -0.03939313 -0.122020245 -0.088264264 -0.07466957 -0.13690749
0.12689936 0.15956469 0.100103304 0.12276128 -0.08403897 0.12941158 0.18328437 0.13300845
0.1766242 -0.0667827 0.109029286 -0.053359695 -0.04398245 0.20660701 -0.007998248 0.041271374
0.05001574 0.05549685 -0.059151236 0.1663155 0.18725231 -0.07676616 -0.16010098 -0.01615996
-0.06971068 0.15409012 -0.040997617 0.16064985 0.07769199 -0.04883099 -0.06296361 0.07282704
-0.12492324 -0.0102436645 -0.17157115 -0.14893277 -0.08985728 0.12693414 -0.13577496 0.20618975
-0.15324964 -0.14666206 0.11275701 0.041453797 0.16896942 -0.02485689 0.11135013 0.17501277
-0.1156138 -0.104885906 0.19054966 0.18850195 0.026646703 0.13728309 -0.12282966 0.17707331

mono.1.bias f4 [32]
00000000: b7ff 1f3e 75c1 273d 6956 89bd 479a d33d
00000010: d5ff b0bd 3dd4 e5bd b56a a93d 388e b53d
00000020: 634c e13d d471 593e 1cba 323e b25d 21bc
00000030: ccb3 1a3e 5383 e7bd bca8 1f3e 1af5 f5bd
00000040: 39ae 83bc 1dc9 1e3e 7d6e cd3c d37f b3bd
00000050: 3210 d43d 6b3e 2f3e 6b68 d03d 8065 1d3e
00000060: 15d8 c4bc 866f cc3d 8db1 8fbd 4881 163d
00000070: 105e 4e3d a4eb a1bd 639f 883d a037 1cbd
0.15624891 0.04095598 -0.067059346 0.103321604 -0.08642546 -0.11222122 0.08272306 0.08865017
0.11000898 0.21234828 0.17453808 -0.009848999 0.1510765 -0.11304345 0.15591711 -0.1200964
-0.016074287 0.15506406 0.025077099 -0.08764615 0.103546515 0.17113654 0.10176166 0.1537075
-0.024028817 0.09982209 -0.07016287 0.036744386 0.050382674 -0.07906273 0.066710256 -0.038138986

mono.2.weight f4 [32, 32]
00000000: 863d 8dbd d12a 21be 45ae c73d 49b7 203e
00000010: 2a85 583e 6b31 3f3e d095 0dbe 50fe 283e
00000020: 8b8d 483e 5e1d 033e bf64 183e 3103 243e
00000030: ab4f 183e 8603 5c3d 7d50 e9bd ad85 563d
00000040: 09cb 0abe 253a 433e 8062 493e 600e 3dbd
00000050: 3def 583e 3e6f c0bc d4fe fabd f36c 093e
00000060: d8cf 373e 03a4 473e 81af f93d 39d8 203e
00000070: 99dd 083e 2a4a f93d 8edb 0cbe 9b55 33bd
00000080: a48e 7d3d 3595 353e 732a 95bb 44fe f63d
00000090: 8bc0 1bbe dd1d 77bd ca20 bd3d 568f b43d
000000a0: a489 783d 16f8 643d 48bb 0f3e 534f 55bc
000000b0: 6e13 1d3e 73df 573e e2d6 74bc c60c f8bd
000000c0: 6ae8 973d 14a2 f43d d157 f73d e015 0dbe
000000d0: fb0d 07bc f142 b13c 1598 dc3d fbaf 33bc
000000e0: bc14 393e b9dc 2cbd 2f21 183e d413 17be
000000f0: fdba 573e b778 833d 58b0 9dbd 51b3 1b3e
00000100: a141 37bd 3a66 b7bd 8f19 6cbd be18 523e
00000110: 46ab 4d3e ea68 9d3d 48c0 e3bb ba3d c9bd
00000120: 5002 36bd 7c72 29be 9882 25be 7589 393d
00000130: 9fad 2d3e 1aec 4d3d 7473 05be b0fd 05bd
00000140: d842 143e 794f 9c3d 0772 893d 9cc7 11be
00000150: 9407 17bd d75c 3d3e e068 5abd d0b5 8abd
00000160: 7b01 07be a3b8 083e 525e b73d 45c2 a5bb
00000170: 482e 283e ac36 103e 1dcf 073e 08de 0c3e
00000180: acd3 26bc 0224 43bd eee8 96bd c5b3 703d
00000190: 3807 fabd 38ca 37bd 8893 cdbd d79d c63d
000001a0: 1949 d73d d5c1 d8bd 4f8b c23d 087e 633d
000001b0: 66f5 333e ef60 2d3e d5c8 113e 53f1 1b3e
000001c0: f851 583d 7e0c 453e d3e0 22be 68dc 293e
000001d0: 51fa 2e3e 90cc ef3d 0419 20bd 243e e3bc
000001e0: 59d5 033e d6b6 0d3d 9b3e 253e b505 bf3d
000001f0: 26c7 873d cee7 fabc 6f86 18be b119 efbd
00000200: 8d3e 0cbe 828d 11be fba5 b8bd 903c ebbc
00000210: 3163 1c3e 0c90 873d 0117 f93d 0698 f8bd
00000220: dfa8 4c3e 75f8 443e 08cc 343e ab1e 27bd
00000230: 5944 1b3d 7f80 893d 0e50 68bd fa59 db3d
00000240: 67e3 9fbc 5378 0dbe 858e 04bd 88d3 573e
00000250: 1bbe ed3d f2b8 f23d d4b5 8b3d 3b17 b93d
00000260: a99c c83d cf0a c8bd c003 5e3d 3733 0dbd
00000270: 12e5 ddbd f3b0 f6bd bb10 cdbc 6a63 19be
00000280: a05a 24be c5a9 483e 6379 3e3d 4a0d 083d
00000290: 84e0 febd 237d 9a3d c7f2 353e 5eb0 563e
000002a0: b385 0abe b4d8 4cbd c2c1 343e a8d0 403e
000002b0: 6114 543e 0ca4 12be 46c1 0abe 407e 94bd
000002c0: 3698 fd3d 1785 0cbe 6ad7 7e3d 28e0 0f3e
000002d0: d759 973d 17f6 fdbc cdb9 023e cf25 743d
000002e0: f8da 083e 806e cbbd 2a78 1b3e b3ea 5e3d
000002f0: 5237 01be a99f ad3d 2e1c dabd c49b 413e
00000300: 1dc3 9b3d 388c fabd 849a 113d aa58 f6bb
00000310: 4a46 53bd 79df 19be 90f3 cfbd 273b 0abe
00000320: c5fc 903d 6ea5 3e3d 0459 713d dfe6 21be
00000330: 5d2c e1bd cc28 babd f396 693d 5e11 0bbe
00000340: 68e7 1c3e 41eb d2bd b411 a03d 8526 483e
00000350: 56c2 46bd 3236 423e 561f 10be e291 563d
00000360: 9044 1bbe 5375 19bc 9a70 523e e1cf 2e3e
00000370: a613 5c3d 46a9 86bd 00cf 063e 479c f8bd
00000380: 2ee5 163e 040b f1bd 87ad fdbd c35e 483e
00000390: f039 ebbd c588 8dbd e466 863d 6f3c 6c3b
000003a0: f12f 503d ff98 bcbd f0a0 5dbd 2d49 543e
000003b0: 4f29 263e 3562 eebd a495 213d a7d4 f4bd
000003c0: 705b 223e 2544 1e3d cb93 9abd 2b20 473e
000003d0: 67d5 0a3e 5b60 9dbc 3cdf 39bd 9c25 6d3d
000003e0: aa44 c7bd f405 223d d097 13bd 142c f6bd
000003f0: bfb8 0c3e 9e53 b9bd b34f 75bd 46de dfbd
-0.068965 -0.1573899 0.09750036 0.15694918 0.21144548 0.18671195 -0.1382668 0.16503263
0.19585244 0.12804171 0.14882182 0.16016842 0.14874141 0.053714298 -0.11392305 0.052373577
-0.13554014 0.19065149 0.19666481 -0.046156287 0.21185012 -0.023490544 -0.12255636 0.13420467
0.1795038 0.1949616 0.12191678 0.15707482 0.13365783 0.12172349 -0.13755628 -0.04378281
0.06190361 0.17732699 -0.0045521795 0.12060216 -0.15210168 -0.060331214 0.0923477 0.08816402
0.06067814 0.055900656 0.14036286 -0.013019401 0.15339443 0.21081333 -0.01494381 -0.12111811
0.07417376 0.119449764 0.120772965 -0.13777876 -0.008243079 0.021638365 0.10771195 -0.01096725
0.18074316 -0.042202685 0.14856409 -0.14753658 0.21067424 0.06419509 -0.076996505 0.15205123
-0.044740323 -0.08955045 -0.057641562 0.20517251 0.20084867 0.076860264 -0.006950412 -0.098262265
-0.0444358 -0.16547579 -0.16163099 0.045297105 0.16960762 0.050273992 -0.13032323 -0.03271264
0.14478624 0.07632346 0.06711202 -0.14236301 -0.03687246 0.18492447 -0.053322673 -0.06772959
-0.13184159 0.13351683 0.08953537 -0.005058559 0.16423905 0.14083356 0.13262601 0.13756573
-0.010182302 -0.04764176 -0.073686466 0.05876519 -0.12208408 -0.044870585 -0.10037905 0.09698074
0.10511989 -0.105838455 0.09499227 0.055540115 0.17574081 0.16931508 0.14236768 0.15228777
0.052812546 0.19243047 -0.15906076 0.16587985 0.17087676 0.11708939 -0.039086357 -0.027739592
0.12874354 0.034598194 0.16137163 0.093272604 0.066297814 -0.030628111 -0.14895032 -0.11674822
-0.13695736 -0.14214137 -0.09016033 -0.028715402 0.15272214 0.06619272 0.12162591 -0.12138371
0.19986294 0.19235404 0.17655957 -0.04080073 0.03790698 0.06713962 -0.05671697 0.10710521
-0.019517614 -0.13815431 -0.03236248 0.21076787 0.11608525 0.11851682 0.0682179 0.09037634
0.097955056 -0.097676866 0.054202795 -0.03447267 -0.10834707 -0.12045469 -0.025032392 -0.1497933
-0.16050196 0.19596012 0.046502482 0.0332158 -0.12445167 0.07543399 0.17768393 0.20965716
-0.13527565 -0.05001135 0.17652038 0.18829596 0.20710899 -0.14320391 -0.1355029 -0.07250643
0.123825476 -0.13722645 0.062217154 0.14050353 0.073901825 -0.031001134 0.1276619 0.05960637
0.1336478 -0.099331856 0.15182558 0.054423045 -0.1261876 0.084777184 -0.10649906 0.18907076
0.07605574 -0.12233776 0.03554775 -0.007517894 -0.051580705 -0.15026654 -0.10153878 -0.13499127
0.07079462 0.046544485 0.058922783 -0.15810727 -0.1099479 -0.09089813 0.057028722 -0.13580844
0.1532265 -0.10298777 0.078158766 0.19545944 -0.048525177 0.18965986 -0.14074454 0.05238522
-0.15162873 -0.009366351 0.20550767 0.17071487 0.053729676 -0.06575255 0.13164902 -0.121391825
0.14735863 -0.11769679 -0.12386613 0.19567399 -0.1148566 -0.06910852 0.065625936 0.0036046763
0.05082697 -0.09208869 -0.05410856 0.2073104 0.16226695 -0.11639825 0.03944935 -0.11954623
0.15855193 0.038639206 -0.075477205 0.19445865 0.13557969 -0.019210985 -0.04537891 0.057897195
-0.097298935 0.03955646 -0.03603345 -0.12020126 0.1374235 -0.09049152 -0.05989046 -0.10931067

mono.2.bias f4 [32]
00000000: 4113 ad3d 121b a0bd 257e eabd 63be cdbd
00000010: 6bb4 0cbe d6fc 96bd e078 6ebd e4eb ad3c
00000020: 3865 b0bd 29a3 4e3e 0a17 7bbd 07f3 c33d
00000030: ee5d ecbd f41d c73b d3aa 9ebd c07f 493e
00000040: dadd 27bd 63b1 d5bb 4cf7 363e 4633 103d
00000050: d003 253e 1a51 3ebd 44d9 8ebd 357d 303e
00000060: 6702 053e 7c26 e83d 47be 2c3e 3678 853d
00000070: 01e2 043e b675 42bd 50a7 743b 7ac8 483e
0.08450938 -0.07817663 -0.114498414 -0.10046079 -0.13740699 -0.073724434 -0.058220744 0.021230645
-0.08613056 0.20179428 -0.06130127 0.09567838 -0.11541353 0.0060765687 -0.07747426 0.19677639
-0.04098306 -0.0065213903 0.17867774 0.03520515 0.16114736 -0.046464063 -0.06975034 0.17235263
0.12989198 0.11335465 0.1686946 0.06517069 0.12976839 -0.04747554 0.0037331171 0.19607726

mono.3.weight f4 [32, 32]
00000000: 949b 0dbe f71a 233d ecac ddbd 8293 0f3e
00000010: 36ab 543e 329e 1b3e 9efb a93d 2782 e7bd
00000020: 0783 30bc 7503 20be 1652 a03d 1bd1 1e3e
00000030: 667a efbb 2116 85bc deba fb3d 4ab1 b8bd
00000040: 5412 4a3e bcf7 6a3d 3269 82bd 5e89 d43d
00000050: a0a6 b53d 62e1 49bc 1c7b 3a3e 7b25 33be
00000060: cc47 563e b5af 14be e5ad 7f3d 4171 40bd
00000070: 7d19 9abc dfd5 0cbb 5aa9 243e b2e5 a7bd
00000080: 7d7c 003e c626 e03b ed98 993c 7e26 df3c
00000090: 3e3e 323d 7b8c 9a3c a4f0 1dbe f0b1 03be
000000a0: d08a f03d fbb7 f43d e247 523d 8187 df3c
000000b0: f44c 3fbd 42db 1b3e 4efa 1d3e 98fe f13d
000000c0: 38cb a9bd c232 8b3d 4d0c 023d b9bb 6a3d
000000d0: 5045 033e 620b 283e 4f29 2b3d 9b39 f53d
000000e0: f8e9 9dbd ba4a f33d 4fbb 893d 8dae 383e
000000f0: 9873 a63c b261 243e 9d48 9e3a dc80 2b3d
00000100: 6c4f 383e 07e2 223e 2a3f 3d3e 0445 adbd
00000110: 244b ccbd edf6 d1bd b6e7 1dbd 4ef2 523e
00000120: 07e3 3c3e a11c d23d c23c 2fbb 88cf e43d
00000130: 6604 dc3d 9e35 30be fe9a f33c bb62 093e
00000140: 81b9 b0bc 8e26 24be 7d19 ccbc a8a8 323e
00000150: 08b1 3bbd 9f29 18be 51c6 4f3e c3e3 893d
00000160: 70ef 9a3d 2543 8a3d dc78 c13d 5da9 f2bd
00000170: 69e8 2cbe 7f07 b8bb 6615 8bbb 2197 27be
00000180: 30fc 3c3e 3092 b5bd 9e8b 1fbe 4649 9f3c
00000190: 2cec e9bc f292 d8bc 6db0 03be 0cde d33d
000001a0: c916 c6bd d51c 1bbc d4b7 043e 4b54 133e
000001b0: 35ae 2a3e 4eef acbd 02ad e13d b09d 9abd
000001c0: 3187 0bbe a072 333c 9956 833d dede 143e
000001d0: eea2 d5bd b68f 3a3c 90ac 973c bc74 bcbd
000001e0: 2302 223e 3bf9 e7bd 822d 23be 48ea 12bb
000001f0: 3487 533d 9578 0bbe 7e92 363e ddfb 043e
00000200: 15cb a4bd 7840 9ebd 98a0 053c 0e93 413e
00000210: 7eea 83bc 1aad 003e f2b0 99bd 2133 e33c
00000220: 3297 3e3e ae3a a73d 642c c53d b847 99bd
00000230: c647 083d 8a3f 4c3e 7c74 d6bc 8571 51bd
00000240: d2d0 4c3e 7c49 00bc 393f 483e 1a8d 963d
00000250: 718c df3d 3089 b83d 726c 573e a073 d2bd
00000260: 5425 d93d 6074 dbbd 1dcd 293e 565f 4c3e
00000270: 788d 113e 9a9d c93d fb80 473e 1a38 53bb
00000280: b168 81bd b360 7f3d ca04 c6bc bd81 ff3d
00000290: 8b51 77bc a3e0 16be fa37 7b3d d8b3 303e
000002a0: 7a60 bcbd 0556 3b3e 95ca a0bd 2213 f9bd
000002b0: 6c0b d33d d52a 8e3d b7ed c9bc 2645 433e
000002c0: 8e11 e3bc 8107 133e 9010 2aba bc27 3c3e
000002d0: b885 d3bd 04f5 00bd 6f00 c73d cc7e 9bbc
000002e0: c368 4cbd 1e9b e2bd 74a9 193e fdcf 043e
000002f0: 87f7 cdbc 1481 363e 8728 8cbc a0a1 c53d
00000300: 0e7f 573d f449 253e f107 ae3d 9847 fc3d
00000310: 3fc2 c23d e536 203e de90 e6bb ebed 82bd
00000320: faab e93d 52bf e7bd 3818 24be c0dc c6bd
00000330: b32d 12be 8ff2 e6bd 284f 84bc 0de6 353d
00000340: 3065 87bd e7dd 25bd 7e48 093e 478f 26bc
00000350: 7b23 ca3d 53a9 d7bd 3c01 21be b357 fdbd
00000360: e2b0 363d f6f0 d73d f2c6 b93d 668d c6bc
00000370: e616 313e 92d2 01be cd95 cfbd 4ce1 90bd
00000380: a46e 003e 31c8 5abd 088f 723d 8435 23be
00000390: 63aa a6bc dc36 3f3e bc2a a2bc f174 0dbe
000003a0: 8d27 d13d e610 f5bd bdf1 9f3d e099 93bd
000003b0: 34dd 493e bc05 a8bd bdf0 d9bb 06b2 abbc
000003c0: b180 963d f775 02bd 1282 2e3e 211b ab3d
000003d0: 1cc8 883d 1400 d8bb d086 dd3c 31c0 54b8
000003e0: dc26 113e 93d3 33be 0b03 04bd 37c7 a2bb
000003f0: 3c00 a6bb c633 233e 49f3 c9bc 1dc1 833d
-0.1382888 0.039820638 -0.10823998 0.14021114 0.20768437 0.15197065 0.08299945 -0.113041215
-0.010773427 -0.15626319 0.07828157 0.15509455 -0.007308292 -0.016245903 0.122915015 -0.0901819
0.19733554 0.057365164 -0.06367721 0.10377763 0.08869672 -0.012321802 0.18211025 -0.17494766
0.20925826 -0.14520152 0.062421698 -0.046983007 -0.018810982 -0.0021489782 0.16080227 -0.08198108
0.12547489 0.0068405597 0.018749679 0.027240034 0.04351639 0.018865814 -0.15423828 -0.12860847
0.117452264 0.11949154 0.051338084 0.027286293 -0.046704248 0.15220359 0.15427515 0.11816138
-0.08290714 0.06796791 0.031750012 0.057307933 0.1281941 0.16410592 0.04178744 0.11973878
-0.077106416 0.11879487 0.067251794 0.18035336 0.020318791 0.16052893 0.0012076084 0.041870937
0.17999047 0.15906535 0.18481126 -0.08460429 -0.099752694 -0.102521755 -0.038551055 0.20600244
0.18445979 0.10259367 -0.0026739095 0.11172396 0.107430264 -0.17207953 0.029736992 0.13416569
-0.02157283 -0.16030332 -0.024914498 0.1744715 -0.045823127 -0.14859627 0.20290495 0.06732895
0.075652 0.06751088 0.0944688 -0.1184871 -0.16885532 -0.005616128 -0.0042444943 -0.16366245
0.18455577 -0.08865774 -0.15580603 0.01944412 -0.028554998 -0.026437256 -0.1286027 0.103450865
-0.09672315 -0.009467323 0.1296075 0.14387624 0.16668017 -0.08444081 0.11019327 -0.07549608
-0.1362579 0.010952622 0.064130016 0.14538142 -0.10431467 0.011386802 0.018514901 -0.09201953
0.15821128 -0.11326834 -0.15935329 -0.0022417475 0.05164261 -0.13620217 0.1782932 0.12986703
-0.08046547 -0.0772714 0.008155964 0.18903753 -0.016103026 0.12566033 -0.07504453 0.027734341
0.18612364 0.08165489 0.096276075 -0.074843824 0.033271573 0.19946113 -0.026178591 -0.05113365
0.20001534 -0.00783002 0.19555368 0.07351132 0.10915459 0.090105414 0.21037462 -0.1027596
0.10602823 -0.10715556 0.16582151 0.19958243 0.14214122 0.09844513 0.19482796 -0.0032229484
-0.063187964 0.06234808 -0.024172205 0.124759175 -0.015095125 -0.1473413 0.06133268 0.17256105
-0.09198089 0.18294533 -0.078511395 -0.121618524 0.10304913 0.06941763 -0.024649484 0.19069347
-0.027718332 0.14358331 -0.00064874534 0.18374532 -0.10328239 -0.031483665 0.097168796 -0.01898136
-0.049904596 -0.110647425 0.15006047 0.12969966 -0.025142444 0.17822677 -0.017109169 0.09649968
0.052611403 0.16141492 0.084976085 0.12318343 0.09509706 0.1564594 -0.0070363125 -0.063930355
0.11409755 -0.11315788 -0.16024864 -0.097100735 -0.14275245 -0.11276733 -0.016151026 0.044408847
-0.06611097 -0.040494826 0.1340656 -0.010165996 0.098700486 -0.10530343 -0.15723127 -0.12370243
0.044602282 0.105440065 0.09071149 -0.024237346 0.17293891 -0.12677982 -0.10135994 -0.07074222
0.12542206 -0.053413574 0.059218436 -0.15938383 -0.020344919 0.18673271 -0.019795768 -0.13814141
0.10212622 -0.11966114 0.0780978 -0.07207084 0.19713289 -0.08204219 -0.0066510127 -0.020958912
0.07348765 -0.03185078 0.17041805 0.08354784 0.06678793 -0.006591806 0.027041823 -5.072373e-05
0.1417498 -0.17561178 -0.032229465 -0.004967596 -0.005065946 0.15937719 -0.02465214 0.06433318

mono.3.bias f4 [32]
00000000: feca b5bc 6228 f8bd 0ddd 1b3d 71b7 e6bc
00000010: d0c0 aebd 73ef 243e de64 273e 1aa4 643d
00000020: 717f 123d db49 93bd cc11 cf3d cf99 b3bd
00000030: 3143 d0bd ef7d 113e 59cb 123e ab93 263e
00000040: 6d21 933c 44cf af3d 6615 c2bb 5e5f 4dbc
00000050: f3a6 3d3e 8217 343e 192b 413e 91c0 383e
00000060: 7baa 3c3e 029b 35bc fc17 e23d 24cf 833d
00000070: 8d33 93bd 0c3d 54bc 296c 8f3d e557 a9bd
-0.02219152 -0.121170774 0.038052607 -0.028163644 -0.0853287 0.16106968 0.16347072 0.055820562
0.03576607 -0.07191821 0.10110816 -0.08769571 -0.10169066 0.14208196 0.14335383 0.16267268
0.017960275 0.08584455 -0.005922961 -0.012534944 0.18520717 0.17587093 0.18864097 0.18042208
0.18424408 -0.01108432 0.11039731 0.06435993 -0.07187567 -0.012954008 0.07003052 -0.08268718

mono.4.weight f4 [1, 32]
00000000: ee83 523e f0b3 cabd 0d97 443e e5f1 653c
00000010: 2de5 2f3e 93c8 393d 7b45 c23d 5256 aa3d
00000020: 8b41 9fbd 9820 c4bd 7b73 11be 8b2f 293e
00000030: ff6a 4bbd bd70 00be 2b38 26be 807d 20be
00000040: 8fb3 9c3c 02f0 72bd 815e 0dbd e0a6 1bbe
00000050: 6dd9 b0bd daee ff3d 0bcb acbc cbcd cd3d
00000060: 90a3 0f3d 94f0 563e 1a00 7b3c 0826 443e
00000070: 3217 803d 1e73 1cbd b05b 61bb 24a2 213e
0.2055814 -0.098976016 0.19198246 0.014034723 0.17177267 0.045357298 0.094859086 0.083172455
-0.07776173 -0.09576529 -0.14204209 0.16522042 -0.049662586 -0.12543006 -0.16232364 -0.15672874
0.019128589 -0.05931092 -0.034513954 -0.15200377 -0.08635221 0.12496729 -0.021092912 0.100490175
0.035068095 0.20990211 0.015319848 0.19155133 0.06254424 -0.03819572 -0.0034386925 0.15784508
