models/auto-0.pth (torch, 6994 bytes, 15 tensors)

pre_mono.0.weight f4 [8, 4]
000000 cc 6a a0 bc d2 ed f0 3d 2e 6c 2a bf 06 41 67 3e
       -0.019582175 0.117641106 -0.6657132 0.22583398
000010 17 92 d1 3e 4a f0 a3 3e 58 4b 5e 3e c1 c5 06 3f
       0.4093177 0.32019264 0.21708429 0.526455
000020 09 61 ef be ab c6 dd 3e 26 d8 2d be a7 ce 01 bf
       -0.4675372 0.43315634 -0.16976985 -0.5070595
000030 a7 b7 6f be fb ab 07 3f c5 6b cc bd b4 00 97 be
       -0.23409902 0.52996796 -0.09981493 -0.29492724
000040 d8 1f 0a 3f 80 7a a0 be 6d 37 5a be c3 63 de bd
       0.5395484 -0.3134346 -0.21310206 -0.10858872
000050 9f 76 95 bd b3 b8 f9 bd 28 bc 0a 3f 62 76 58 3d
       -0.07298016 -0.12193432 0.54193354 0.052847274
000060 1a 86 1b bf 31 06 4f 3e 14 e8 14 bb dd 7b 46 3e
       -0.607515 0.20217206 -0.0022721337 0.19383188
000070 ec 0d c4 3e 94 89 a3 3d 8e 0b 81 be 72 ba c8 3e
       0.38291872 0.07985225 -0.25204128 0.39204746

pre_mono.0.bias f4 [8]
000000 78 c7 da 3e 07 22 dd 3e a2 46 e5 3d 61 ae 86 bd
       0.42730308 0.43190023 0.11195113 -0.06576229
000010 24 e6 35 bd 4d 90 b1 3c df b1 e8 3e 4e 38 bf 3d
       -0.044408932 0.021675253 0.45448205 0.09336911

pre_mono.1.weight f4 [8, 8]
000000 62 a6 9d be 2a aa d1 3e 1a 25 93 3e 86 8b 72 3e
       -0.30791003 0.40950137 0.28739244 0.23686036
000010 89 0e 9d 3e 96 93 86 3e 83 1e c2 3d b3 fa 25 3e
       0.30675152 0.26284474 0.09478476 0.16208915
000020 e8 22 2b be fc a6 0e 3e c4 72 e9 be be bb b8 3d
       -0.16712534 0.13930887 -0.45595372 0.09020184
000030 89 5f b0 be ca d2 99 3e a5 e9 88 be 50 ea b7 be
       -0.34447888 0.30043632 -0.26740757 -0.35920954
000040 10 8d 7c 3e 05 42 43 3e 8b 7a 8f be db 28 4c 3d
       0.24663186 0.19068153 -0.2802318 0.04984365
000050 b4 ce f3 bd 0b 19 d5 3d 17 bb 44 be 1c 39 8c be
       -0.1190466 0.10405167 -0.19211994 -0.2738732
000060 80 cf 85 be eb c2 bf bd 13 7f 0a be b2 f4 65 be
       -0.26134872 -0.093633495 -0.13525037 -0.22456625
000070 87 a8 25 3e 96 dc 02 3f 13 53 b9 3e 08 92 73 be
       0.1617757 0.5111784 0.36196193 -0.23786175
000080 29 06 35 3c f2 f3 3b bf cf a4 ab 3d 80 1e a8 be
       0.011048832 -0.73419106 0.08381044 -0.3283577
000090 96 1b 28 3e 3e 80 a1 3e 97 3b f6 bc 37 ce 69 3e
       0.16416773 0.31543154 -0.030057712 0.22832571
0000a0 44 d0 5d be 4a 1c f7 bd a6 7e 4a be 91 bf 36 3d
       -0.21661478 -0.120659426 -0.19774875 0.044616286
0000b0 c4 20 a7 be 96 39 8f 3c ce 2f dc bc 18 cf 29 3e
       -0.32642186 0.017483514 -0.026878264 0.16582906
0000c0 62 ae 89 be 5f ba 17 bd dd 27 3d 3d 98 46 7c be
       -0.26890856 -0.03704297 0.046180595 -0.24636304
0000d0 b6 2a 53 bd 56 8d 65 be 07 68 3a 3d 2b 12 ae bd
       -0.051554404 -0.22417197 0.045509364 -0.08499559
0000e0 3b 5f 32 bd eb 62 54 3e 97 f1 25 be 14 9a 56 3d
       -0.04354785 0.20740859 -0.1620544 0.052393034
0000f0 61 24 0f 3e 2f e5 db 3d 7e 22 bc 3e 8a d0 8d bd
       0.13978721 0.10737073 0.36745065 -0.06924541

pre_mono.1.bias f4 [8]
000000 95 35 cd 3e fd 68 89 be 33 fe 93 be 25 0a bc 3e
       0.40079942 -0.26837912 -0.28904876 0.3672649
000010 4a 0f 6b 3e bb c0 fa 3a 9c 81 41 be 1b ed f5 3e
       0.22955051 0.0019130924 -0.18897098 0.4803246

pre_mono.2.weight f4 [8, 8]
000000 74 26 f1 3e 7b 65 12 3e 6c 8d 90 be df ac f4 3d
       0.4709965 0.14296524 -0.28232896 0.11947035
000010 f9 38 3c 3f 39 26 4a be b7 63 2e bc f5 37 cc 3e
       0.73524433 -0.19741143 -0.010643891 0.39886442
000020 2c 5b 0c 3e 36 af 4b be 42 08 67 be ae 60 15 3f
       0.13706654 -0.19891056 -0.22561744 0.58350646
000030 cd cc 78 3e 2e fd b4 3d d2 2c 38 be e7 53 9f 3e
       0.24296875 0.08837353 -0.17985848 0.311187
000040 8c 62 e7 3e 96 0c 8b be b1 21 97 3e f7 d3 2a 3e
       0.45192373 -0.2715804 0.29517892 0.1668242
000050 2a 79 72 3d 3b 1e af bd 63 79 12 be 95 34 47 3e
       0.059197582 -0.08550688 -0.14304118 0.19453652
000060 14 75 84 3e cc 1a 41 be 74 d2 12 3e 9f f2 02 3f
       0.25870574 -0.18857878 0.14338094 0.5115146
000070 06 e9 34 3f 90 09 95 bd 5e 5f 16 be f5 bf b6 bd
       0.70668066 -0.072772145 -0.14684817 -0.08923332
000080 14 cf a4 3d 26 46 7a 3e 66 2d d7 3d 23 78 73 3e
       0.080473095 0.24440822 0.10506706 0.23776297
000090 3e 7f db 3e fd 2b 33 be 15 60 80 be f7 11 8f 3e
       0.42870516 -0.17497249 -0.25073305 0.27943394
0000a0 d2 c4 bb 3e 65 66 1d 3e 26 f5 54 be 04 e9 2d 3e
       0.366736 0.15371092 -0.20796642 0.1698342
0000b0 66 bb 11 3f 29 a8 e2 bd 40 91 10 3e dd 6d d9 3d
       0.5692657 -0.1106723 0.14117908 0.10616658
0000c0 d5 2e 70 3e b5 4b 83 be 7f 73 36 bd c9 84 b1 3e
       0.23455365 -0.25643697 -0.04454374 0.3467162
0000d0 7e 5a 0c 3e 2c d6 02 be df 5b 3b be 26 51 cc 3e
       0.13706395 -0.12777013 -0.18296765 0.3990566
0000e0 d2 9e 3e 3e c4 6e 0d be 76 5c 97 3d 76 3a 8b 3e
       0.18615273 -0.13811785 0.073906824 0.2719304
0000f0 fb cb eb 3d 6f 9b a3 3d 74 49 a2 be ba 5d 04 3f
       0.115135156 0.07988631 -0.31696665 0.51705515

pre_mono.2.bias f4 [8]
000000 f2 8e 1e 3e 00 88 d9 3e 29 a1 f2 3e 7c 4d 01 be
       0.15484217 0.42486572 0.4738858 -0.12627214
000010 ab 42 fe bd c9 e7 6e 3e 27 48 f3 3e 52 2b 53 3e
       -0.1241506 0.23330607 0.47515985 0.20621994

mono.0.weight f4 [8, 11]
000000 92 ee 46 be f4 3f b8 3e b4 23 d6 be 97 7a bb be
       -0.19426945 0.35986292 -0.41824114 -0.36616966
000010 a8 59 5a be 64 96 8b 3e ff 7b 42 be 63 a1 dd 3e
       -0.21323264 0.27263176 -0.18992613 0.4328719
000020 72 21 57 be a6 78 8b 3e bb 7c ab be fd 2a 82 be
       -0.21008852 0.27240485 -0.334936 -0.25423422
000030 30 51 fd be 02 ae c1 be 7c de 89 be df eb de 3d
       -0.49476004 -0.3782807 -0.26927555 0.108848326
000040 66 c4 a1 3e 63 f3 be 3e 93 20 ce be e8 9f a7 be
       0.31595153 0.37295064 -0.40259227 -0.32739186
000050 49 f1 a0 3e 01 cd 00 3f f1 65 83 be 18 78 dc 3e
       0.31434086 0.5031281 -0.25663713 0.43060374
000060 12 e9 67 be 5c db 34 3e aa e4 bd 3e 1b 6c f3 be
       -0.22647503 0.17661804 0.3708852 -0.47543415
000070 fd ec c2 be 85 39 8c be 8c f7 9e be d7 88 ec 3e
       -0.38071433 -0.27387634 -0.31048238 0.4619815
000080 3d a1 e2 be 65 a0 a9 be 8b af d1 be b3 68 e8 be
       -0.4426364 -0.33130184 -0.4095424 -0.4539238
000090 ed 05 a4 be db aa b6 3e 8b 9f a7 3e 5e 84 a9 3e
       -0.3203577 0.35677227 0.3273891 0.331088
0000a0 15 23 57 3e 82 7f ad be 28 eb 79 3e 8c c4 05 bf
       0.21009476 -0.33886343 0.24406111 -0.5225303
0000b0 60 dc d2 be 03 79 b7 be f7 bf bb 3e c9 f8 a4 3e
       -0.41183758 -0.35834512 0.36669895 0.32221058
0000c0 16 2f 6d be da aa 52 be cd 99 c3 3e e1 15 fe 3e
       -0.23162493 -0.20572987 0.38203278 0.49626067
0000d0 b0 11 9e 3e 5a cf 73 3e 2d 5d e3 3e 7c 73 bf be
       0.3087287 0.23809567 0.44407025 -0.37392795
0000e0 c2 15 88 3e 60 77 d4 be cf 81 b5 be 15 8c 81 be
       0.265791 -0.41497326 -0.354506 -0.25302187
0000f0 32 fb aa 3e 50 d5 a1 3e c2 f3 c1 be e7 6e 95 3e
       0.33394772 0.31608057 -0.37881285 0.29186174
000100 1e fb bf 3e 5f fc 97 be d0 18 50 3e 23 7d 8b 3e
       0.37496275 -0.2968473 0.20321965 0.2724391
000110 aa 33 b9 3e 62 3f dc 3e a6 83 a7 be de 3e 9b be
       0.3617223 0.43017107 -0.32717627 -0.303214
000120 10 06 9d 3e 41 c2 e3 3e 10 dd ea 3e 3d ad f1 3e
       0.30668688 0.4448414 0.45871782 0.47202483
000130 aa 03 a0 3e b6 79 ea be b2 d3 73 3e 8c a4 bd be
       0.31252795 -0.45795983 0.23811224 -0.37039602
000140 da 4c d9 be 98 f0 ba 3e 92 93 d9 3e cd 4b fe be
       -0.42441446 0.36511683 0.424954 -0.49667206
000150 7d 08 84 3e d9 f1 82 be 2c c3 86 be 8a 51 ce be
       0.25787726 -0.2557514 -0.2632078 -0.40296584

mono.0.bias f4 [8]
000000 3b 35 8e 3e 54 f4 45 bb 8b 4a 91 3e 25 c5 a1 3e
       0.27774987 -0.0030205445 0.28377184 0.31595722
000010 93 c7 c5 3e f7 51 95 3e f4 02 03 be 95 df 85 bc
       0.38628826 0.29164097 -0.12794095 -0.016341964

mono.1.weight f4 [8, 8]
000000 77 83 c6 3e 88 32 95 3e 1e 0f 78 be 24 2b 44 be
       0.38772175 0.29140115 -0.24224517 -0.19157082
000010 69 6a 0a 3f 43 d7 e4 3e 87 a5 c1 bd a7 cf 62 bd
       0.5406862 0.44695482 -0.094554 -0.055373814
000020 2e 5d a9 be 95 db 52 3e 51 ed 6b be e1 3b 85 be
       -0.33078903 0.20591576 -0.23039748 -0.26022246
000030 e4 95 9f bc 8f 82 84 3e a9 7d 1c bd 4d 10 db 3e
       -0.019480653 0.25880858 -0.038205776 0.42785874
000040 49 2a 56 be 6c 5b 07 3f d0 ee e1 3e 00 4c 91 be
       -0.20914568 0.52873874 0.44127512 -0.28378296
000050 25 36 b4 bd 4c 04 5c 3e 8f db 84 3e 98 61 98 3e
       -0.0879939 0.21486014 0.2594876 0.29761958
000060 f0 57 51 3e 57 5a 9d 3d 4d 7c 08 be 88 d2 66 3e
       0.20443702 0.076832466 -0.13328667 0.22541249
000070 81 a4 ad be 8f 5b 44 be 0e c1 70 bc 96 dd 04 be
       -0.3391457 -0.19175552 -0.014694465 -0.12975153
000080 ec 01 f1 bd 94 a5 70 be 90 15 09 bd 1c 11 90 3e
       -0.11767945 -0.23500663 -0.03346783 0.28138053
000090 16 db 6b be 11 14 09 3e fd 1a ef 3e f5 fc 25 3e
       -0.23032793 0.13386561 0.46700278 0.16209777
0000a0 96 b1 56 3e 6a e5 31 3e 58 94 89 3e a6 ef d7 3e
       0.20966181 0.17372671 0.2687099 0.42175025
0000b0 d1 d3 07 3f 96 04 d8 3e 4f d6 0a 3f fa 9e 3d 3e
       0.5305758 0.42191 0.5423326 0.18517676
0000c0 f2 89 9f be 82 9c f0 bd f3 7d e3 3e 01 f4 4c 3e
       -0.3115993 -0.117486015 0.4443203 0.20014955
0000d0 33 f3 33 be fa e4 81 be 8b 54 7f be 5a 04 83 be
       -0.17573242 -0.25370008 -0.24934594 -0.25589257
0000e0 b9 94 86 bd e4 d1 cd 3e fc ca c7 3e 96 32 a4 be
       -0.06571335 0.40199196 0.39022052 -0.32069844
0000f0 83 0d d6 3e ae 71 83 be 78 6b d5 3d 8d fa bf bd
       0.41807184 -0.25672668 0.10420889 -0.09373961

mono.1.bias f4 [8]
000000 2b 30 d2 3d 4b 0d d4 3d b0 f8 1d be cb b7 79 be
       0.102630936 0.10354098 -0.15426898 -0.24386518
000010 2f ee ea 3d b0 52 28 3e 1b 57 b9 3b d5 64 97 3e
       0.11471211 0.16437793 0.0056561357 0.29569116

mono.2.weight f4 [8, 8]
000000 43 8a 95 be 4e cb 40 3e 00 7c 07 3f aa db a5 bd
       -0.29207048 0.18827555 0.52923584 -0.08098538
000010 1f c5 08 3f bb 8c aa 3e 12 ff 84 be 19 03 d9 3e
       0.5342578 0.33310494 -0.25975853 0.42385176
000020 0b 93 0f bc ed 3d e8 bd 47 bf fe 3e 85 2c 67 be
       -0.008763085 -0.113399364 0.49755308 -0.22575577
000030 40 e2 7e 3e db 4c 8b bd 72 27 ee 3e 4c cc 95 3e
       0.24890995 -0.068017684 0.4651447 0.2925743
000040 41 d3 c3 3e 51 e7 ae 3e 4f 03 b0 3d 97 4f ec 3d
       0.3824711 0.34160855 0.08594381 0.11538618
000050 d9 f3 73 be 48 6a cf 3e 33 6d 00 3f 5b 4f e7 3e
       -0.23823489 0.40510774 0.50166625 0.4517773
000060 99 e5 66 be 08 bf 6f 3e 3a 35 48 be cf a5 11 be
       -0.22548522 0.23412716 -0.19551554 -0.14223407
000070 0e 56 31 be 59 66 a9 3e 7d 58 28 be a9 e0 df ba
       -0.17317984 0.33085898 -0.16440006 -0.0017080504
000080 46 c4 57 3e 84 f3 e0 3e 4e 29 52 be eb ac 3e be
       0.21070966 0.43935788 -0.20523569 -0.1862065
000090 70 ec 25 be 07 da e2 3e bf 74 8b bd 0e 90 f9 3e
       -0.16203475 0.44306967 -0.06809377 0.48742718
0000a0 4e d2 aa 3e dd 24 85 3e 8f 75 5b 3e 02 e6 8d bc
       0.33363575 0.26004687 0.21431564 -0.01732159
0000b0 bd 51 85 3e 3e 0a 99 bd 15 72 54 3e 73 b2 7c 3e
       0.26038924 -0.07472657 0.20746644 0.24677448
0000c0 16 e8 81 be 4f e5 16 be 22 24 00 3f c9 1b 6c be
       -0.2537238 -0.14735912 0.50055134 -0.23057474
0000d0 11 13 32 3e a2 9f 0c 3f c1 66 ae 3e e1 d1 50 3e
       0.17390086 0.5493108 0.3406277 0.20392562
0000e0 84 9d 91 be 4b fa c6 3e 46 ea 3e be ad 55 20 bd
       -0.28440487 0.38862833 -0.18644056 -0.039144207
0000f0 36 fc aa bd e5 da 3d bd ff 74 61 3e e1 bd fb 3e
       -0.08348887 -0.046351332 0.22017287 0.49168304

mono.2.bias f4 [8]
000000 1b 39 4d 3e 02 19 ee 3e f9 a3 c6 3e 99 6e 7c bd
       0.20041315 0.46503454 0.38796976 -0.06162891
000010 9e 83 98 3e 28 a6 bb bd 9a 86 ea ba f9 1e 85 3e
       0.29787916 -0.09162551 -0.0017892898 0.26000193

mono.3.weight f4 [8, 8]
000000 39 75 a4 3e de dd ea 3e 8c 17 e9 bd 76 63 38 3e
       0.32120684 0.45872396 -0.11381444 0.18006691
000010 f4 15 c1 3e f1 e2 96 be c8 f0 ee 3e bf 4b 8f be
       0.3771206 -0.29470018 0.46668077 -0.27987477
000020 b4 c1 4d 3d e8 35 76 bd 0d ad 3e be 73 67 3f 3d
       0.050233558 -0.060110003 -0.18620701 0.046729516
000030 7b d6 ac 3e 80 40 82 bd 28 fe 34 be 4c 2f f8 bd
       0.33757386 -0.06359959 -0.17675078 -0.12118396
000040 43 8d a6 be 48 74 b4 3e c1 df 2d be 92 9a 3c be
       -0.3252965 0.35244966 -0.16979887 -0.18418339
000050 2c 92 50 be ba 50 c5 3e 6a ba cb 3e d3 59 ed 3e
       -0.2036826 0.38538152 0.3979066 0.46357593
000060 04 07 a8 3e 0a d0 f1 bd 92 57 ca bd 56 a1 90 3e
       0.32817852 -0.118072584 -0.09879984 0.2824809
000070 21 e1 f5 3e f1 c9 8d 3e 41 39 06 be e7 24 20 be
       0.48023322 0.27693132 -0.13107778 -0.15639077
000080 87 52 a1 be 91 f6 ce 3d 76 2b 4b be 2d b2 95 be
       -0.31508276 0.101056226 -0.19840798 -0.292375
000090 00 9e a7 3e 26 81 53 be 8f 9f 93 bc cc c9 f7 3d
       0.32737732 -0.20654735 -0.01802042 0.120990366
0000a0 dd d9 6c 3e f5 9b 73 be 65 52 92 be bc 2a ee 3e
       0.23129983 -0.23789962 -0.28578487 0.4651698
0000b0 84 60 8b 3e 9d 6e f5 3e 89 8c 89 bd a4 70 a2 3e
       0.27222073 0.47935954 -0.06716258 0.31726563
0000c0 4a 94 a5 bd 5c cd 80 bc 5f 7f 5c be 89 ad 70 3e
       -0.080849245 -0.015722923 -0.21532963 0.23503698
0000d0 90 bc 63 3e a5 fc ee bb b8 d8 a2 bd e2 2b 5f be
       0.222399 -0.007293301 -0.07951492 -0.21794084
0000e0 7f f5 ea 3e 52 c1 86 be 75 cf b4 3e ca eb 60 bd
       0.45890424 -0.26319367 0.35314527 -0.054912366
0000f0 0d ac 2e be aa 5a 7e 3e 17 dd 09 be 70 05 93 3e
       -0.1705782 0.24839273 -0.13463245 0.28715086

mono.3.bias f4 [8]
000000 6d 20 53 3e ff 18 5f be f4 f1 47 3e 6b f4 8e 3e
       0.20617838 -0.21786879 0.19525892 0.2792085
000010 0f 99 27 3e 85 3b 03 3e 91 bd 4e be 08 ea d6 3d
       0.16366981 0.12815674 -0.20189501 0.10493857

mono.4.weight f4 [1, 8]
000000 fd d3 a3 3e a9 c7 b6 bd 84 5f aa 3e 18 25 d9 3e
       0.31997672 -0.08924801 0.33275998 0.42411113
000010 6f f5 2b be 19 17 60 3e 51 38 88 3e 38 9b 6d 3e
       -0.16792844 0.21883811 0.26605466 0.23203743
