models/auto-1.pth (torch, 31186 bytes, 15 tensors)

pre_mono.0.weight f4 [32, 4]
0	0x3eda6bb0	0.42660284
1	0xbef272be	-0.47353166
2	0x3ec89e02	0.3918305
3	0xbd20d70a	-0.039267577
4	0x3e4c277c	0.19936937
5	0x3ed9d16d	0.42542592
6	0xbe2752dd	-0.16340204
7	0xbf0984f2	-0.53718483
8	0x3e0a486a	0.13504186
9	0xbef2d8dc	-0.47431076
10	0x3eedad41	0.46421245
11	0x3d05bce5	0.032650847
12	0xbeb68b30	-0.35653067
13	0x3db2d660	0.08732295
14	0x3e4b318e	0.19843122
15	0xbe10a5b6	-0.14125714
16	0x3e8d6c23	0.27621564
17	0x3cd21934	0.025646783
18	0xbebbc45b	-0.36673245
19	0x3e6bdea5	0.23034151
20	0x3e5acd1f	0.2136731
21	0x3e4fa61f	0.20278214
22	0xbca4fae7	-0.02013917
23	0xbed01713	-0.40642604
24	0xbd84f734	-0.06492463
25	0xbdab3c7a	-0.08361144
26	0xbf002688	-0.50058794
27	0xbe52b7f2	-0.20577982
28	0x3e2c7664	0.16842037
29	0x3ef61425	0.48062244
30	0xbe8f381b	-0.27972493
31	0xbe0f6395	-0.14002831
32	0xbe2bef1a	-0.16790429
33	0xbe849828	-0.25897336
34	0xbe4eefc9	-0.20208658
35	0xbf01e90c	-0.50746226
36	0xbdc99988	-0.09843737
37	0x3ec5a002	0.3859864
38	0xbe7a348c	-0.24434108
39	0xbe9d068c	-0.30669057
40	0xbec8a95b	-0.39191708
41	0xbe87963b	-0.26481804
42	0x3efeb597	0.49747917
43	0xbeade4f8	-0.33963752
44	0xbee6f696	-0.45110005
45	0x3e02f95c	0.12790436
46	0xbe92ef1e	-0.28698057
47	0xbc829018	-0.01593785
48	0xbed93ba7	-0.42428324
49	0xbe84d294	-0.25941908
50	0x3ecb54b3	0.39713058
51	0xbf04f815	-0.51941043
52	0xbed00115	-0.40625826
53	0x3e781f2f	0.24230646
54	0x3e078859	0.13235606
55	0x3d282882	0.041054256
56	0x3ef75481	0.4830666
57	0x3d3f3d63	0.046689402
58	0xbd34f4bc	-0.04417871
59	0xbec69b02	-0.38790137
60	0x3ebab1e3	0.36463842
61	0xbd49ada5	-0.049237866
62	0xbe85c839	-0.2612932
63	0xbe1e04de	-0.15431544
64	0xbe22e4b6	-0.15907559
65	0xbde962dc	-0.11395809
66	0x3efee4da	0.49783975
67	0x3ed29ebd	0.41136733
68	0xbec00e37	-0.37510845
69	0xbea0acec	-0.3138193
70	0x3dd7b320	0.10532212
71	0xbe987c69	-0.29782417
72	0xbe04abd3	-0.1295617
73	0xbebd1b90	-0.3693509
74	0xbdc1a104	-0.094545394
75	0x3dfc1110	0.12307942
76	0x3ecf09a2	0.40437037
77	0x3e38da56	0.18052039
78	0x3e7c2bd6	0.24626097
79	0xbed2de49	-0.41185215
80	0x3dc23952	0.09483589
81	0xbbaa6beb	-0.005200853
82	0x3eba906b	0.36438307
83	0x3ebe6952	0.37189728
84	0x3db909ad	0.09035049
85	0x3e8d8886	0.27643222
86	0xbef7454b	-0.48295054
87	0xbe975575	-0.29557386
88	0xbeee9f13	-0.4660574
89	0xbed9e6bc	-0.4255885
90	0xbe884783	-0.2661706
91	0x3c2634bf	0.010144412
92	0xbea7445d	-0.32669345
93	0x3e3bed3b	0.18352215
94	0xbd385eee	-0.045012407
95	0x3e553b42	0.20823386
96	0x3ece3de5	0.40281597
97	0x3e8a9569	0.27067116
98	0x3e8c7ffb	0.2744139
99	0xbe606c25	-0.21916254
100	0xbef0db21	-0.47042182
101	0xbeed7810	-0.46380663
102	0xbeed69be	-0.46369737
103	0xbdfd59fc	-0.12370679
104	0x3ea97439	0.33096483
105	0x3efead42	0.4974156
106	0x3edf1207	0.4356844
107	0x3efa7dfe	0.4892425
108	0xbdb66331	-0.08905638
109	0xbe0142ce	-0.1262314
110	0xbe23a7e1	-0.1598201
111	0x3c97e83f	0.01854336
112	0xbef80dbb	-0.48447976
113	0xbe999bd9	-0.30001715
114	0xbe6b811d	-0.22998472
115	0xbd7d82ed	-0.06189244
116	0x3dcd97f6	0.1003875
117	0xbee72c70	-0.4515109
118	0xbea59162	-0.3233748
119	0x3e124fe0	0.14288282
120	0xbed34c16	-0.41268986
121	0x3e9424ec	0.2893442
122	0xbe9119bc	-0.28339946
123	0xbe4daebc	-0.20086187
124	0xbe102459	-0.14076366
125	0x3ed5ca38	0.41755843
126	0x3e5e10ee	0.21686146
127	0xbc72c217	-0.014816782

pre_mono.0.bias f4 [32]
0	0x3e5f02aa	0.2177836
1	0xbe7da354	-0.24769336
2	0x3e886fb6	0.2664773
3	0xbe107d84	-0.1411038
4	0x3edc6399	0.43044737
5	0x3e302ec7	0.17205344
6	0xbeccc322	-0.39992625
7	0xbd9bbab0	-0.07603967
8	0x3dcbed14	0.099573284
9	0x3eddeb9f	0.43343827
10	0x3ec48733	0.383844
11	0xbea6c144	-0.32569325
12	0xbea0110a	-0.31263
13	0x3eb7744f	0.35830924
14	0xbd790fde	-0.060806148
15	0xbeaa8394	-0.3330351
16	0x3eae388d	0.3402752
17	0xbe909d06	-0.282448
18	0xbe02c2fb	-0.12769692
19	0x3daf33ab	0.08554777
20	0xbe96e703	-0.29473123
21	0x3eed45df	0.4634237
22	0x3ee96f58	0.4559276
23	0x3eeaa2fc	0.45827472
24	0xbdcffebc	-0.101560086
25	0x3e3d6150	0.18494153
26	0x3c4b8a3b	0.012423093
27	0x3e034ae9	0.12821545
28	0x3e88f784	0.2675134
29	0x3f0005ff	0.5000915
30	0x3ecf71d7	0.4051654
31	0x3e99a6bb	0.30010018

pre_mono.1.weight f4 [32, 32]
0	0xbd5f99f4	-0.05459018
1	0xbd1b5221	-0.03792012
2	0x3d669298	0.056292146
3	0x3e290dca	0.16509166
4	0x3ddcf54d	0.10788975
5	0x3dbfa23a	0.09357114
6	0xbd88cbce	-0.06679498
7	0xbdff552c	-0.12467417
8	0x3db6a755	0.08918635
9	0x3e2fcbeb	0.17167632
10	0x3e33d237	0.1756066
11	0xbd218900	-0.039437294
12	0x3df8f92d	0.121569015
13	0x3e055113	0.13019209
14	0x3cfaffbf	0.030639527
15	0xbe0723e3	-0.13197283
16	0x3ce0e5e5	0.027453372
17	0x3e41ae04	0.18914038
18	0x3b64fec7	0.0034941898
19	0xbdbe2040	-0.09283495
20	0x3d8f79d4	0.07005659
21	0x3d116c3c	0.03550361
22	0x3d96ba97	0.07359808
23	0x3dfdcc30	0.12392461
24	0x3b894017	0.0041885483
25	0x3df0fb1e	0.11766647
26	0x3d4cb82e	0.049980335
27	0xbdf58e02	-0.119899765
28	0x3db54620	0.08851266
29	0xbde02514	-0.10944572
30	0x3d2230f1	0.039597455
31	0xbdb3a82e	-0.08772312
32	0x3d0b8e4d	0.034071255
33	0x3e1fafad	0.15594359
34	0xbe2190e4	-0.15777928
35	0x3da4c4c9	0.08045346
36	0xbdb892f2	-0.090124026
37	0xbdc362e8	-0.09540349
38	0xbd73c730	-0.059516132
39	0xbe82d336	-0.25551766
40	0xbcff21f9	-0.03114413
41	0xbe0d901a	-0.13824502
42	0x3df7330b	0.120702825
43	0x3d274117	0.04083356
44	0x3e2eafd1	0.17059256
45	0x3e085f17	0.13317524
46	0xbd8c8630	-0.06861532
47	0x3e1e9b5d	0.15488954
48	0xbd89f219	-0.067356296
49	0x3c2c3230	0.0105100125
50	0x3c34838f	0.011017694
51	0xbd9931d3	-0.07480206
52	0xbd581cf6	-0.052761994
53	0xbe3355c7	-0.1751319
54	0xbe2af22e	-0.16693947
55	0xbe50f313	-0.20405225
56	0xbe0dae7f	-0.13836096
57	0xbdb7bf8e	-0.08972083
58	0x3df08ca3	0.11745574
59	0x3ca786c7	0.020450009
60	0xbd07b46e	-0.033131056
61	0xbd63de77	-0.05563208
62	0x3df599da	0.119922355
63	0x3e00ccb1	0.12578084
64	0x3e3a9985	0.18222626
65	0x3de8e52b	0.11371835
66	0x3dd92578	0.1060285
67	0xbd9d9df6	-0.07696144
68	0xbd87c71a	-0.066297725
69	0xbe0233ce	-0.12715074
70	0xbdbbd06b	-0.09170612
71	0xbd26d00a	-0.040725745
72	0x3dc35ecc	0.095395654
73	0xbc0f6d8d	-0.008754146
74	0xbe011a79	-0.12607755
75	0x3d98ce11	0.07461179
76	0xbd964b2c	-0.07338557
77	0x3e335512	0.1751292
78	0xbb5b5eb6	-0.00334732
79	0x3daf24a1	0.08551908
80	0xbd8fa396	-0.070136234
81	0x3d86fc4d	0.06591091
82	0xbe0f0c3d	-0.13969512
83	0x3dcd9820	0.10038781
84	0x3dbebdc6	0.0931354
85	0x3db8069b	0.08985635
86	0x3cd19867	0.025585366
87	0x3e39af15	0.18133195
88	0x3dbad12c	0.091219276
89	0x3e100386	0.14063844
90	0x3d471e59	0.048612926
91	0xbe04b356	-0.12959036
92	0xbc025db3	-0.00795691
93	0xbdbc5fa5	-0.0919793
94	0x3e09e6ed	0.13466997
95	0x3d951a5e	0.0728042
96	0xbca1a8cb	-0.019733807
97	0xbd7c70ad	-0.061630893
98	0xbc237387	-0.009976274
99	0x3e045c35	0.12925799
100	0x3de4f7bd	0.11180065
101	0xbd9a9c3b	-0.0754933
102	0x3c9b257b	0.01893877
103	0xbe0b6435	-0.13612445
104	0xbddd177d	-0.10795496
105	0x3e29aa10	0.1656878
106	0xbd8bcfae	-0.06826721
107	0xbd59edcc	-0.053205296
108	0x3e19754b	0.1498615
109	0xbc8292e2	-0.01593918
110	0xbc7d3cc9	-0.015456387
111	0x3d88f107	0.06686597
112	0x3db47acf	0.088124864
113	0xbd927ef6	-0.07153122
114	0xbcede2e8	-0.029038861
115	0x3dd5398f	0.10411369
116	0xbd66a14e	-0.056306176
117	0x3cfe5f24	0.031051226
118	0xbe007503	-0.12544636
119	0xbe0cfdb0	-0.13768649
120	0xbd3a11eb	-0.045427244
121	0x3e044c30	0.12919688
122	0xbdab5e38	-0.0836758
123	0xbccc7f39	-0.024963008
124	0xbe2ed592	-0.17073658
125	0xbe0978aa	-0.13424936
126	0x3d2177ce	0.039420895
127	0xbe21d905	-0.15805443
128	0x3da61917	0.08110254
129	0xbe4eaf5f	-0.20184086
130	0x3e1ea95e	0.15494296
131	0x3df5e315	0.12006203
132	0x3d38230d	0.044955302
133	0x3e28430d	0.16431828
134	0x3e2c0e27	0.16802274
135	0xbd3224f3	-0.04349227
136	0xbe0659da	-0.13120213
137	0x3e1e7285	0.15473373
138	0x3d057420	0.03258145
139	0x3d8f2b2c	0.06990656
140	0xbc69ef36	-0.014278224
141	0xbd68196c	-0.05666487
142	0xbd7b5363	-0.06135882
143	0x3e2ff884	0.17184645
144	0x3cf28619	0.029604958
145	0x3e05c9f8	0.13065326
146	0xbd27cbac	-0.04096572
147	0x3e398a4e	0.18119165
148	0x3e4e2e26	0.20134792
149	0x3d1cf976	0.038323842
150	0x3dadfb24	0.08495167
151	0x3d19fee2	0.03759659
152	0xbd8fabbb	-0.07015177
153	0x3ca3ee7a	0.020011175
154	0x3db659e9	0.08903868
155	0x3e1be555	0.15224202
156	0xbc2313f0	-0.009953484
157	0xbcb80be5	-0.02246661
158	0x3dfedc91	0.124444135
159	0x3e551308	0.20808041
160	0x3e043d9a	0.12914124
161	0x3bcbc1d6	0.0062181754
162	0x3cb52a2d	0.022114838
163	0xbd1f7b8c	-0.038936183
164	0x3e3e9457	0.18611275
165	0xbde584c6	-0.11206965
166	0x3d99724a	0.07492502
167	0xbdbaad51	-0.09115089
168	0xbca9f0f7	-0.020744784
169	0x3df9167f	0.12162494
170	0x3dc107a1	0.09425283
171	0xbe5d7072	-0.21624926
172	0xbdc034d8	-0.09385079
173	0x3da86ee8	0.08224279
174	0x3e0b3c0f	0.1359713
175	0x3c65c72b	0.014024536
176	0x3e429256	0.19001135
177	0xbca0c233	-0.019623851
178	0xbe22c452	-0.15895203
179	0xbdbc8bfd	-0.09206388
180	0xbd7a3e27	-0.06109443
181	0x3d933f4a	0.07189806
182	0xbd5bdb9f	-0.053676244
183	0x3d9cb92e	0.07652508
184	0xbe100456	-0.14064154
185	0xbe149499	-0.1450981
186	0x3e3d50e2	0.18487886
187	0x3df38bc0	0.118918896
188	0xbc0b7d7d	-0.008513805
189	0x3d89b972	0.06724824
190	0x3b85854b	0.0040747277
191	0x3e034e9c	0.12822956
192	0x3ca5aebc	0.020224921
193	0xbe7ccd39	-0.24687661
194	0x3a7f9c8b	0.0009750805
195	0x3d16f5aa	0.036855377
196	0xbe0928e9	-0.13394512
197	0xbad9df9d	-0.0016622428
198	0xbe288c49	-0.16459765
199	0x3cc21601	0.023692133
200	0xbdb4cb5d	-0.08827851
201	0xbdc24c29	-0.09487183
202	0xbc805263	-0.015664285
203	0xbe2142c8	-0.15748131
204	0xbe2b6b2b	-0.167401
205	0x3d1fb03c	0.03898643
206	0xbc30883b	-0.010774667
207	0x3dc3effc	0.09567258
208	0x3d96bb69	0.073599644
209	0x3e10a586	0.14125642
210	0xbe500688	-0.20314991
211	0xbdcc09fa	-0.099628404
212	0xbdfacf9a	-0.12246628
213	0xbdb70656	-0.08936755
214	0x3b51925a	0.0031978101
215	0xbdd23368	-0.10263711
216	0xbe184964	-0.14871746
217	0x3dd547f0	0.104141116
218	0x3c9d91ef	0.019234626
219	0x3df70a41	0.12062503
220	0xbd039f75	-0.032134492
221	0xbda4aba0	-0.08040547
222	0x3e01593b	0.12631695
223	0x3e0db09b	0.13836901
224	0x3c827040	0.015922666
225	0xbe67d6b9	-0.22640504
226	0xbe551182	-0.2080746
227	0xbc99c11b	-0.018768838
228	0xbe141127	-0.14459668
229	0x3dc2a289	0.09503657
230	0x3d4caf5d	0.049971927
231	0x3da91d3e	0.08257531
232	0x3db10ce8	0.0864504
233	0xbdaf05d9	-0.08546037
234	0xbe129edb	-0.14318411
235	0xbdc7ebcf	-0.09761774
236	0xbe67ab7d	-0.22624011
237	0x3e14a806	0.14517221
238	0x3e4d6e26	0.2006155
239	0x3e0f4be1	0.1399379
240	0x3d6b09d1	0.05738241
241	0xbcfd7dba	-0.03094374
242	0x3e084b01	0.13309862
243	0x3d925f51	0.071470864
244	0xbc36bf39	-0.0111539895
245	0xbe147107	-0.14496242
246	0x3d11a3cd	0.035556603
247	0xbda6995c	-0.0813472
248	0xbdc89cde	-0.09795545
249	0xbe12aae8	-0.14323008
250	0x3dc441a5	0.09582833
251	0x3d43dcbf	0.04781794
252	0xbd691594	-0.056905344
253	0xbe0cfa07	-0.13767253
254	0xbccdc847	-0.025119914
255	0x3dc6db71	0.09709824

pre_mono.1.bias f4 [32]
0	0x3e0cad4d	0.13737984
1	0xbd6ff276	-0.05858084
2	0x3e346737	0.17617498
3	0xbe2d7b73	-0.16941623
4	0x3e1aefec	0.15130585
5	0x3d863554	0.0655314
6	0x3e05b132	0.13055876
7	0x3e01a6c4	0.12661272
8	0x3e1ae8e2	0.151279
9	0xbd9b4d62	-0.07583119
10	0xbd202999	-0.03910217
11	0x3e7468b1	0.23868062
12	0xbccffd23	-0.02538926
13	0xbe0e79ff	-0.13913725
14	0xbdea295c	-0.1143367
15	0x3de3cab7	0.11122649
16	0x3dac0921	0.08400179
17	0x3e4d20b8	0.20032012
18	0x3e07224b	0.13196675
19	0xbd9e1182	-0.07718183
20	0x3de326b7	0.11091369
21	0xbe12d727	-0.14339887
22	0x3e184792	0.14871052
23	0xbbf4a2dd	-0.007465704
24	0x3d8fa4bd	0.07013843
25	0xbbcc991a	-0.006243837
26	0xbde1c280	-0.11023426
27	0xbc2c10bc	-0.010502037
28	0x3dd80294	0.10547367
29	0xbdc87e3b	-0.097897016
30	0x3e255cbf	0.16148661
31	0xbd2513ba	-0.040302016

pre_mono.2.weight f4 [32, 32]
0	0xbd7d9363	-0.061908137
1	0xbe2d93af	-0.16950868
2	0x3e192916	0.1495708
3	0xbdadbab9	-0.0848288
4	0x3e3ae1e5	0.18250234
5	0xbcc28dd1	-0.023749264
6	0x3adf0e0a	0.0017017734
7	0x3da5a7a8	0.080886185
8	0x3e0f2971	0.13980652
9	0x3c782649	0.015145847
10	0x3e148a4c	0.14505881
11	0xbc366b04	-0.011133913
12	0xbe067e3b	-0.1313409
13	0x3e3de055	0.18542607
14	0x3e424e50	0.18975186
15	0xbdacf262	-0.08444668
16	0xbdbf92eb	-0.09354194
17	0x3dc80edc	0.09768459
18	0x3e0382de	0.1284289
19	0xbd285049	-0.04109219
20	0x3dda4ca8	0.10659152
21	0x3e635083	0.22198682
22	0x3dbf94e7	0.09354573
23	0x3e0f9fb7	0.1402577
24	0x3dd10e8d	0.102078535
25	0x3e4096d4	0.18807536
26	0x3da80024	0.08203152
27	0x3c44f036	0.012020161
28	0x3d4f4519	0.050603006
29	0xbd046d73	-0.03233094
30	0x3dc5337e	0.09628962
31	0xbdade401	-0.08490754
32	0x3db0c6a2	0.08631636
33	0xbd6d31c4	-0.05790879
34	0xbe235523	-0.15950446
35	0xbdea918e	-0.114535436
36	0xbdc28ccd	-0.09499512
37	0x3e08a072	0.13342455
38	0x3d2d9519	0.04237852
39	0xbcadbd08	-0.021208301
40	0xbdcd113b	-0.10013052
41	0xbd8698bd	-0.06572101
42	0x3e275aab	0.16343181
43	0xbdfdc208	-0.12390524
44	0x3d7a16b4	0.061056808
45	0x3e2f56a7	0.17122899
46	0x3c30704d	0.010768962
47	0x3e43ca0c	0.19120044
48	0xbd739d33	-0.05947609
49	0x3d5a635f	0.053317424
50	0x3d764bb6	0.060130797
51	0x3e5513c0	0.20808315
52	0x3caf86ba	0.021426547
53	0xbaadef6f	-0.0013270209
54	0x3e1b9f16	0.15197405
55	0x3e14e1a6	0.14539203
56	0x3e1d83cc	0.15382308
57	0xbd856368	-0.06513101
58	0xbbd467b9	-0.0064820913
59	0xbe0700c4	-0.13183886
60	0xbd542a6d	-0.051798273
61	0xbdcb4529	-0.09925301
62	0x3d850978	0.06495947
63	0x3e3d5790	0.18490434
64	0x3e019076	0.12652764
65	0x3e1e3ba1	0.15452434
66	0x3e2239bc	0.15842336
67	0xbe0196bc	-0.12655157
68	0xbcca315d	-0.024681741
69	0xbe2386fa	-0.15969458
70	0x3e076f53	0.1322606
71	0xbe0bd0b7	-0.13653837
72	0xbbb86a56	-0.0056279106
73	0xbe0f12c3	-0.13972001
74	0x3e17065e	0.14748523
75	0x3d4d24c1	0.05008388
76	0xbe262f0f	-0.16228889
77	0xbe0eb5ee	-0.13936588
78	0x3d379662	0.04482115
79	0xbe1af071	-0.15130784
80	0xbd96f694	-0.0737125
81	0xbe2a7f0b	-0.16650026
82	0x3dccbe6c	0.099972576
83	0xbd4574fc	-0.048207268
84	0x3bc82feb	0.006109228
85	0xbd6cdb12	-0.05782611
86	0xbe1538f2	-0.14572504
87	0x3e32af6b	0.17449729
88	0xbe1909cd	-0.14945145
89	0xbe1dcfc1	-0.15411283
90	0x3e210f3c	0.15728468
91	0x3c95fb80	0.018308401
92	0x3d13da96	0.03609713
93	0x3c3c8a7d	0.011507628
94	0xbd8dfdfd	-0.0693321
95	0xbe188bb8	-0.14897048
96	0xbde48f3a	-0.11160131
97	0xbdf43441	-0.11924029
98	0x3e184b1d	0.14872403
99	0x3e1d2532	0.1534622
100	0x3defb76f	0.11704909
101	0x3d4a7a53	0.049433064
102	0x3d9fa728	0.077955544
103	0x3e0ecd55	0.13945515
104	0x3c28583b	0.010274942
105	0x3dcab8e7	0.098985486
106	0x3d1be98e	0.038064532
107	0x3b308f7c	0.0026940992
108	0x3d3163e3	0.04330815
109	0xbc4ba37a	-0.012429113
110	0xbc5d8949	-0.013521501
111	0x3e086ccb	0.13322751
112	0x3e051758	0.12997186
113	0xbdf13665	-0.11777953
114	0x3da1757e	0.07883738
115	0xbdb5e836	-0.08882181
116	0x3dcbf7ef	0.09959399
117	0x3e631a23	0.22177939
118	0xbcbc1cc6	-0.022962939
119	0x3cc34788	0.02383782
120	0xbd9c3042	-0.07626392
121	0x3b4386ce	0.0029834989
122	0x3d4ceab0	0.050028503
123	0x3d3304aa	0.04370562
124	0x3e0f8c6d	0.14018412
125	0xbd61e1f7	-0.055147137
126	0xbb9a904b	-0.004716908
127	0x3cb53408	0.022119537
128	0x3e38f46e	0.18061993
129	0xbd1fb1c2	-0.038987882
130	0x3e358745	0.17727382
131	0x3e0f70fe	0.14007947
132	0x3d23dd5c	0.040006027
133	0xbdc5f989	-0.09666736
134	0xbbac6be1	-0.0052618836
135	0xbca58265	-0.020203779
136	0x3e3b68cc	0.18301696
137	0x3d8f8bc4	0.0700908
138	0x3e1cbf83	0.15307431
139	0xbd9926d3	-0.07478108
140	0x3cc2ce5d	0.023780042
141	0xbcd3d5c0	-0.02585876
142	0x3e251590	0.16121507
143	0x3dae1416	0.08499925
144	0x3e158d78	0.14604747
145	0x3d542375	0.051791627
146	0xbd805825	-0.06266812
147	0x3ddba546	0.10724883
148	0x3e41f803	0.18942265
149	0xba1905a4	-0.00058373273
150	0x3dc71212	0.097202435
151	0xbe04aa63	-0.12955622
152	0xbe154a76	-0.14579186
153	0x3d88800e	0.066650495
154	0xbd3594f9	-0.044331525
155	0x3d9cf626	0.076641366
156	0xbd81149e	-0.063027605
157	0x3e28a3f8	0.16468799
158	0xbd93c8a5	-0.07216004
159	0xbc98b839	-0.018642532
160	0x3e0698dc	0.13144249
161	0xbd906097	-0.07049673
162	0xbdaaf1f6	-0.08346932
163	0xbb606f41	-0.0034246
164	0x3e3b54f7	0.1829413
165	0xbd7942d6	-0.060854755
166	0x3e5112cf	0.20417331
167	0xbc3f185a	-0.011663521
168	0x3e2dc5e8	0.16970026
169	0xbd55d891	-0.052208487
170	0x3d89543c	0.067055196
171	0x3c8b7265	0.017022321
172	0xbc92bac5	-0.017911324
173	0x3e321677	0.17391382
174	0x3dccd1be	0.10000943
175	0x3e472c0a	0.19450393
176	0x3de7edcb	0.11324652
177	0x3d880e99	0.06643409
178	0xbce76e98	-0.028250977
179	0x3e027006	0.12738046
180	0x3e028e29	0.12749542
181	0x3db26761	0.08711124
182	0x3df6e6df	0.12055754
183	0x3dea0784	0.11427215
184	0x3c8a816b	0.016907414
185	0x3e59a216	0.21253237
186	0x3dfd6b7d	0.123740174
187	0x3d4a45c7	0.04938295
188	0x3e2c19c8	0.1680671
189	0xbd7170ae	-0.05894535
190	0x3cd87645	0.026423583
191	0x3dbc9617	0.09208315
192	0xbe23ae65	-0.15984495
193	0xbe30196b	-0.17197196
194	0xbe109e74	-0.14122945
195	0x3ccf8943	0.025334006
196	0x3e0dda04	0.13852698
197	0x3dbbd84f	0.09172117
198	0xbd166be8	-0.036724
199	0xbe000a0e	-0.12503836
200	0x3c2d8f68	0.010593273
201	0xbe0c1895	-0.13681252
202	0x3d18ed9b	0.037335973
203	0xbce64bd3	-0.028112328
204	0xbd426fcc	-0.0474699
205	0xbdeac450	-0.11463225
206	0xbd76b4c4	-0.060230985
207	0xbe329f21	-0.17443515
208	0xbd9ebb26	-0.077505395
209	0x3e02aeca	0.12761989
210	0x3e0aecba	0.13566867
211	0x3d685753	0.056723904
212	0x3e1a1268	0.15046084
213	0x3e0f2b48	0.13981354
214	0x3c11e81f	0.00890544
215	0x3d6cdcbf	0.057827707
216	0xbe190612	-0.14943722
217	0xbe32b332	-0.1745117
218	0xbdb9352d	-0.090433456
219	0x3e2969e1	0.16544296
220	0xbe082cb0	-0.13298297
221	0xbdec23b1	-0.11530245
222	0x3d4475f1	0.04796404
223	0x3d86820e	0.06567775
224	0x3d89f5db	0.06736346
225	0x3e0ab98b	0.13547342
226	0x3c557351	0.013027982
227	0x3c80f91d	0.015743786
228	0xbc49a9a4	-0.012308512
229	0x3e38541f	0.1800084
230	0xbd3e61b1	-0.046479885
231	0xbd00cbbe	-0.031444304
232	0xbdfe99cf	-0.124316804
233	0x3e038b9e	0.12846228
234	0xbd39e274	-0.04538198
235	0xbdf6f14c	-0.120577425
236	0x3ddab7cc	0.10679588
237	0xbe1d3e29	-0.15355743
238	0x3e4ce71e	0.20010039
239	0xbdf68934	-0.12037888
240	0xbd3cae63	-0.046064746
241	0x3e517c8d	0.20457669
242	0x38b5a0b1	8.660684e-05
243	0x3d2c26e1	0.042029265
244	0x3e0443ae	0.12916443
245	0x3e05ef2a	0.13079515
246	0x3e367bb2	0.17820624
247	0x3c3b231d	0.011421946
248	0xbda7951c	-0.08182737
249	0xbd130ed2	-0.035902806
250	0x3e672ae9	0.22574963
251	0x3d7c5432	0.061603732
252	0x3e036cc1	0.12834455
253	0xbe24fdc9	-0.16112436
254	0x3cd0348c	0.025415681
255	0x3de94cb9	0.11391587

pre_mono.2.bias f4 [32]
0	0xbd94d14a	-0.07266481
1	0xbdd7a433	-0.105293654
2	0xbd8d38bd	-0.068955876
3	0x3e332b3b	0.1749696
4	0xbd255fc0	-0.040374517
5	0xbc6f5cc6	-0.014609521
6	0xbd84b6f6	-0.064802095
7	0x3e068650	0.13137174
8	0x3de893ea	0.11356337
9	0x3e0572c8	0.13032067
10	0xbda81bfa	-0.08208461
11	0x3e460fc7	0.19341956
12	0x3e51f7ce	0.20504686
13	0x3db294fd	0.087198235
14	0xbe0306fd	-0.12795635
15	0xbe19ca7d	-0.1501865
16	0x3e6622b8	0.22474182
17	0x3d22bd1c	0.03973113
18	0x3d2d8c35	0.04237004
19	0x3d80cdc0	0.06289244
20	0xbde77296	-0.113011524
21	0x3df9badf	0.12193846
22	0xbd1fe7fa	-0.03903959
23	0xbdadb922	-0.08482577
24	0x3da78ba9	0.08180935
25	0xbe168403	-0.14698796
26	0xbde0469c	-0.10950968
27	0x3e0289a6	0.12747821
28	0x3c47fc1d	0.012206105
29	0xbe1c9bd3	-0.15293817
30	0x3e0f41d8	0.13989961
31	0x3de8b852	0.11363281

mono.0.weight f4 [32, 35]
0	0x3ddecd4d	0.10879002
1	0xbda618e7	-0.081102185
2	0xbd063856	-0.03276857
3	0x3df11d13	0.117731236
4	0xbe2b74eb	-0.1674382
5	0x3e04a3bd	0.12953086
6	0xbd0e6f1a	-0.034773923
7	0x3e00315f	0.12518834
8	0x3d704651	0.05866081
9	0xbd53e873	-0.051735353
10	0x3d9f6585	0.07783035
11	0x3d48d262	0.04902876
12	0x3dc77c35	0.097404875
13	0xbdc89c2f	-0.09795415
14	0xba4cc686	-0.0007811565
15	0x3bea1ba2	0.0071444074
16	0x3dd8f526	0.10593633
17	0xbd0c298d	-0.034219313
18	0x3e3ef4e7	0.1864811
19	0x3db70cd1	0.089379914
20	0xbdb3d5db	-0.08781024
21	0xbe2805ed	-0.1640851
22	0xbcc62453	-0.024187243
23	0xbdca2f3a	-0.09872289
24	0xbdd06484	-0.10175422
25	0x3c049a77	0.008093468
26	0x3e084059	0.13305797
27	0x3e000c3c	0.12504667
28	0xbe2f59f7	-0.17124163
29	0x3dcf9e25	0.101375856
30	0x3daa5690	0.08317292
31	0x3e425c3a	0.18980494
32	0x3e250262	0.1611419
33	0xbe6668fd	-0.22500987
34	0xbe78305c	-0.24237198
35	0xbdd36df6	-0.10323708
36	0x3e1e9b32	0.1548889
37	0xbce6a5f0	-0.028155297
38	0x3de2dc31	0.110771544
39	0xbdb21b71	-0.0869664
40	0x3e46e67e	0.19423863
41	0xbd927757	-0.071516685
42	0x3e29cc93	0.16581945
43	0x3d180e59	0.037123058
44	0xbdf5ebfa	-0.120078996
45	0x3df13ba3	0.11778953
46	0xbe05866b	-0.13039558
47	0x3daefbe6	0.085441396
48	0xbda5bbee	-0.08092485
49	0xbb841e09	-0.004031901
50	0xbe1642bd	-0.14673896
51	0xbe2561e2	-0.1615062
52	0x3e0041d4	0.12525111
53	0xbda3279d	-0.0796654
54	0x3e520369	0.20509113
55	0x3e242e52	0.16033295
56	0xbd8e9c86	-0.06963448
57	0xbdde7f99	-0.10864181
58	0x3e03d2e0	0.12873411
59	0x3dccbe91	0.09997285
60	0xbddfc644	-0.10926488
61	0x3e1176cb	0.14205472
62	0x3e0b0fda	0.13580266
63	0x3e1fa8f4	0.15591794
64	0xbdbad9ba	-0.09123559
65	0xbd825660	-0.06364131
66	0xbd05dec9	-0.032683168
67	0x3d9841e6	0.07434444
68	0xbe4c17ed	-0.19931002
69	0xbe4e3b36	-0.20139775
70	0x3de885d0	0.11353648
71	0xbd3c9d03	-0.046048176
72	0x3da918ed	0.08256707
73	0x3d450459	0.04809985
74	0x3d828136	0.06372301
75	0x3d85edbf	0.06539487
76	0x3d7bbcfa	0.06145952
77	0x3dfb898b	0.122820936
78	0xbe442510	-0.19154763
79	0x3ded8aca	0.115987375
80	0xbe193d64	-0.14964825
81	0xbe2c29cf	-0.16812824
82	0x3d3c6546	0.04599502
83	0xbd791f73	-0.060821008
84	0x3dad5530	0.08463514
85	0xbda805f6	-0.08204262
86	0xbe6cf838	-0.23141563
87	0x3e202f11	0.15642954
88	0xbd824206	-0.06360249
89	0x3e06e13b	0.13171856
90	0x3da1eaf7	0.07906144
91	0xbe41138a	-0.1885511
92	0x3cf3dd6e	0.029768672
93	0x3d87b80f	0.06626903
94	0xbe247dc2	-0.16063598
95	0xbda44022	-0.08020045
96	0x3db7e48a	0.08979137
97	0x3d81c3f8	0.06336206
98	0xbd9f8d6c	-0.07790646
99	0xbd435fe9	-0.04769889
100	0x3e4328a2	0.19058469
101	0xbd77e98b	-0.06052546
102	0x3e14934b	0.14509313
103	0x3e142c18	0.14469945
104	0xbe43cd4d	-0.19121285
105	0xbe2a3a3a	-0.16623774
106	0x3e2cf8ad	0.16891737
107	0x3c109bf4	0.008826245
108	0x3e1ebfdb	0.15502875
109	0x3d357e97	0.04431018
110	0x3daad1fc	0.083408326
111	0x3e014a0d	0.12625904
112	0x3e4cc89e	0.19998404
113	0xbe17742e	-0.14790413
114	0x3d58944f	0.052875813
115	0x3e219c9d	0.157824
116	0x3e277714	0.16354018
117	0x3e10cf0f	0.14141487
118	0xbe1ee71e	-0.15517852
119	0xbddc087e	-0.10743807
120	0xbdb17bf4	-0.0866622
121	0x3dd0f3fc	0.10202786
122	0x3e4f99df	0.20273541
123	0xbe157bf9	-0.14598073
124	0x3e028450	0.12745786
125	0xbdf41860	-0.11918712
126	0xbe623494	-0.2209037
127	0xbd02235b	-0.031772
128	0x3dfe1237	0.12405818
129	0x3e519f44	0.20470911
130	0xbdd6fcfb	-0.10497471
131	0x3d8eb09b	0.069672786
132	0x3e3814c5	0.17976673
133	0x3df1b17b	0.1180143
134	0x3dd088cd	0.10182343
135	0x3e205686	0.15658006
136	0x3e0c24b5	0.13685878
137	0x3dbe5ccf	0.092950456
138	0xbe3defde	-0.18548533
139	0xbe62b800	-0.22140503
140	0xbdcb9483	-0.09940436
141	0xbcd67d2a	-0.02618273
142	0xbdd43058	-0.10360783
143	0x3dce8e97	0.100857906
144	0x3d7a039d	0.061038602
145	0xbd894527	-0.06702643
146	0x3d850c9a	0.06496544
147	0x3dc085bd	0.094005086
148	0x3e0dc4d1	0.13844611
149	0x3e148b9a	0.14506379
150	0xbdb4bcf3	-0.08825102
151	0x3e52e4a4	0.20595032
152	0xbd648240	-0.05578828
153	0xbd1ca9c1	-0.038247827
154	0xbe14a070	-0.14514327
155	0xbdbea6f9	-0.09309191
156	0xbe37d619	-0.17952766
157	0xbdd939f7	-0.10606759
158	0x3e22cc56	0.1589826
159	0xbdbccb9a	-0.092185214
160	0xbe1b1006	-0.15142831
161	0x3e01e2cd	0.12684174
162	0x3d4cb3f8	0.04997632
163	0x3e0ad7fe	0.13558957
164	0xbe0a4943	-0.1350451
165	0x3d161ca8	0.036648422
166	0xbdc09814	-0.094040066
167	0xbd925ee4	-0.07147005
168	0xbe101610	-0.14070916
169	0xbd969ac2	-0.073537365
170	0xbdb3c257	-0.08777302
171	0x3dd02cdf	0.101648085
172	0x3da4e5d5	0.080516495
173	0x3de689ea	0.11256774
174	0x3e7f6abf	0.24943064
175	0x3e3f5aa8	0.18686926
176	0x3df98ba7	0.1218484
177	0x3bb06007	0.005382541
178	0xbe1f4349	-0.15553011
179	0x3e109177	0.1411799
180	0xbd913ecc	-0.07092056
181	0xbc5fe4ab	-0.013665359
182	0xbe3d4128	-0.18481886
183	0xbd8cd181	-0.06875897
184	0xbe0fc2d3	-0.14039163
185	0x3e3f0316	0.18653521
186	0xbe3f592b	-0.18686359
187	0xbe2bbc2c	-0.16771
188	0xbd1c4da4	-0.03815998
189	0xbd9e75b4	-0.07737294
190	0x3d3867a5	0.045020718
191	0xbe146950	-0.14493299
192	0xbde7f00a	-0.11325081
193	0x3d45a150	0.048249543
194	0x3e232043	0.15930276
195	0xbe139506	-0.14412317
196	0x3e101d38	0.14073646
197	0x3dd5e1ac	0.10443434
198	0x3e44310b	0.19159333
199	0xbe29c3df	-0.16578625
200	0x3d27ae25	0.04093756
201	0xbe2159b1	-0.15756871
202	0x3e3613c6	0.1778098
203	0xbd929523	-0.07157352
204	0x3dc8f497	0.09812277
205	0x3d27b2eb	0.040942114
206	0xbd2f4ab2	-0.042795844
207	0xbd60a8a1	-0.054848317
208	0x3dca5758	0.09879941
209	0x3e2376aa	0.15963235
210	0x3d4aba3d	0.049494017
211	0x3d6e2df3	0.05814929
212	0xbe1bb252	-0.15204743
213	0x3e25ca78	0.16190517
214	0x3e2079e9	0.15671505
215	0x3e2ca46c	0.16859597
216	0x3dffe689	0.12495143
217	0xbe255108	-0.16144192
218	0xbdc94666	-0.098278806
219	0x3e390054	0.18066531
220	0xbe241a1b	-0.16025583
221	0x3e46ed68	0.19426501
222	0xbe2d1d01	-0.16905595
223	0xbe1b5d29	-0.15172257
224	0x3d8c865a	0.06861563
225	0xbdd922e0	-0.10602355
226	0xbdf32a46	-0.118732974
227	0x3e20dc5a	0.15709057
228	0x3e30f8af	0.17282365
229	0x3e49c631	0.1970451
230	0xbd74f635	-0.059805114
231	0xbe458b9f	-0.19291542
232	0x3e26309e	0.16229483
233	0xbd801da4	-0.062556535
234	0xbdeff340	-0.11716318
235	0x3d28c6e2	0.041205294
236	0xbe1aae81	-0.1510563
237	0x3e145078	0.14483821
238	0x3de54225	0.11194257
239	0xbe059645	-0.13045605
240	0xbe333758	-0.1750158
241	0xbd371ae2	-0.04470337
242	0x3df64c8c	0.12026319
243	0xbd98843f	-0.07447099
244	0xbe28f5a7	-0.16499959
245	0x3cd6a23b	0.026200404
246	0xbe297491	-0.16548373
247	0xbdf4a9c2	-0.11946441
248	0xbe1ae417	-0.15126072
249	0x3e180517	0.14845692
250	0x3e3619aa	0.17783228
251	0xbd6b2b1a	-0.05741415
252	0x3d40a3dc	0.04703127
253	0x3de341db	0.11096545
254	0x3d544bc4	0.05183007
255	0xbdedc3f4	-0.11609641

mono.0.bias f4 [32]
0	0x3e2eab72	0.17057589
1	0x3e3c482d	0.18386908
2	0x3e355b26	0.17710552
3	0x3dccd142	0.1000085
4	0xbaa09455	-0.0012251238
5	0x3c30eb83	0.010798338
6	0xbd3c8ca4	-0.046032563
7	0x3da2d156	0.07950084
8	0xbd94b15d	-0.07260392
9	0x3dd6ff63	0.1049793
10	0x3e1f622b	0.15564792
11	0x3e428478	0.18995845
12	0xbdf4ef90	-0.119597554
13	0x3e3dc215	0.18531068
14	0xbd79522f	-0.060869392
15	0x3d075d58	0.033048004
16	0x3e4db8cb	0.20090024
17	0x3e0db8f2	0.13840082
18	0xbbf3f4ca	-0.0074449526
19	0x3e15eb4f	0.14640544
20	0xbdf0e516	-0.11762445
21	0x3e36de9a	0.17858353
22	0x3e57ee41	0.2108698
23	0x3d209ed2	0.039213963
24	0x3d97f7ce	0.07420312
25	0x3bd7b939	0.0065833596
26	0xbd76d66d	-0.060263086
27	0xbcfba980	-0.030720472
28	0x3d0c915e	0.03431832
29	0xbdbe74de	-0.092996344
30	0xbdb81b6f	-0.089896075
31	0x3d840278	0.064457834

mono.1.weight f4 [32, 32]
0	0xbdd8ecdb	-0.105920516
1	0xbdb98b86	-0.09059815
2	0x3d2e4bb4	0.042552665
3	0xbdae8ece	-0.085233316
4	0x3e591449	0.21199144
5	0xbd6a3e87	-0.057188537
6	0xbdb156e9	-0.08659155
7	0xbd40e631	-0.047094528
8	0xbe0319f8	-0.12802875
9	0x3e0dd8fd	0.13852306
10	0x3e4a9a99	0.19785537
11	0xbdc56848	-0.09639031
12	0xbd3b1654	-0.04567559
13	0x3e5855cf	0.21126483
14	0xbded9ed9	-0.116025634
15	0x3dc23df7	0.09484475
16	0xbe137cfd	-0.14403148
17	0xbe1b6c54	-0.15178043
18	0x3d3f3f3d	0.046691168
19	0xbdc33e9e	-0.09533428
20	0x3e10ac3a	0.14128199
21	0xbd5ff613	-0.054678034
22	0x3d476bf9	0.048686955
23	0xbda44a54	-0.080219895
24	0x3de935f5	0.113872446
25	0x3e58e168	0.21179736
26	0xbc45d7fa	-0.012075419
27	0xbdc77698	-0.09739417
28	0xbe273009	-0.16326918
29	0x3e52dc1e	0.2059178
30	0x3dfb3cf4	0.12267485
31	0x3dee2b5f	0.11629366
32	0x3da30955	0.07960764
33	0x3e0ae733	0.13564758
34	0x3de24cac	0.1104978
35	0x3e082e1a	0.13298836
36	0x3e22ac02	0.15885928
37	0x3d8b1f6c	0.067931026
38	0x3e4792cb	0.19489591
39	0x3e1cfb9f	0.15330361
40	0x3d223f1a	0.03961096
41	0xbd8ede12	-0.0697595
42	0x3d6c28a1	0.057655934
43	0x3e3c447d	0.18385501
44	0x3e234ee1	0.15948059
45	0xbd87528b	-0.06607541
46	0xbccdfb31	-0.025144191
47	0x3defd605	0.11710743
48	0x3de372e7	0.111059
49	0x3e5b12fa	0.21393958
50	0x3e07601e	0.1322026
51	0x3dd341f6	0.103153154
52	0x3db0aaea	0.08626349
53	0xbe2a1f29	-0.16613449
54	0xbd6c4575	-0.057683427
55	0x3d8716cf	0.06596147
56	0xbdfbdb52	-0.122976914
57	0xbe12e084	-0.14343458
58	0x3e2bc212	0.1677325
59	0x3dd7761d	0.10520575
60	0xbe08a7d1	-0.13345267
61	0x3d3fa062	0.046783812
62	0x3e1be414	0.15223724
63	0x3e1483e8	0.14503443
64	0x3e58033b	0.21094982
65	0xbd83c447	-0.06433921
66	0x3e01566f	0.12630628
67	0xbe0ab7fe	-0.1354675
68	0xbc0ee5f3	-0.008721816
69	0xbdd8ad76	-0.1057996
70	0xbcb3dbb4	-0.021955349
71	0x3e1308c7	0.14358817
72	0x3e0a598f	0.13510726
73	0xbdabb98b	-0.08384999
74	0xbd1cc77d	-0.038276184
75	0xbcf42c2c	-0.029806219
76	0xbd4bf428	-0.049793392
77	0xbdbaf034	-0.09127846
78	0x3e30d83b	0.17269985
79	0x3e2ce832	0.1688545
80	0x3e44614e	0.19177744
81	0xbdbb6a48	-0.09151131
82	0x3e33bc24	0.17552239
83	0xbd44cb2f	-0.048045333
84	0xbce1df25	-0.027572224
85	0xbd42f23f	-0.047594305
86	0xba9aae7b	-0.0011801267
87	0xbd865e18	-0.06560916
88	0x3d8494c5	0.06473688
89	0xbdd1fa12	-0.10252775
90	0x3df7b0c2	0.12094261
91	0xbe0bf2ff	-0.13666914
92	0xbd610637	-0.054937568
93	0xbde29b40	-0.11064768
94	0x3e2b26d8	0.16714036
95	0x3e283e81	0.16430093
96	0xbe07ddb0	-0.13268161
97	0xbdba2b71	-0.09090317
98	0x3e52d57b	0.20589249
99	0x3dc8c739	0.09803624
100	0x3e2de344	0.16981226
101	0xbe047683	-0.12935834
102	0x3df9d4e8	0.12198812
103	0x3e1f4998	0.15555418
104	0xbcdf4d33	-0.027258491
105	0xb8816d04	-6.171505e-05
106	0x3e32eb66	0.1747261
107	0x3dc128c8	0.094316065
108	0x3dc8a0b3	0.09796276
109	0x3d3f544f	0.046711262
110	0xbd80a9c3	-0.062823795
111	0xbdc808c9	-0.09767301
112	0x3e61ff1d	0.22069974
113	0xbc09ba22	-0.008406194
114	0x3e4fe3bc	0.20301718
115	0x3e43f827	0.19137631
116	0xbda1b7ca	-0.07896383
117	0x3d63718c	0.05552821
118	0xbd1ddddc	-0.03854166
119	0x3d2c284f	0.04203063
120	0x3e20ea1a	0.15714303
121	0x3e149c84	0.14512831
122	0xbdb3f07b	-0.087861024
123	0xbd9d5d0e	-0.076837644
124	0xbdf09561	-0.11747242
125	0xbe0cf37e	-0.1376476
126	0x3e253d52	0.16136673
127	0xbdd073cc	-0.101783365
128	0x3d5429e8	0.051797777
129	0x3d35421a	0.044252492
130	0x3d9f7d76	0.07787602
131	0xbb1e234e	-0.002412993
132	0x3e0f3910	0.13986611
133	0x3d890343	0.06690075
134	0x3e2d3537	0.16914831
135	0x3da68712	0.08131231
136	0x3d35fce5	0.044430632
137	0x3d944c12	0.07241072
138	0x3e27924d	0.16364403
139	0x3d95081b	0.072769366
140	0x3e2ff7af	0.17184328
141	0xbc3791cf	-0.011204197
142	0x3d36ddd1	0.044645134
143	0x3e47fa75	0.19529136
144	0xbe2ae612	-0.16689327
145	0x3d814325	0.06311635
146	0x3e54a5a3	0.2076631
147	0xbdaa4a76	-0.083149835
148	0xbc97971a	-0.018504668
149	0xbc2e7f34	-0.010650445
150	0x3dd7418e	0.105105504
151	0x3de963d2	0.11395992
152	0x3da590f2	0.08084287
153	0x3df0bd11	0.117548116
154	0xbd7f3328	-0.062304646
155	0x3df438e2	0.11924912
156	0xbd401fc4	-0.046905294
157	0x3e1691ba	0.14704028
158	0xbd18062f	-0.037115272
159	0xbe115162	-0.14191201
160	0x3d7e6fca	0.06211833
161	0x3e0e0e05	0.13872536
162	0xbab37b4f	-0.0013693365
163	0x3d4773c0	0.048694372
164	0x3d46ec4b	0.04856519
165	0x3e0b667e	0.13613316
166	0x3d64f90b	0.05590157
167	0xbe21b62e	-0.15792152
168	0xbde3e91c	-0.111284465
169	0x3d6c62e4	0.057711497
170	0xbc0d7d66	-0.008635854
171	0x3e5c22df	0.21497677
172	0xbcc25a66	-0.023724746
173	0x3e39b3d4	0.18135005
174	0xbe0c8b0e	-0.1372492
175	0xbe203ba5	-0.15647753
176	0xbc853724	-0.016261645
177	0xbdd9d9b4	-0.10637227
178	0xbd25372b	-0.040335815
179	0x3d884011	0.06652845
180	0xbe0e6f0f	-0.13909553
181	0x3e28d119	0.16486014
182	0xbdcc8855	-0.09986941
183	0x3e3b0a26	0.1826559
184	0x3dc94aeb	0.098287426
185	0xbcb13f02	-0.02163649
186	0xbe10797d	-0.14108844
187	0x3d9751c4	0.073886424
188	0xbdb784d4	-0.08960882
189	0x3e40d993	0.18832998
190	0xbe08efe5	-0.13372763
191	0xbd1bf71c	-0.03807746
192	0xbdb4d6ad	-0.08830009
193	0xbddd769f	-0.10813641
194	0xbdb171ab	-0.086642586
195	0xbc1d0e82	-0.009585978
196	0x3d76d56d	0.060262132
197	0x3d952910	0.07283223
198	0x3e082e81	0.1329899
199	0xbd93e0b5	-0.07220594
200	0xbdc13145	-0.094332255
201	0xbce62bec	-0.028097115
202	0x3e599de0	0.21251631
203	0xbc8362fa	-0.016038407
204	0xbe054c2b	-0.13017337
205	0x3e3d6743	0.18496422
206	0x3db0ed8f	0.08639061
207	0x3d9eed14	0.07760063
208	0x3d9934b1	0.07480753
209	0x3e2cfd42	0.16893485
210	0xbd8da4a9	-0.06916172
211	0x3e33e019	0.17565955
212	0x3e5c9685	0.21541794
213	0xbd3ab47c	-0.04558228
214	0x3e224dcb	0.15849988
215	0x3e14400b	0.14477555
216	0x3e5398fe	0.2066383
217	0xbcf17e64	-0.029479213
218	0xbdbaafe1	-0.091155775
219	0xbd5c4766	-0.05377903
220	0xbde3898a	-0.11110218
221	0x3d2dafd3	0.042404007
222	0x3e5fcfa9	0.2185656
223	0x3e5bdb5b	0.21470396
224	0x3e3b9cad	0.18321486
225	0x3d83f67b	0.06443497
226	0x3d535997	0.05159911
227	0x3e279682	0.16366008
228	0x3e1cd411	0.15315272
229	0xbc329f08	-0.010902174
230	0xbd0875c0	-0.03331542
231	0x3de77229	0.11301071
232	0x3d1c59a6	0.038171433
233	0xbdeb9f29	-0.11504967
234	0xbd9ee726	-0.07758932
235	0x3e421a88	0.18955433
236	0x3e47397e	0.19455525
237	0xbd81b01a	-0.06332417
238	0xbcd7a752	-0.026324902
239	0xbd9c4fd5	-0.07632414
240	0xbd6c6457	-0.05771288
241	0x3e53a60e	0.20668814
242	0xbe15b77c	-0.14620775
243	0x3e065337	0.13117681
244	0xbe14bbf0	-0.14524817
245	0xbdacb9e2	-0.08433892
246	0xbcea1c06	-0.028577816
247	0x3d739a5d	0.059473384
248	0xbceb2d5e	-0.028708156
249	0xbd8e7784	-0.069563895
250	0xbd86c102	-0.06579782
251	0xbdc4d2e1	-0.096105345
252	0xbdea01b6	-0.114261076
253	0xbdc72cdc	-0.09725353
254	0x3e5ecb4d	0.2175724
255	0xbd990a7f	-0.07472705

mono.1.bias f4 [32]
0	0x3cb602e8	0.022218183
1	0x3e0a9ca6	0.13536319
2	0xbcefb481	-0.029260876
3	0x3e3d78ea	0.18503156
4	0xbd99a327	-0.07501822
5	0xbd3c2842	-0.04593683
6	0x3ddb0a7e	0.106953606
7	0x3e1e35b5	0.15450175
8	0x3d32d7f1	0.04366297
9	0xbdbe96ea	-0.09306128
10	0x3d1e6ab8	0.038675994
11	0xbc641ae5	-0.013922428
12	0xbc32bf37	-0.010909847
13	0x3c4f1cfa	0.012641186
14	0x3db52eb0	0.088467956
15	0x3b8bc8b2	0.004265868
16	0xbd9f5f6b	-0.077818714
17	0xbd2e955c	-0.04262291
18	0xbdd2a5d7	-0.10285538
19	0xbe071f25	-0.13195474
20	0x3e065900	0.13119888
21	0x3e13f9c4	0.14450747
22	0x3e3791a7	0.17926656
23	0x3d752a29	0.05985466
24	0xbcdc7448	-0.026910916
25	0xbd7739ec	-0.060357973
26	0x3e092934	0.13394624
27	0xbd7cdb59	-0.061732624
28	0x3e364b71	0.17802216
29	0xbd55e118	-0.05221662
30	0xbdf30a69	-0.1186722
31	0xbda6a04f	-0.08136045

mono.2.weight f4 [32, 32]
0	0x3e425413	0.18977384
1	0x3e37cd4b	0.17949407
2	0x3db6d87d	0.089280106
3	0x3d4d72e0	0.05015838
4	0x3e499078	0.19684017
5	0x3e1b29a5	0.15152605
6	0x3e19bd3f	0.15013598
7	0xbde7c12c	-0.113161415
8	0x3d982713	0.07429328
9	0x3e533c5b	0.20628493
10	0xbdec8a1a	-0.11549778
11	0x3e632e7d	0.22185703
12	0xbdd76b9e	-0.10518573
13	0xbd373b07	-0.044734027
14	0xbb35fefa	-0.0027770386
15	0x3dbb674c	0.09150562
16	0x3dcb5c29	0.099296875
17	0xbdb8843a	-0.09009595
18	0x3e01112c	0.12604207
19	0x3dbd7d31	0.09252394
20	0xbc5ab165	-0.013347958
21	0xbe2e78d7	-0.17038284
22	0x3e628937	0.22122656
23	0xbd66f7ab	-0.05638854
24	0xbda998b4	-0.08281079
25	0x3e611a43	0.21982674
26	0xbdac14e3	-0.08402421
27	0x3e27b29d	0.1637673
28	0x3e1db789	0.15402044
29	0xbdd55202	-0.104160324
30	0xbe051cbb	-0.12999241
31	0xbdae5ad3	-0.08513417
32	0x3dce7035	0.100799955
33	0x3e5980f4	0.21240598
34	0x3cc139be	0.023587104
35	0xbd417ed6	-0.0472401
36	0xbd1b7e28	-0.03796211
37	0xbde336f5	-0.110944666
38	0x3e63149f	0.22175835
39	0x3d2a2072	0.04153485
40	0xbe08b763	-0.13351206
41	0xbddda452	-0.10822357
42	0x3e2013c8	0.15632546
43	0x3e060f4f	0.13091777
44	0x3e23f8a5	0.16012819
45	0xbc3b8e14	-0.011447448
46	0xbcf09643	-0.029368525
47	0x3dd33056	0.10311954
48	0x3d2e798f	0.042596396
49	0xbd39241d	-0.045200456
50	0x3db225f5	0.08698646
51	0xbdb56999	-0.08858032
52	0xbdedbd74	-0.11608401
53	0xbd0949da	-0.033517696
54	0xbdf6b287	-0.1204577
55	0x3d4b3ce7	0.049618628
56	0x3d9565c5	0.072948016
57	0x3e5ecade	0.21757075
58	0x3dc66124	0.09686497
59	0x3d3427ee	0.043983392
60	0xbdfbbcc1	-0.12291861
61	0xbd7404b2	-0.05957479
62	0xbc7fd044	-0.015613619
63	0xbded13d5	-0.11576048
64	0x3da21449	0.07914025
65	0x3e307887	0.17233478
66	0x3e15cb29	0.1462828
67	0xbd8ac391	-0.067755826
68	0xbd015fd0	-0.031585515
69	0x3e610bc1	0.2197714
70	0xbca770c6	-0.020439517
71	0xbe1b3fa5	-0.15160997
72	0x3d23f1a6	0.040025376
73	0x3d5ca273	0.05386586
74	0xbd67e61b	-0.05661593
75	0xbc0e6c25	-0.008692776
76	0xbe08c251	-0.13355376
77	0x3dcb6eda	0.09933253
78	0xbdefdef2	-0.11712445
79	0x3dd79084	0.10525611
80	0x3e34e344	0.1766482
81	0xbdd34683	-0.103161834
82	0xbd6d4a87	-0.057932403
83	0x3d7cb9ea	0.06170074
84	0x3d3c5a26	0.04598441
85	0x3e1862c8	0.14881432
86	0xbba5207c	-0.005039273
87	0x3d95b0d1	0.07309116
88	0xbd1a29a8	-0.037637383
89	0x3dd05f0c	0.10174379
90	0x3dcab727	0.09898215
91	0xbe062c00	-0.13102722
92	0x3e0eb01f	0.13934372
93	0xbccfc425	-0.025362084
94	0x3e4f75f9	0.20259847
95	0xbe2875a9	-0.16451134
96	0xbbd59522	-0.006518022
97	0x3e00eb58	0.12589777
98	0x3e2c0e15	0.16802247
99	0x3d45d676	0.04830023
100	0xbda9fbcd	-0.0829998
101	0xbdffb536	-0.12485735
102	0xbe010884	-0.12600905
103	0x3e41fa75	0.18943198
104	0xbe171afe	-0.1475639
105	0xbd6c601d	-0.05770885
106	0x3e0eb09b	0.13934557
107	0x3e11d3bc	0.14240927
108	0xbe134935	-0.14383395
109	0x3da57371	0.08078659
110	0x3d891a3a	0.066944554
111	0x3e54c137	0.2077683
112	0x3d0f1447	0.034931447
113	0x3df6b1d2	0.12045635
114	0xbb5530dd	-0.0032530345
115	0x3e50676e	0.20351955
116	0xbc4001d6	-0.011719188
117	0xbdc95b72	-0.09831895
118	0x3da16808	0.078811705
119	0xbdad1389	-0.08450992
120	0x3db79a75	0.08965007
121	0x3e2bb28d	0.1676733
122	0xbe071a60	-0.13193655
123	0xbdee91db	-0.116489135
124	0x3d46ba9b	0.048517805
125	0x3c3b7121	0.011440546
126	0xbd2b973f	-0.041892286
127	0x3e469571	0.19392945
128	0x3e0035c1	0.12520505
129	0xbd70122f	-0.05861109
130	0x3d933aec	0.07188973
131	0xbcac58a2	-0.021038357
132	0xbdcd7708	-0.10032469
133	0x3df066d5	0.11738364
134	0xbddec7e9	-0.108779736
135	0x3d8c64cd	0.06855164
136	0x3e2a1a6c	0.16611642
137	0xbe1976b2	-0.14986685
138	0x3d5f5252	0.054521866
139	0x3e5628ac	0.20913953
140	0x3e0169f7	0.12638079
141	0xbd8009b3	-0.0625185
142	0x3d96987c	0.07353303
143	0xbe1ed7fc	-0.15512079
144	0x3d96c0e1	0.073610075
145	0x3e4c0acb	0.19925992
146	0x3e4bbf9d	0.19897313
147	0x3d2982b1	0.041384403
148	0x3de21d42	0.11040737
149	0xbcc2ce05	-0.023779878
150	0xbd347977	-0.04406115
151	0x3d48b6d7	0.049002495
152	0xbdb9fbc9	-0.09081227
153	0x3deded67	0.116175465
154	0x3e083fd5	0.133056
155	0xbd11b7d9	-0.03557572
156	0xbd0dfa25	-0.034662385
157	0xbde5294a	-0.11189516
158	0x3d8c6cf0	0.06856716
159	0x3dee6ea6	0.11642198
160	0x3e5aa19f	0.21350716
161	0xbe2a8f64	-0.16656262
162	0xbe0d3109	-0.13788237
163	0x3d50c10e	0.05096536
164	0x3e557d27	0.20848523
165	0x3d65b736	0.056082927
166	0x3dc164df	0.09443068
167	0x3d93d2fa	0.07217975
168	0xbc71b10f	-0.014751687
169	0x3e30497e	0.17215535
170	0x3e349f52	0.17638901
171	0xbdbb20b6	-0.091370985
172	0xbdc2df20	-0.09515214
173	0xbe05622e	-0.13025734
174	0xbd1952ce	-0.037432484
175	0x3d20d42c	0.039264843
176	0x3e4566dd	0.1927752
177	0xbe23cb8b	-0.15995614
178	0x3e2e8af9	0.17045201
179	0xbdb2fff0	-0.087402225
180	0x3d782e30	0.060590923
181	0xbb311e46	-0.00270261
182	0x3e158569	0.14601673
183	0xbe0e2786	-0.13882264
184	0xbde54233	-0.11194267
185	0x3d476d79	0.048688386
186	0x3e0aa357	0.13538872
187	0xbd9660cb	-0.073426805
188	0x3dce8694	0.100842625
189	0xbd1238d1	-0.035698716
190	0xbe1bec98	-0.15226972
191	0x3d87375a	0.06602354
192	0xbcde2b23	-0.027120179
193	0x3e1a4d05	0.15068443
194	0x3e268aa1	0.1626382
195	0x3e25a285	0.16175278
196	0x3e1fdc19	0.15611304
197	0xbe00e02b	-0.12585513
198	0xbe25a3ef	-0.16175817
199	0x3d890e3a	0.066921666
200	0x3dc77638	0.09739345
201	0xbdff8a0c	-0.12477502
202	0x3e43d1c0	0.19122982
203	0xbc07f916	-0.008299133
204	0xbdbea724	-0.09309223
205	0x3e2b1597	0.16707455
206	0x3e4d4b1b	0.20048182
207	0x3d950527	0.07276373
208	0xbd38eaa2	-0.04514564
209	0x3d846ae1	0.06465698
210	0xbdf43c1a	-0.11925526
211	0x3e1e7acc	0.15476531
212	0x3e210a37	0.15726553
213	0xbce1985a	-0.027538467
214	0xbe09d169	-0.1345879
215	0x3e350110	0.17676187
216	0xbe08cdef	-0.13359807
217	0xbda8e990	-0.082476735
218	0x3e1b764e	0.15181848
219	0xbd9d1bd1	-0.07671321
220	0x3da3870d	0.07984743
221	0x3e437eef	0.1909139
222	0xbc287c6a	-0.010283569
223	0xbcf02766	-0.029315662
224	0x3e56f421	0.20991565
225	0x3d9c787d	0.07640169
226	0x3ddd365a	0.10801382
227	0xbd572a17	-0.052530374
228	0xbe0f5eda	-0.14001027
229	0x3d953be2	0.07286812
230	0xbdc5eedb	-0.09664699
231	0xbdac9962	-0.08427693
232	0xbe0df165	-0.13861616
233	0x3e4aa205	0.19788368
234	0xbde03843	-0.10948231
235	0x3dc6e331	0.09711302
236	0x3da9f8e9	0.08299429
237	0x3e2c0fd2	0.1680291
238	0x3e11bdbf	0.14232539
239	0xbde73563	-0.112894796
240	0x3dfd738a	0.12375553
241	0xbda06795	-0.07832257
242	0x3d54f5d1	0.05199224
243	0xbd55bdfe	-0.052183144
244	0xbe1480ba	-0.1450223
245	0x3dcacc25	0.09902219
246	0xbde63040	-0.11239672
247	0x3e5fe69a	0.21865311
248	0x3def9601	0.11698533
249	0xbd4e9fe9	-0.05044547
250	0xbdc89f0c	-0.09795961
251	0xbe1a7119	-0.15082206
252	0xbdab25bb	-0.08356806
253	0xbdd5126a	-0.10403903
254	0x3d856194	0.06512752
255	0x3db549c0	0.08851957

mono.2.bias f4 [32]
0	0x3e10b3ac	0.1413104
1	0xbc6e5631	-0.014546917
2	0x3e17cb07	0.14823543
3	0xbdf63d6e	-0.120234355
4	0x3d3d8039	0.04626486
5	0x3e46e3fb	0.19422905
6	0x3dacca7c	0.08437058
7	0xbdcb2850	-0.099197984
8	0x3d9a9b96	0.07549207
9	0x3e1cd18c	0.15314311
10	0x3cfa8bf7	0.030584319
11	0x3e17f1f9	0.14838399
12	0xbdd6fc17	-0.10497301
13	0x3e28dd04	0.16490561
14	0xbe0320ee	-0.1280553
15	0x3df2a4be	0.11847828
16	0xbddc4f58	-0.10757321
17	0xbc2597dd	-0.010107008
18	0x3cdd7f37	0.0270382
19	0x3c8ba3aa	0.017045815
20	0x3ccb3c37	0.024808986
21	0xbdb94362	-0.090460554
22	0xbda6f7d1	-0.08152736
23	0x3e20d79a	0.15707245
24	0x3db03736	0.08604281
25	0x3d8035e0	0.06260276
26	0x3c6820d1	0.01416798
27	0x3db83cfc	0.08996007
28	0x3dab3b81	0.08360959
29	0x3bba764c	0.0056903716
30	0x3d6e20b2	0.05813665
31	0x3d6e1cd9	0.05813298

mono.3.weight f4 [32, 32]
0	0x3e2c070a	0.1679956
1	0xbe19ae39	-0.15007867
2	0xbde00755	-0.109388985
3	0xbd887716	-0.06663339
4	0x3db0b1aa	0.08627637
5	0xbde70854	-0.11280885
6	0xbd9c8bc8	-0.07643849
7	0xbd854bf2	-0.06508626
8	0xbba643d2	-0.005074003
9	0xbe1ffd4b	-0.15623967
10	0x3d2aee28	0.04173103
11	0x3e15470b	0.14577882
12	0x3de280e6	0.11059742
13	0xbe04ccb1	-0.12968709
14	0xbd2a2a8f	-0.041544493
15	0x3dd6708e	0.10470687
16	0x3d912012	0.07086195
17	0x3daf4343	0.08557751
18	0x3daacdf7	0.08340066
19	0xbd018221	-0.03161824
20	0x3e010160	0.12598181
21	0x3e2977d7	0.16549622
22	0x3d85e574	0.06537905
23	0xbca5f815	-0.020259896
24	0x3db6095e	0.088885054
25	0x3e075e31	0.13219525
26	0xbe05f4e9	-0.13081707
27	0x3d79fe7d	0.061033715
28	0xbd9a6ad5	-0.07539908
29	0x3c98e906	0.018665802
30	0xbdddd5a5	-0.10831765
31	0xbcc210a5	-0.023689577
32	0x3bc578dd	0.006026371
33	0xbdcd2edc	-0.10018703
34	0xbdf7d30c	-0.12100801
35	0x3da8d80b	0.08244332
36	0xbd9e91b1	-0.07742632
37	0x3e02be4f	0.1276791
38	0xbd968f8a	-0.07351597
39	0x3e175c56	0.14781317
40	0x3bbf8c43	0.005845578
41	0xbdc02c6f	-0.09383475
42	0x3aa0311c	0.0012221667
43	0xbd555346	-0.05208137
44	0x3d017ffe	0.031616203
45	0x3da30952	0.07960762
46	0xbe1c1eb2	-0.15246084
47	0x3cdca964	0.02693624
48	0x3dc04c5d	0.09389565
49	0xbd909741	-0.070600994
50	0x3b5e04e3	0.0033877424
51	0x3dc21560	0.09476733
52	0xbe030912	-0.12796429
53	0x3e06a7e7	0.13149987
54	0xbe0e0aa5	-0.13871248
55	0xbd36978c	-0.04457812
56	0x3d64bbee	0.055843286
57	0xbca40f29	-0.02002676
58	0xbe26ce3d	-0.16289611
59	0xbde4d2a8	-0.11172992
60	0xb9105c41	-0.00013767277
61	0xbd67766a	-0.056509413
62	0xbcb72f5b	-0.022361448
63	0x3df1a189	0.117983885
64	0xbd917b0a	-0.07103546
65	0x3c8836ed	0.016627753
66	0xbe151e2f	-0.14562295
67	0xbd83ed12	-0.06441702
68	0x3e122c9b	0.14274828
69	0x3da60643	0.08106663
70	0x3bc5d181	0.0060369377
71	0xbd76c37f	-0.060245033
72	0xbe009f8b	-0.12560861
73	0x3dc21a38	0.09477657
74	0xbd8b0548	-0.06788117
75	0x3b2e77f0	0.0026621781
76	0xbdc16fc9	-0.094451495
77	0xbd65e9d8	-0.056131214
78	0x3be88199	0.0070955274
79	0xbc93498b	-0.017979404
80	0xbac36fc2	-0.0014910626
81	0xbcbbc074	-0.022918917
82	0x3d8d2191	0.06891168
83	0x3d0c0371	0.03418297
84	0x3e22acdf	0.15886258
85	0x3c48a0f7	0.012245408
86	0xbe175472	-0.14778307
87	0xb88e19e7	-6.775912e-05
88	0x3e19c699	0.15017165
89	0xbd6c9875	-0.05776258
90	0x3c3b0822	0.011415513
91	0x3c7e4b97	0.015520952
92	0xbde9cd82	-0.11416151
93	0x3e2c559a	0.1682953
94	0xbd09a556	-0.033604942
95	0xbdfa405a	-0.12219305
96	0xbe00909e	-0.12555167
97	0xbdda471a	-0.10658093
98	0xbe2e8e6e	-0.1704652
99	0x3e3a20dc	0.18176597
100	0x3e50ff83	0.2040997
101	0xbe152a47	-0.14566909
102	0xbdcc05ca	-0.09962042
103	0x3e06cef4	0.13164884
104	0xbd419b6f	-0.047267374
105	0x3e5f5236	0.21808705
106	0xbdb89e88	-0.090146124
107	0xbd8d09a8	-0.068866074
108	0xbe073a84	-0.13205916
109	0xbd60d2c2	-0.054888494
110	0x3e2a102a	0.16607729
111	0xbce6ff8f	-0.028198032
112	0xbe262d03	-0.16228108
113	0x3e13051f	0.14357422
114	0xbdca2435	-0.09870187
115	0x3dca0358	0.09863919
116	0x3e601f1f	0.21886872
117	0x3e02c319	0.12769736
118	0x3e462c5d	0.19352861
119	0xbe07a694	-0.13247138
120	0xbe0845f4	-0.13307935
121	0xbe305e8c	-0.17223567
122	0x3e286270	0.16443801
123	0xbd03a855	-0.032142956
124	0x3de8fb9f	0.11376118
125	0xbde9b03d	-0.11410568
126	0x3d72bbb1	0.059261028
127	0x3e5690d3	0.20953684
128	0x3d5ae711	0.05344302
129	0x3e47bd21	0.1950574
130	0xbdf6726b	-0.12033542
131	0x3d81b33f	0.063330166
132	0xbd20bb8a	-0.03924135
133	0xbe250631	-0.16115643
134	0xbdb8aaa1	-0.0901692
135	0xbbbe40ed	-0.0058060796
136	0xbe2d8f59	-0.16949214
137	0x3e2fcf2f	0.17168878
138	0xbdcc2829	-0.099685974
139	0xbc19eaa4	-0.009394322
140	0x3d25dba8	0.040492684
141	0xbe2e13ff	-0.16999815
142	0xbda3b6fe	-0.07993887
143	0x3d989710	0.07450688
144	0xbd4f5561	-0.050618533
145	0x3e19ae6e	0.15007946
146	0x3dc57978	0.09642309
147	0x3de6f4b5	0.11277143
148	0x3e156f1f	0.1459317
149	0x3d9b5806	0.075851485
150	0xbe15432e	-0.14576408
151	0x3dfbdb6e	0.12297712
152	0xbd4af93c	-0.049554095
153	0x3da80452	0.08203949
154	0x3dd87aea	0.10570319
155	0x3dc5c2a8	0.09656268
156	0x3e322b9d	0.1739945
157	0x3e56f979	0.20993604
158	0xbe0504b3	-0.12990074
159	0xbda89533	-0.082315825
160	0x3df6f901	0.120592125
161	0x3c9effe6	0.019409131
162	0x3dadf712	0.084943905
163	0xbe15591a	-0.14584771
164	0xbd88cc66	-0.06679611
165	0xbb3c0ea8	-0.002869526
166	0x3e423b58	0.1896795
167	0xbdf05981	-0.117358215
168	0x3daed4d0	0.085366845
169	0x3d896ac2	0.067098156
170	0xbd9ced41	-0.0766244
171	0x3df99cff	0.12188148
172	0x3e4cfd89	0.20018591
173	0x3e44d6d9	0.19222583
174	0xbd0feaea	-0.03513614
175	0xbc0462a8	-0.008080162
176	0xbb136768	-0.0022492055
177	0x3e17efc7	0.14837562
178	0xbdb8f2e5	-0.090307035
179	0x3db6b8e4	0.08921984
180	0x3e16acdc	0.14714378
181	0x3e159584	0.14607817
182	0xbd7b33ce	-0.0613287
183	0x3e15fb9b	0.14646761
184	0xbe19cc27	-0.15019284
185	0xbd4a65da	-0.04941354
186	0x3e40322c	0.18769139
187	0xbda832de	-0.08212827
188	0x3d530de6	0.051526926
189	0x3e59295f	0.21207188
190	0x3d889ee2	0.066709295
191	0xba8d6636	-0.0010787908
192	0x3d458ef5	0.048232038
193	0xbdee8ab8	-0.11647552
194	0xbe2b7971	-0.16745545
195	0x3dab2c91	0.0835811
196	0xbc1d076f	-0.009584292
197	0x3daf379c	0.085555285
198	0x38c763a3	9.507618e-05
199	0x3e031d48	0.12804139
200	0xbded584f	-0.11589109
201	0xbda70c0e	-0.08156596
202	0xbe16c48c	-0.14723414
203	0xbe0c9b9a	-0.13731232
204	0x3e0c075e	0.13674685
205	0xbcf19eca	-0.029494662
206	0xbda2e9d8	-0.079547584
207	0xbd428cd2	-0.047497578
208	0xbbaddb0d	-0.005305654
209	0xbd358a4d	-0.044321347
210	0xbe2289a1	-0.15872814
211	0x3df6fdff	0.12060165
212	0xba0b061e	-0.0005303341
213	0xbdf15e32	-0.117855445
214	0x3d4f1765	0.05055942
215	0xbd3e3082	-0.04643298
216	0xbd1e3d80	-0.03863287
217	0xbe064d8a	-0.13115516
218	0xbe27ae5f	-0.16375111
219	0x3d589991	0.052880827
220	0xbe185348	-0.1487552
221	0x3dead933	0.11467209
222	0xbe1ae524	-0.15126473
223	0xbc5e1da9	-0.013556876
224	0xbe0c80dc	-0.13721031
225	0xbdf1af12	-0.1180097
226	0xbe167754	-0.14693958
227	0xbdb49bc8	-0.088187754
228	0x3d6ab9f4	0.057306245
229	0x3d88b163	0.06674459
230	0xbda58f21	-0.0808394
231	0x3e1ba16e	0.151983
232	0xbd890c43	-0.06691792
233	0xbc818cfd	-0.015814299
234	0x3e0e455e	0.13893649
235	0x3e55ace8	0.2086674
236	0x3e48d387	0.19611941
237	0xbe2a2abb	-0.16617863
238	0xbdf34a46	-0.11879401
239	0x3d9c777f	0.076399796
240	0x3d07ecc9	0.0331848
241	0x3e39595b	0.18100493
242	0x3e1277fd	0.14303584
243	0xbdfd7960	-0.12376666
244	0x3e56c0be	0.20971963
245	0x3dcabc46	0.098991916
246	0x3e0bf33b	0.13667004
247	0xbd054921	-0.032540444
248	0x3e3396b0	0.17537951
249	0xbdec179d	-0.115279414
250	0x3dfe7b7d	0.12425897
251	0x3e62ae20	0.22136736
252	0x3dc7b361	0.09751011
253	0xbd675b97	-0.05648383
254	0x3d55767d	0.052114952
255	0x3e32bf1f	0.1745572

mono.3.bias f4 [32]
0	0xbe01b8e6	-0.1266819
1	0x3d41560e	0.04720121
2	0x3d861ecc	0.06548843
3	0xbda1b495	-0.078957714
4	0xbd144e41	-0.03620744
5	0x3d442810	0.04788977
6	0x3de9227d	0.11383531
7	0x3d2d2952	0.042275734
8	0x3e353377	0.17695414
9	0x3e33fb8a	0.17576423
10	0x3d6594ed	0.05605023
11	0xbd7c1e88	-0.061552554
12	0xbd95a5bb	-0.07307001
13	0xbd0bb839	-0.034111235
14	0x3ce59d10	0.028028995
15	0xbdc4dd8f	-0.096125714
16	0xbe1d3a4c	-0.1535427
17	0xbd2215da	-0.03957162
18	0xbde9b7f9	-0.11412043
19	0x3d8ac566	0.06775932
20	0xbd4f94f7	-0.050679173
21	0xbd26b70a	-0.040701903
22	0x3dac9450	0.08426726
23	0x3da32426	0.07965879
24	0x3d4af162	0.049546607
25	0x3de1ff64	0.1103504
26	0xbde74e4a	-0.11294229
27	0x3dbede8b	0.093197905
28	0x3cb5c24a	0.02218737
29	0xbdfef21e	-0.12448524
30	0x3d7ae0bf	0.06124949
31	0xbdd7d62b	-0.10538896
