models/auto-4.pth (torch, 11794 bytes, 15 tensors)

pre_mono.0.weight f4 [16, 4]
0	0xbeafee8b	-0.3436168
1	0x3f0ca6de	0.5494212
2	0x3ee27b4d	0.44234696
3	0x3e4ef0da	0.20209065
4	0xbee55a60	-0.44795513
5	0xbf05e91e	-0.52308834
6	0xbe87f85d	-0.26556674
7	0xbf03b8a2	-0.514536
8	0xbf0af9c5	-0.5428737
9	0x3dcaf974	0.09910861
10	0x3eae23c7	0.3401167
11	0xbef6e7d6	-0.48223752
12	0x3ebe6027	0.37182733
13	0xbe132aed	-0.14371844
14	0x3e8db2ee	0.27675575
15	0x3ee26a92	0.44221932
16	0xbe47ace0	-0.1949954
17	0x3df50cf5	0.11965362
18	0x3e9f670e	0.31133312
19	0xbeb5629f	-0.35426804
20	0xbe537d3b	-0.2065324
21	0x3ea6e4be	0.3259639
22	0xbdc89377	-0.09793752
23	0xbe1c5d15	-0.15269883
24	0x3dc4d522	0.09610964
25	0x3ef51c51	0.47873166
26	0x3e9f5c0a	0.31124908
27	0x3de24a7d	0.11049364
28	0xbe6820da	-0.22668782
29	0xbbc554fe	-0.0060220947
30	0x3ce2b888	0.027675882
31	0xbf0d7384	-0.5525439
32	0xbebb9cc3	-0.36643037
33	0x3e54c6fb	0.2077903
34	0x3f0c105b	0.54712456
35	0xbe134d61	-0.14384986
36	0x3efd15ba	0.4943064
37	0xbdfe04d9	-0.12403268
38	0xbdfcd3d5	-0.12345091
39	0xbea844ac	-0.32864892
40	0xbeab8690	-0.335011
41	0x3c6ec822	0.014574083
42	0xbefc119a	-0.4923218
43	0xbef276cb	-0.47356257
44	0xbcc3b42b	-0.023889622
45	0xbe109063	-0.14117579
46	0x3ee7ad3d	0.45249358
47	0x3e88b15b	0.2669781
48	0xbe938c0f	-0.28817794
49	0x3edf6c6a	0.436374
50	0xbe904c7d	-0.28183356
51	0x3e705504	0.23469931
52	0xbed8a7ed	-0.42315617
53	0xbdb439c2	-0.08800079
54	0x3ed380cd	0.41309205
55	0x3f0ab190	0.5417719
56	0xbeb08ec3	-0.3448392
57	0xbefd6cb4	-0.49496996
58	0xbecb862f	-0.3975081
59	0x3e57e17b	0.21082108
60	0xbdb9af8d	-0.09066687
61	0x3d6887ae	0.05677002
62	0xbf2180a7	-0.6308693
63	0x3d56182d	0.05226915

pre_mono.0.bias f4 [16]
0	0x3ed282c0	0.4111538
1	0x3be9c5eb	0.0071341894
2	0xbd99fb15	-0.07518593
3	0xbe73ba79	-0.23801602
4	0x3ea9eb68	0.33187413
5	0xbeb22521	-0.34793952
6	0xbea4cb03	-0.32186136
7	0x3db8e004	0.090271026
8	0x3db75ded	0.08953462
9	0xbd96c64f	-0.07362043
10	0x3e22b7a1	0.15890361
11	0x3f13db15	0.5775617
12	0xbde10781	-0.109877594
13	0xbd2dc6a6	-0.042425774
14	0xbeb4647b	-0.3523291
15	0x3efd4d14	0.49472868

pre_mono.1.weight f4 [16, 16]
0	0x3e1f381d	0.1554875
1	0xbc88921c	-0.016671233
2	0xbe7cc07f	-0.24682806
3	0x3e954929	0.2915738
4	0x3e825515	0.25455537
5	0xbe4f1b0b	-0.2022516
6	0x3dacb93e	0.0843377
7	0x3e3815a3	0.17977004
8	0xbe8192c2	-0.2530728
9	0x3e90314e	0.28162616
10	0xbdae1a87	-0.085011534
11	0x3d0c975a	0.034324028
12	0xbdbfde05	-0.09368519
13	0xbe5d4278	-0.21607387
14	0x3e0799e8	0.13242304
15	0x3cb7833d	0.022401446
16	0xbe2061f9	-0.15662374
17	0x3e8f852d	0.28031293
18	0xbe1327aa	-0.143706
19	0xbde9acf4	-0.11409941
20	0x3d042b1b	0.03226767
21	0x3c7c9aaa	0.015417734
22	0xbe918916	-0.284249
23	0x3e497a1f	0.19675492
24	0x3e40de5d	0.18834825
25	0x3da7c1fe	0.08191298
26	0x3d3eb499	0.04655895
27	0xbd1bb612	-0.038015433
28	0xbe800828	-0.25006223
29	0x3ddf91b9	0.10916466
30	0xbc2230ac	-0.0098993
31	0xbdd5b336	-0.104345724
32	0xbe0ca9ba	-0.1373662
33	0x3e5a3eef	0.2131307
34	0x3d926f85	0.07150177
35	0x3d0725f4	0.03299518
36	0x3c970fd2	0.01844016
37	0x3e331dec	0.17491883
38	0x3e4970b0	0.19671893
39	0x3e734a25	0.23758753
40	0x3e8cdbe5	0.27511516
41	0x3d8e9aad	0.06963096
42	0xbe178152	-0.14795426
43	0x3e1a4284	0.15064436
44	0x3e62c352	0.22144821
45	0x3d11f5c0	0.035634756
46	0xbe478371	-0.19483735
47	0xbe1fa3db	-0.1558985
48	0x3de6d6f0	0.11271465
49	0x3e83a026	0.2570812
50	0xbda9288d	-0.082596876
51	0x3b96172d	0.0045803995
52	0xbb00250c	-0.0019553332
53	0xbe32a48c	-0.17445582
54	0x3e1630a5	0.14666994
55	0x3d2a03c6	0.041507505
56	0x3e030e7d	0.12798496
57	0x3e9ab9c4	0.30219853
58	0x3e32cecf	0.17461704
59	0x3aed368a	0.0018097919
60	0x3e90c051	0.28271726
61	0x3e87ad31	0.26499322
62	0xbe5f67f0	-0.21816993
63	0xbdfb1778	-0.12260336
64	0xbd873001	-0.06600953
65	0x3d83600f	0.06414806
66	0x3e06bc84	0.1315785
67	0xbe372347	-0.17884551
68	0x3bc9c64f	0.0061576734
69	0xbe1b06f4	-0.15139371
70	0xbe64d0fc	-0.22345346
71	0xbe8ac618	-0.2710426
72	0x3da13cb2	0.07872905
73	0x3e575d83	0.21031766
74	0x3e8e97e4	0.27850258
75	0x3ea4c0e7	0.32178423
76	0xbe0390b5	-0.1284817
77	0x3cc45186	0.023964655
78	0xbe1bd9d1	-0.15219809
79	0x3e8ef60f	0.27922103
80	0x3ce82e4d	0.02834239
81	0xbe0128d7	-0.12613235
82	0x3c5324c4	0.012887184
83	0xbe16b2e2	-0.14716676
84	0xbd8ac5b3	-0.067759894
85	0xbe20f182	-0.15717128
86	0x3d6ef95b	0.058343273
87	0x3dc6aad2	0.0970055
88	0xbdf71bdf	-0.12065863
89	0x3e870593	0.2637144
90	0xbe1af430	-0.15132213
91	0x3db8d872	0.09025659
92	0xbc72f5d1	-0.014829115
93	0xbd2fffc2	-0.04296852
94	0x3e0dcc97	0.13847576
95	0xbe48440f	-0.19557212
96	0x3e75d017	0.24005161
97	0x3e209bd8	0.1568445
98	0xbe0991ee	-0.13434574
99	0x3dbb577e	0.09147547
100	0x3d8b8601	0.068126686
101	0x3d20a7d1	0.039222542
102	0x3ce3fc92	0.027830396
103	0x3d882a28	0.06648666
104	0x3c882d31	0.016623111
105	0x3e112c3d	0.14177032
106	0xbd019de1	-0.031644706
107	0x3e003e24	0.12523705
108	0x3e5ca710	0.21548104
109	0x3e02341e	0.12715194
110	0xbdb9d729	-0.09074242
111	0x3e77ae3d	0.2418756
112	0x3e53346a	0.20625463
113	0xbd2a0f67	-0.041518595
114	0x3e1d74a2	0.15376523
115	0x3ae74ad9	0.0017646208
116	0xbdacad0f	-0.08431446
117	0xbe682030	-0.22668529
118	0x3e394090	0.18091035
119	0xbe4b19d9	-0.19834079
120	0xbd27641b	-0.040866952
121	0x3e12204c	0.14270133
122	0x3cbb4d2b	0.022863945
123	0x3e8b1c44	0.27170002
124	0x3e4f4661	0.20241691
125	0x3e17472f	0.14773248
126	0xb9b60e43	-0.0003472437
127	0x3d612251	0.054964367
128	0x3ded9e14	0.11602417
129	0xbdf4c30e	-0.11951266
130	0x3df9ceae	0.12197624
131	0xbdabed74	-0.083949
132	0x3e77aec1	0.24187757
133	0x3e7ec96b	0.24881522
134	0xbdbe15d7	-0.09281509
135	0xbbbf3581	-0.0058352356
136	0x3e3303f2	0.17481974
137	0x3e3ae807	0.18252574
138	0x3e94dea2	0.29076105
139	0xbe8278ef	-0.2548289
140	0xbe45db1b	-0.19321863
141	0xbe10b3c2	-0.14131072
142	0xbdfcdcdc	-0.12346813
143	0x3e5d28ef	0.21597646
144	0xbdb909ae	-0.090350494
145	0xbdd0bba2	-0.10192038
146	0x3e8dd25a	0.27699548
147	0xbe0c45e2	-0.13698533
148	0xb9c1b338	-0.00036945357
149	0xbe9c90f1	-0.30579332
150	0x3deee618	0.11664981
151	0xba451bfa	-0.00075191224
152	0x3e9a36c2	0.30119902
153	0x3c3661fe	0.011131762
154	0x3d9fccd9	0.078027435
155	0x3d92ee5d	0.071743704
156	0xbd17f2f7	-0.037096944
157	0xbe64ef21	-0.22356845
158	0x3e4d44f6	0.20045838
159	0x3dda3d08	0.10656172
160	0x3e0a97c9	0.13534464
161	0xbd6670ff	-0.056260105
162	0xbe61cd5d	-0.22050996
163	0x3cef0f7e	0.029182192
164	0x3db51746	0.0884233
165	0xbe285268	-0.16437685
166	0x3e6fdcb2	0.23424032
167	0xbe099106	-0.13434228
168	0x3e7ab969	0.24484791
169	0x3dc0ed49	0.094202586
170	0x3e601521	0.2188306
171	0xbe159d21	-0.14610721
172	0xbe22303d	-0.15838714
173	0x3e18daf8	0.1492728
174	0xbde51a81	-0.11186696
175	0xbcd19eb8	-0.025588378
176	0x3d58b771	0.05290932
177	0x3e873948	0.2641089
178	0x3e074671	0.13210465
179	0xbd370806	-0.044685386
180	0x3e8426af	0.25810763
181	0xbd16f736	-0.036856852
182	0xbe29ea0e	-0.16593191
183	0xbe0475b1	-0.1293552
184	0x3defd4cc	0.1171051
185	0x3e1dcdf1	0.15410592
186	0x3e194448	0.14967453
187	0x3e1086f8	0.14113986
188	0x3d213bd0	0.039363682
189	0xbac7feb5	-0.0015258404
190	0xbd1b893d	-0.037972677
191	0x3dbb8aa7	0.09157305
192	0x3da9b3cc	0.08286247
193	0xbe8072f5	-0.25087705
194	0xbe9abf2c	-0.30223978
195	0x3da5f04e	0.08102475
196	0xbcb026bb	-0.021502843
197	0x3e02e77d	0.12783618
198	0x3e88db68	0.26729894
199	0xbed00bf8	-0.4063413
200	0x3e5d6bb4	0.21623117
201	0x3e12d79b	0.1434006
202	0xbbf3b435	-0.007437254
203	0xbe30987d	-0.1724567
204	0xbe5fc931	-0.21854092
205	0x3cf197b9	0.029491292
206	0xbe91b098	-0.28455043
207	0xbe781710	-0.24227548
208	0xbe29a69a	-0.1656746
209	0x3e4e3369	0.20136799
210	0xbe349865	-0.17636259
211	0xbe850c36	-0.2598588
212	0x3d80784f	0.06272947
213	0x3e21f262	0.15815118
214	0x3e58e79c	0.21182102
215	0xbe434c49	-0.19072069
216	0x3e215f0b	0.15758912
217	0x3dc31f61	0.095274694
218	0x3d809f38	0.062803686
219	0xbd61b097	-0.05510005
220	0x3d924027	0.07141142
221	0x3d801d95	0.06255642
222	0xbe738ac3	-0.23783402
223	0xbebe96de	-0.37224478
224	0xbd22dad1	-0.03975946
225	0x3df39ddf	0.11895346
226	0x3dd01618	0.10160464
227	0xbdb58ca1	-0.088647135
228	0x3e149f01	0.1451378
229	0xbe86807c	-0.262699
230	0xbe8b927f	-0.27260205
231	0xbda0fab4	-0.07860318
232	0xbe0dfc07	-0.13865672
233	0x3e9f17d1	0.31072858
234	0x3d5babc2	0.053630598
235	0x3e98a5d1	0.29814008
236	0xbe43d7b7	-0.19125257
237	0xbe19e364	-0.15028149
238	0xbe1a7c1e	-0.1508641
239	0xbe30bb4d	-0.1725895
240	0x3e1e386c	0.1545121
241	0x3e0313cf	0.12800525
242	0x3e3251c6	0.17414007
243	0x3e17cca1	0.14824153
244	0xbc692c2f	-0.014231726
245	0xbcfe8116	-0.031067412
246	0xbde02d4a	-0.10946138
247	0x3ca565dd	0.020190174
248	0xbe89d902	-0.26923376
249	0x3e962916	0.2932822
250	0x3d05dc27	0.032680657
251	0x3e075428	0.13215697
252	0xbd4ed22e	-0.05049341
253	0x3e12f8f2	0.14352778
254	0xbea325b3	-0.318647
255	0xbe8e24ab	-0.2776235

pre_mono.1.bias f4 [16]
0	0xbe43e349	-0.19129671
1	0x3e228bd7	0.15873657
2	0xbdf74601	-0.12073899
3	0x3ea90191	0.33009008
4	0x3ea5f794	0.3241545
5	0xbd266a89	-0.040628944
6	0xbd63a2bb	-0.055575114
7	0x3d26cfe1	0.040725593
8	0xbe581b6e	-0.21104214
9	0x3ddada08	0.106861174
10	0x3eb08154	0.3447367
11	0xbdbd440c	-0.092414945
12	0x3e2fa058	0.1715101
13	0x3e1a1e54	0.15050632
14	0x3dda4c57	0.10659092
15	0x3dc6698b	0.096880995

pre_mono.2.weight f4 [16, 16]
0	0x3e6ade52	0.22936371
1	0xbe00aeec	-0.12566727
2	0xbd128813	-0.0357743
3	0x3e79917c	0.24371904
4	0xbe003e4d	-0.12523766
5	0xbe0d0fe0	-0.13775587
6	0x3e4532af	0.19257616
7	0x3c9b43fe	0.01895332
8	0xbea04353	-0.31301364
9	0x3e8f015d	0.27930728
10	0x3e3d6c04	0.18498236
11	0x3e93eafc	0.28890216
12	0xbcc9a59a	-0.024615098
13	0x3ee1a125	0.44068256
14	0x3dfe7622	0.12424876
15	0xbccbed0f	-0.024893312
16	0xbc2bf6ef	-0.010495885
17	0x3c4b79b0	0.012419149
18	0x3e78fedb	0.2431597
19	0x3e7b6bc7	0.24552833
20	0x3ea523c2	0.32253844
21	0xbd732bc0	-0.059367895
22	0x3e2e5ea4	0.1702829
23	0x3e9fa5da	0.31181222
24	0x3caa0211	0.020752938
25	0x3e1f3255	0.15546544
26	0x3db9e560	0.09076953
27	0x3e5ebce4	0.21751744
28	0x3e42905d	0.19000383
29	0x3e5873fd	0.21137996
30	0x3dc87511	0.09787954
31	0x3bf80e09	0.0075700325
32	0xbe428c31	-0.18998791
33	0x3dfe73d4	0.12424436
34	0xbd8c1e1d	-0.06841681
35	0xbd638edb	-0.05555616
36	0xbe116c53	-0.14201479
37	0xbd513fe4	-0.05108632
38	0x3e21a020	0.15783739
39	0xbdaa8f3a	-0.083280995
40	0x3db9001e	0.090332255
41	0xbda8f5a2	-0.08249976
42	0xbe09c221	-0.1345296
43	0xbe297a1a	-0.16550484
44	0x3e174996	0.14774165
45	0x3e51c8b2	0.20486715
46	0xbe2962cc	-0.16541594
47	0x3dfd3527	0.12363654
48	0xbc59f710	-0.013303533
49	0xbe63997e	-0.22226521
50	0xbdcfd354	-0.101477295
51	0x3e314b1e	0.17313811
52	0xbe68cbbd	-0.2273397
53	0xbdaabff6	-0.08337395
54	0xbe5f865e	-0.21828601
55	0x3d825768	0.06364328
56	0xbe38a242	-0.18030646
57	0x3de3aa58	0.11116475
58	0xbe136697	-0.14394604
59	0xbcf74110	-0.030182391
60	0xbd9d3d0c	-0.076776594
61	0x3d380960	0.044930816
62	0xbe2f0de3	-0.17095141
63	0xbe2da2f8	-0.16956699
64	0x3e8519ce	0.2599625
65	0x3c7be19c	0.015373614
66	0x3e7c82fc	0.24659342
67	0xbd8706b0	-0.065930724
68	0xbd065baa	-0.03280226
69	0xbe1a33bd	-0.15058799
70	0x3d5dde6f	0.054167207
71	0x3e313d3b	0.17308514
72	0xbe8b14d5	-0.2716433
73	0xbe0cb0c6	-0.13739309
74	0x3d8dd6a9	0.06925709
75	0x3e1a297b	0.15054886
76	0xbcfbd67f	-0.030741928
77	0x3e97f39d	0.2967805
78	0x3e86f347	0.2635748
79	0x3c55ea3a	0.013056332
80	0xbe03d949	-0.12875856
81	0x3eca0f0c	0.39464605
82	0x3e78d421	0.24299671
83	0x3e40e85b	0.18838637
84	0x3eb74dde	0.35801595
85	0x3e6c091a	0.23050347
86	0xbd84b2b2	-0.06479396
87	0x3e45edbf	0.19328974
88	0xbd9be85e	-0.0761268
89	0x3e80b0a2	0.2513476
90	0x3e9c25af	0.304975
91	0x3e20153b	0.15633099
92	0x3e4270b8	0.18988311
93	0x3e8ae33a	0.27126485
94	0x3e822961	0.25422195
95	0xbc8c1c67	-0.017103387
96	0x3c226ee3	0.009914133
97	0x3eaf4087	0.34228918
98	0xbe164716	-0.14675555
99	0x3da65bac	0.08122954
100	0xbd87f8a4	-0.06639221
101	0x3df59507	0.11991315
102	0x3e5d723a	0.21625605
103	0xbe15d373	-0.14631443
104	0xbcbeece3	-0.023306316
105	0x3d58e3e7	0.05295172
106	0x3deba73e	0.11506508
107	0x3e832581	0.2561455
108	0x3e39afaf	0.18133424
109	0x3de62897	0.11238211
110	0xbd9a6fff	-0.07540893
111	0x3e94eb2a	0.29085666
112	0x3e79010a	0.24316803
113	0x3d352608	0.044225723
114	0xbe2960a6	-0.16540775
115	0xbe1dd1e2	-0.15412095
116	0xbe3c92a9	-0.18415321
117	0xbb0a6740	-0.002111867
118	0xbd7e3f48	-0.06207207
119	0x3e1903c8	0.14942849
120	0x3e721d76	0.23644051
121	0x3dd21e30	0.10259664
122	0x3dddf6f4	0.10838118
123	0xbd88ab7a	-0.066733316
124	0xbe4ac46c	-0.19801491
125	0xbb881540	-0.004152924
126	0xbd158cb0	-0.036511123
127	0x3dc64998	0.09682006
128	0x3e628e27	0.2212454
129	0x3de8de52	0.11370529
130	0x3bb27d7d	0.0054470883
131	0x3e05da37	0.13071524
132	0xbdf27e2b	-0.11840471
133	0x3df8bbfb	0.121452294
134	0x3e9c962b	0.3058332
135	0xbdb2943d	-0.087196805
136	0xbeade3cc	-0.33962858
137	0xbddfad67	-0.10921746
138	0x3e42da47	0.19028579
139	0x3e5f42c0	0.21802807
140	0x3e6644eb	0.22487228
141	0x3d0c0c0c	0.034191176
142	0xbd61cf0a	-0.05512909
143	0xbde155dc	-0.110027045
144	0xbd1be59e	-0.038060777
145	0x3d2f9a59	0.042871807
146	0x3cd50fc6	0.026008498
147	0xbe19a75c	-0.15005249
148	0x3e542c5e	0.2072005
149	0x3de47abb	0.111562215
150	0x3d2b0799	0.041755293
151	0xbb52c6be	-0.0032161917
152	0xbe61f73f	-0.22066973
153	0x3e25ad07	0.16179286
154	0x3da0ffeb	0.078613125
155	0xbe0bef83	-0.13665585
156	0x3e4eab40	0.20182514
157	0x3e912024	0.28344834
158	0x3eb8ac1d	0.36068812
159	0x3a4c9df4	0.0007805519
160	0x3e5daaa9	0.21647133
161	0x3d16d131	0.036820594
162	0x3d62ba06	0.055353187
163	0x3cdca350	0.026933342
164	0xbde62da0	-0.11239171
165	0xbdcf4dcf	-0.10122263
166	0xbe363425	-0.17793329
167	0x3e6f40da	0.23364583
168	0xbe330f0a	-0.17486206
169	0x3e3b467e	0.1828861
170	0xbd3a3769	-0.045463
171	0x3e0cbc62	0.13743737
172	0x3e87d5da	0.26530343
173	0x3e924137	0.2856538
174	0x3dadbbc8	0.08483082
175	0x3d557008	0.052108794
176	0x3c0ae90b	0.008478413
177	0x3c8ab2f7	0.01693104
178	0x3d80840a	0.062751845
179	0x3dc7debf	0.09759282
180	0x3e4eaabf	0.20182322
181	0xbe2b0fca	-0.16705242
182	0xbda8d118	-0.082430065
183	0x3e8a92de	0.27065176
184	0xbeba1d74	-0.36350596
185	0x3e799bfc	0.2437591
186	0x3e028ed3	0.12749796
187	0x3e2b0700	0.16701889
188	0x3d4e970f	0.05043703
189	0xbc7c8670	-0.015412912
190	0xbca06e04	-0.01958371
191	0x3d4c60ff	0.04989719
192	0x3e324818	0.17410314
193	0x3ec13ad9	0.3774021
194	0xbd41152e	-0.04713934
195	0x3e93221d	0.28736964
196	0xbdf8076f	-0.12110793
197	0x3e857fea	0.26074153
198	0x3e9615f0	0.29313612
199	0x3e2a5e29	0.16637482
200	0xbeb2b749	-0.3490546
201	0xbe06df26	-0.13171062
202	0x3d2559a6	0.0403687
203	0x3dda87c1	0.10670424
204	0x3eb9c55d	0.3628339
205	0xbd233726	-0.039847516
206	0xbd7782bd	-0.060427416
207	0x3e116daf	0.14201997
208	0xbd76cb71	-0.06025261
209	0x3e971448	0.2950766
210	0x3e87fe3d	0.26561156
211	0x3ea35d1b	0.3190697
212	0x3e6920e9	0.2276646
213	0x3e1f0bf4	0.15531904
214	0x3df634ba	0.120217755
215	0x3cd668d9	0.026173042
216	0xbd977388	-0.07395083
217	0x3e42dc4d	0.1902935
218	0xbd82b9d8	-0.06383103
219	0x3d83cb13	0.06435218
220	0x3dc84460	0.097786665
221	0x3dfb22d9	0.12262506
222	0x3dec8b12	0.11549963
223	0x3e84c48a	0.25931197
224	0x3e7823fa	0.24232474
225	0xbcdc4551	-0.026888521
226	0xbe1ac0fa	-0.15112677
227	0x3e9d9f17	0.30785438
228	0xbdee6372	-0.116400614
229	0x3d04f998	0.032464594
230	0x3e0550d7	0.13019119
231	0x3e6ef22e	0.23334572
232	0xbef19f24	-0.47191727
233	0xbe325599	-0.17415465
234	0x3e2492d1	0.16071631
235	0x3e06ec86	0.13176164
236	0x3d89aef6	0.06722824
237	0x3eba7666	0.36418456
238	0x3d42e13c	0.04757808
239	0xbcec7b4d	-0.028867388
240	0x3e613a97	0.21995007
241	0x3db2a00c	0.08721933
242	0x3e2e1866	0.17001495
243	0x3da86f3e	0.08224343
244	0x3da8546b	0.082192264
245	0x3e7c11e7	0.24616204
246	0xbd9a8476	-0.07544796
247	0xbe07204b	-0.13195913
248	0xbebcf2cb	-0.36903986
249	0x3e1d2a88	0.15348256
250	0x3e493563	0.19649272
251	0xbd860c9f	-0.06545376
252	0x3e330304	0.17481619
253	0x3e55228d	0.20813961
254	0x3e802453	0.25027713
255	0x3e02b1d5	0.1276315

pre_mono.2.bias f4 [16]
0	0xbcb8d733	-0.022563552
1	0x3d84f1b9	0.064914174
2	0xbd46fb57	-0.04857954
3	0xbdfbb2ea	-0.122899845
4	0x3e7eb4b2	0.24873617
5	0x3e2e82ab	0.17042033
6	0x3e8cc806	0.27496356
7	0xbe6b2d81	-0.22966577
8	0x3e1f3ab6	0.1554974
9	0x3e477d53	0.19481401
10	0x3e35d106	0.17755517
11	0x3eb45add	0.35225573
12	0xbc6870d9	-0.014187061
13	0x3eb282bf	0.34865376
14	0xbda52964	-0.08064535
15	0x3e2e1314	0.16999465

mono.0.weight f4 [16, 19]
0	0x3da6a3e1	0.08136726
1	0x3dedc713	0.11610236
2	0xbe48d752	-0.19613388
3	0xbe0840ca	-0.13305965
4	0xbea732d2	-0.3265596
5	0xbea0b1c3	-0.3138562
6	0x3ea76059	0.32690695
7	0x3e421936	0.1895493
8	0x3e11a9ac	0.14224881
9	0x3eb3a59e	0.35087293
10	0xbe30cbdf	-0.1726527
11	0xbe6b31f6	-0.22968277
12	0x3e8789e5	0.26472393
13	0xbde3489d	-0.11097834
14	0x3dc6c26a	0.0970505
15	0x3e85fa43	0.26167497
16	0x3e4881de	0.1958079
17	0xbe6ca400	-0.23109436
18	0xbe75cc3d	-0.24003692
19	0xbe8853ec	-0.26626527
20	0x3dca3f02	0.09875299
21	0xbdba0709	-0.09083373
22	0x3d49cdd7	0.04926857
23	0x3de8aa70	0.113606334
24	0x3e986094	0.29761183
25	0x3df60b4a	0.12013872
26	0x3deb75a6	0.11497049
27	0x3e23a87f	0.15982245
28	0x3eac302f	0.3363051
29	0xbe431c43	-0.1905375
30	0x3e949e8d	0.29027215
31	0x3e6f33a2	0.2335954
32	0xbe42d7a8	-0.19027579
33	0x3e473476	0.19453606
34	0x3eaee476	0.34158677
35	0xbe564e09	-0.20928206
36	0xbe4653b9	-0.19367875
37	0x3e9df64a	0.30851966
38	0x3e7541a3	0.2395082
39	0x3e1951bc	0.14972585
40	0x3da1f7b4	0.07908574
41	0x3e2dffb6	0.16992077
42	0x3e9aae70	0.3021121
43	0xbe7d5cf4	-0.2474249
44	0xbe4795b3	-0.194907
45	0x3e45cbf4	0.19316083
46	0x3e590ffe	0.21197507
47	0xbe765a82	-0.24057963
48	0xbe2d005a	-0.16894665
49	0x3ea48cab	0.3213857
50	0xbe5a3166	-0.21307907
51	0x3e7c1f3f	0.24621294
52	0x3e3f89e4	0.18704945
53	0xbeb17a86	-0.3466379
54	0xbe9bc5bb	-0.30424294
55	0x3e33f269	0.17572941
56	0x3e85cc3e	0.26132387
57	0x3e83a58b	0.25712237
58	0x3def56f2	0.116865054
59	0x3e284fd7	0.16436706
60	0xbe26f463	-0.16304164
61	0x3e73e0ec	0.2381627
62	0xbea587e1	-0.3233023
63	0x3e803bc6	0.25045604
64	0x3ccbc0ef	0.024872271
65	0x3e6ab847	0.22921859
66	0x3e655e1e	0.22399184
67	0xbe7fff6e	-0.24999782
68	0x3dcfb14a	0.10141237
69	0x3dc8778f	0.09788429
70	0x3e0743f2	0.13209513
71	0xbe821acd	-0.25411072
72	0xbe791475	-0.2432421
73	0xbe3cc535	-0.18434604
74	0xbe67f2b5	-0.22651179
75	0x3eb225d7	0.34794495
76	0x3e3d0500	0.18458939
77	0x3e3bba7f	0.18332861
78	0xbd9ec387	-0.07752138
79	0xbe3e9b45	-0.18613918
80	0x3e1c85d6	0.1528543
81	0x3ea0f641	0.31437877
82	0x3e50883d	0.20364471
83	0xbe3da9f6	-0.18521866
84	0xbddcef91	-0.10787881
85	0x3e11bcf7	0.1423224
86	0x3e78d554	0.24300128
87	0x3e491cc9	0.19639887
88	0xbe6cc464	-0.23121792
89	0xbea1cfa2	-0.31603724
90	0x3dfa7a6a	0.1223038
91	0x3e78d873	0.24301319
92	0x3e5ad636	0.21370777
93	0x3e87acee	0.26499122
94	0x3eb5b49f	0.35489365
95	0xbe1abb8b	-0.15110604
96	0xbe9fad8b	-0.3118709
97	0x3df7f04f	0.12106382
98	0x3e629ab7	0.22129332
99	0xbe8ac7d1	-0.27105573
100	0xbe5e8715	-0.21731217
101	0x3e98316b	0.29725203
102	0x3e377b8d	0.17918225
103	0xbddf43b0	-0.10901582
104	0xbe867e3d	-0.26268187
105	0x3e0e8da3	0.13921218
106	0xbea5a9d3	-0.32356128
107	0xbe24234f	-0.16029094
108	0xbe03cf6c	-0.12872094
109	0xbddff287	-0.1093493
110	0x3e66c030	0.22534251
111	0x3db2f4d2	0.08738102
112	0xbe930c7b	-0.2872046
113	0xbe2f46f1	-0.17116906
114	0x3d9d41df	0.076785795
115	0x3e6dbc42	0.23216346
116	0x3cb0bb7d	0.021573776
117	0xbda3d544	-0.079996616
118	0x3e459eb7	0.19298826
119	0x3e54530d	0.20734806
120	0x3e136166	0.14392623
121	0xbdfc4bab	-0.1231912
122	0x3e18e752	0.14931992
123	0x3e284381	0.16432
124	0x3e68141c	0.22663921
125	0xbe24f4a5	-0.1610895
126	0xbdad2a3b	-0.084553204
127	0x3e5f7a1b	0.21823923
128	0xbdae9a68	-0.085255444
129	0x3e80191f	0.25019166
130	0xbdf2d027	-0.11856108
131	0x3e9d1fd7	0.30688354
132	0xbe18ae45	-0.14910229
133	0xbdd36a04	-0.10322955
134	0x3e2bd1c2	0.16779235
135	0xbca6879e	-0.02032834
136	0x3e3c0e34	0.18364793
137	0xbe0ac0d1	-0.13550116
138	0x3e82fda9	0.25584152
139	0xbe2393e1	-0.1597438
140	0x3ca51925	0.020153591
141	0x3e253e4a	0.16137043
142	0xbeb1e415	-0.34744325
143	0x3e0fcb25	0.14042337
144	0x3e64a83c	0.22329801
145	0x3e239d54	0.15977985
146	0x3dd58bc8	0.10427052
147	0xbd9f89ae	-0.07789932
148	0x3e4f6992	0.20255116
149	0x3e1b22f6	0.15150055
150	0xbe5e4271	-0.21705033
151	0x3e75a98b	0.23990457
152	0xbe80b48a	-0.2513774
153	0x3dc7f3cc	0.097632974
154	0xbdb33ff8	-0.087524354
155	0xbdc496d0	-0.09599078
156	0xbe945d4d	-0.28977433
157	0x3e907b44	0.28219044
158	0x3df96899	0.121781535
159	0x3c813fa8	0.015777424
160	0xbdf92f2e	-0.12167202
161	0xbe6919fd	-0.2276382
162	0xbe8cdcfa	-0.27512342
163	0x3e11d5a2	0.1424165
164	0xbe7e44d7	-0.24830948
165	0xbe49bc4a	-0.19700733
166	0x3e2da64e	0.16957971
167	0x3ea552f6	0.32289857
168	0xbe1f12fc	-0.15534586
169	0xbeaa5a88	-0.33272195
170	0x3ec00065	0.375003
171	0x3e377d8c	0.17918986
172	0x3e8251dc	0.2545308
173	0xbd4f2966	-0.05057659
174	0xbd41a0b6	-0.047272407
175	0x3e018e4c	0.12651938
176	0x3e224b0b	0.15848939
177	0x3ddba76d	0.10725293
178	0xbdf3da45	-0.11906866
179	0x3e95beba	0.29247075
180	0x3e759cea	0.23985639
181	0xbdf2d1d1	-0.118564256
182	0xbe96ea21	-0.294755
183	0xbe3adf05	-0.18249138
184	0xbe37d101	-0.17950822
185	0xbdbda005	-0.09259037
186	0x3e472f08	0.19451535
187	0xbdf5f7f7	-0.12010186
188	0x3e3e36f5	0.18575652
189	0xbe998612	-0.299851
190	0xbdd76833	-0.10517921
191	0x3e455874	0.19272023
192	0x3e6f9b99	0.233992
193	0xbe467590	-0.19380784
194	0x3e015d21	0.12633182
195	0x3e64b6a9	0.22335304
196	0xbe0019d7	-0.12509857
197	0x3d5aeda2	0.05344928
198	0x3e6c90e3	0.23102145
199	0xbeb8a564	-0.36063683
200	0x3e6bd63c	0.23030943
201	0xbe9b8d99	-0.30381468
202	0x3de5507f	0.11196994
203	0x3e73211e	0.23743102
204	0xbe226254	-0.15857822
205	0x3e057442	0.1303263
206	0xbe97e812	-0.29669243
207	0xbdeacde1	-0.114650495
208	0x3e8eb692	0.27873665
209	0x3e2d3c33	0.16917495
210	0x3e19a7da	0.15005437
211	0xbce20551	-0.027590426
212	0xbdc08287	-0.09399896
213	0x3e948c6a	0.29013377
214	0x3e2e2052	0.17004517
215	0x3e3b4b20	0.18290377
216	0x3de4c76d	0.1117085
217	0xbe1c0501	-0.15236284
218	0xbe19dfbd	-0.15026756
219	0x3ea04746	0.31304377
220	0x3e9bfa6c	0.30464494
221	0xbe981859	-0.29706076
222	0xbe9727e4	-0.29522622
223	0xbdf5f87b	-0.120102845
224	0x3e411811	0.18856837
225	0xbe4e51ad	-0.20148344
226	0x3e60e910	0.21963906
227	0xbeb6e613	-0.35722408
228	0xbda971d7	-0.08273666
229	0x3e71b47c	0.23604006
230	0xbd89d682	-0.06730367
231	0xbd708d10	-0.058728278
232	0x3e1cab54	0.15299731
233	0x3e8ddc58	0.2770717
234	0x3e1b767d	0.15181918
235	0x3bba465b	0.0056846566
236	0xbdbcc16b	-0.09216579
237	0xbea6de50	-0.32591486
238	0xbe3fc901	-0.1872902
239	0x3ea7573d	0.32683745
240	0xbe644881	-0.22293283
241	0x3e53b6d2	0.20675209
242	0xbe094079	-0.134035
243	0x3e55238f	0.20814346
244	0x3e3d2466	0.18470916
245	0x3e89e489	0.2693217
246	0xbe95a7c0	-0.29229546
247	0xbdace04d	-0.084412195
248	0xbe7b32eb	-0.24531142
249	0x3d6318a5	0.055443425
250	0xbdde65fd	-0.108592965
251	0x3e018c49	0.12651171
252	0xbe94e53b	-0.2908114
253	0xbe1c2646	-0.15248975
254	0xbe443e79	-0.19164456
255	0xbe901235	-0.2813889

mono.0.bias f4 [16]
0	0x3db00ba5	0.08595971
1	0x3dcd8d6d	0.100367405
2	0x3daa761e	0.0832331
3	0x3e246dc7	0.16057502
4	0x3e5a3885	0.21310623
5	0xbd92af08	-0.07162291
6	0x3cf2f166	0.029656123
7	0xbd6dde61	-0.058073405
8	0x3d82d5bc	0.06388423
9	0x3e3198aa	0.17343393
10	0xbd1c1ab1	-0.038111392
11	0x3e17fcc8	0.14842522
12	0xbde38102	-0.11108591
13	0x3e4b9b22	0.19883397
14	0x3e7cc7e4	0.24685627
15	0x3d039cc0	0.03213191

mono.1.weight f4 [16, 16]
0	0x3e7d0553	0.24709062
1	0xbc8633bc	-0.01638209
2	0xbe1a8530	-0.1508987
3	0xbe5732aa	-0.2101542
4	0xbe52dd14	-0.20592147
5	0x3e39755f	0.1811118
6	0x3e149924	0.14511544
7	0xbe1c76c9	-0.15279688
8	0xbb0172e1	-0.001975231
9	0x3dfc813d	0.12329338
10	0x3de6773a	0.112532094
11	0x3e76a5ce	0.24086687
12	0x3eb15194	0.34632552
13	0x3e83a495	0.25711504
14	0x3e61ae9a	0.22039261
15	0x3e83fed6	0.25780362
16	0xbdd454b1	-0.10367716
17	0xbda0ec4c	-0.0785757
18	0xbdbd9546	-0.09256987
19	0x3e19ca9d	0.15018697
20	0x3e26bad1	0.16282202
21	0x3e269073	0.1626604
22	0xbe015e55	-0.12633641
23	0xbe47a8ea	-0.1949803
24	0xbcf0d9bb	-0.029400697
25	0x3e665c41	0.2249613
26	0xbe47b566	-0.19502792
27	0x3e55bb75	0.2087229
28	0x3e4be1d2	0.19910362
29	0xbdf30c93	-0.11867633
30	0x3e979da5	0.2961246
31	0xbddc322c	-0.10751757
32	0x3e5fef9a	0.21868744
33	0x3d938b66	0.072043225
34	0xbe2fcb3f	-0.17167376
35	0xbd931e75	-0.071835436
36	0x3e686a7e	0.22696874
37	0xbe260016	-0.1621097
38	0x3ea2c893	0.3179365
39	0xbd355aa2	-0.044275887
40	0xbd580b3d	-0.052745093
41	0xbe4404e4	-0.1914249
42	0xbe2bd7c3	-0.16781525
43	0xbe54b962	-0.20773843
44	0x3e2b44ee	0.16725513
45	0x3e9c4046	0.30517787
46	0x3e430517	0.1904491
47	0x3e9beca3	0.30453977
48	0xbe2788e2	-0.1636081
49	0xbe36fcc6	-0.17869863
50	0x3ea93970	0.33051634
51	0x3e0c2375	0.13685401
52	0x3e7f0337	0.2490357
53	0x3e617e4a	0.22020832
54	0x3e2c7598	0.16841733
55	0xbda4184e	-0.08012448
56	0x3eaa030b	0.33205447
57	0xbcffb7ee	-0.031215634
58	0xbe4dad5f	-0.20085667
59	0x3e4e8ce5	0.20170934
60	0xbe0a1668	-0.1348511
61	0x3e21fdb2	0.15819433
62	0x3eb06f44	0.3445989
63	0xbd9a97da	-0.07548495
64	0xbda16174	-0.07879916
65	0x3dab4d3c	0.08364341
66	0xbce1a552	-0.027544651
67	0x3dff22ee	0.12457834
68	0xbc5704c3	-0.013123694
69	0x3eb0e034	0.34546053
70	0x3e80003a	0.25000173
71	0x3dd5e09c	0.104432315
72	0xbcfd87f2	-0.030948613
73	0x3e054d1a	0.13017693
74	0x3e8f602c	0.2800306
75	0xbdd70c54	-0.10500398
76	0xbcea630b	-0.02861168
77	0x3e9475c7	0.28996107
78	0xbdd7ad1f	-0.10531067
79	0x3e6f644f	0.23378108
80	0xbe44a3c9	-0.19203104
81	0xbdd57bf7	-0.10424035
82	0xbc841cf3	-0.016127085
83	0xbe5b538e	-0.21418592
84	0x3e8b5809	0.27215603
85	0xbdb6d0ac	-0.0892652
86	0x3e8d8e08	0.27647424
87	0x3dd0321b	0.10165807
88	0x3e465f87	0.19372378
89	0x3e6c7ce8	0.23094523
90	0xbdcd51f7	-0.10025399
91	0xbb63d0b8	-0.0034761857
92	0x3e047848	0.12936509
93	0xbd0e7995	-0.03478392
94	0x3eaf6cb9	0.34262636
95	0xbe541ded	-0.20714541
96	0xbe3c87c5	-0.18411167
97	0xbc1d0b78	-0.009585254
98	0xbe141854	-0.14462405
99	0xbdaaa7dd	-0.08332799
100	0x3e9e409c	0.30908668
101	0x3ddb3fba	0.10705514
102	0x3ea02e97	0.31285545
103	0x3e9f8240	0.3115406
104	0x3e790ad3	0.24320535
105	0x3e980529	0.29691437
106	0xbdf46c9e	-0.119347796
107	0xbe58379f	-0.21114968
108	0xbd862078	-0.06549162
109	0xbdee380d	-0.116317846
110	0x3e344bd5	0.17607053
111	0x3e35adb3	0.17742042
112	0x3dcf6ca4	0.101281434
113	0xbe07941c	-0.13240093
114	0x3e012162	0.12610391
115	0xbe5295fe	-0.2056503
116	0xbe0168f2	-0.1263769
117	0xbd88aa92	-0.06673159
118	0x3e8e9825	0.27850452
119	0x3eb016fd	0.3439254
120	0x3e8158dc	0.25263107
121	0x3e8f6708	0.28008294
122	0xbb578ed3	-0.0032891526
123	0xbe02b4b2	-0.12764242
124	0x3e8adb93	0.27120647
125	0x3eaf1d20	0.34201908
126	0x3dff85cc	0.124766916
127	0x3e659c86	0.2242299
128	0xbdf12917	-0.117754154
129	0x3e3e8b79	0.18607892
130	0xbd3cc6cf	-0.046088036
131	0x3e540fcc	0.20709151
132	0xbd794936	-0.060860835
133	0x3eb50a46	0.353594
134	0x3ea4d216	0.32191533
135	0x3e206cc0	0.15666485
136	0xbe3d996f	-0.18515562
137	0x3e355166	0.17706832
138	0x3e96110e	0.29309887
139	0x3e94f81c	0.29095542
140	0x3e612a5d	0.21988817
141	0x3e68e254	0.22742587
142	0x3e7562d5	0.23963483
143	0x3dce84a6	0.100838944
144	0x3e00a6d0	0.12563634
145	0x3eb207b9	0.34771517
146	0xbc33ee7f	-0.010982155
147	0xbb8ec116	-0.0043565137
148	0xbd5815aa	-0.052755035
149	0x3e664652	0.22487763
150	0x3eb55cfd	0.35422507
151	0xbe48c8bb	-0.19607823
152	0x3e8ffd46	0.2812292
153	0xbe12c65b	-0.14333479
154	0xbdeba9b6	-0.11506979
155	0xbe0be370	-0.1366098
156	0x3eb1886b	0.3467439
157	0x3deea0a3	0.11651733
158	0x3e5567f8	0.20840442
159	0x3eb09a49	0.3449271
160	0xbd27c9e0	-0.040964007
161	0x3e138b63	0.1440864
162	0xbdd7d0a6	-0.105378434
163	0xbdf21d7d	-0.11822031
164	0x3e909022	0.28234965
165	0xbd873fc2	-0.06603958
166	0xbe54ab11	-0.20768382
167	0x3d8f4345	0.069952525
168	0xbdef2207	-0.11676412
169	0x3ea621b6	0.32447594
170	0xbe2c9581	-0.16853906
171	0x3e2f0b89	0.17094244
172	0x3db062bb	0.08612581
173	0x3e426f0b	0.18987672
174	0x3e6f1d3c	0.23350996
175	0xbe54381e	-0.20724532
176	0xbe07055c	-0.13185638
177	0xbddf13cc	-0.10892448
178	0xbe655cef	-0.22398733
179	0xbdfe39ca	-0.12413366
180	0x3e12bc16	0.14329562
181	0x3e93c4ea	0.2886117
182	0x3dc5fcae	0.096673355
183	0x3eae70a3	0.3407031
184	0x3de5b9f3	0.112171076
185	0xbd3c0e8c	-0.04591231
186	0xbd52715b	-0.051377635
187	0x3e72363e	0.23653504
188	0x3ea6aa89	0.32551983
189	0x3e89f3f5	0.26943937
190	0xbda6b35d	-0.081396796
191	0xbd8fd490	-0.07022965
192	0xbe3738e7	-0.178928
193	0xbe568bbf	-0.20951746
194	0x3e3ea4b6	0.1861752
195	0x3e53d7fd	0.20687862
196	0x3e4e3413	0.20137052
197	0xbdb462d5	-0.08807913
198	0xbe06b30f	-0.13154243
199	0x3e1c04b0	0.15236163
200	0x3e14fcfd	0.14549632
201	0xbe2d9ada	-0.16953602
202	0xbe45f9d4	-0.19333583
203	0x3d7b4e4c	0.061353967
204	0x3e0220f1	0.12707879
205	0x3ea47919	0.3212364
206	0xbc27017a	-0.010193223
207	0x3e55dfbb	0.20886128
208	0x3dbed349	0.09317643
209	0x3e4a50cb	0.19757383
210	0xbe63d2da	-0.22248402
211	0xbd949c0a	-0.072563246
212	0x3e0e2aed	0.13883562
213	0x3e70b7b9	0.23507585
214	0x3eab4ce6	0.33457106
215	0x3e94ffca	0.29101402
216	0x3e82511a	0.254525
217	0x3e3dcf62	0.18536142
218	0x3e9394d2	0.28824478
219	0xbe00c266	-0.12574157
220	0x3dd167c0	0.10224867
221	0x3e903657	0.28166458
222	0x3eaca431	0.33719018
223	0x3eb370ef	0.350471
224	0x3e2cef5d	0.16888185
225	0x3eb3306e	0.34997886
226	0x3e63c66e	0.22243664
227	0x3e804c6f	0.25058314
228	0xbe11176d	-0.14169092
229	0x3e87cc08	0.2652285
230	0x3e843a23	0.25825605
231	0x3e362e06	0.17790994
232	0x3e882f85	0.26598755
233	0xbe104507	-0.14088832
234	0x3d83daf5	0.06438247
235	0x3e54dc18	0.20787084
236	0xbe0a55ef	-0.13509344
237	0x3e442e93	0.19158392
238	0x3dba662e	0.091015205
239	0x3e20b508	0.15694058
240	0xbe27a25b	-0.16370527
241	0xbdae8aa7	-0.085225396
242	0x3e42bb3d	0.19016738
243	0x3d7eef8f	0.06224018
244	0x3e05ea56	0.13077673
245	0x3eb1c61b	0.34721455
246	0x3e23871a	0.15969506
247	0xbd3c570d	-0.045981456
248	0x3dcc616a	0.09979518
249	0x3e2e97d3	0.17050104
250	0x3e419616	0.1890491
251	0x3e1da4e0	0.15394926
252	0x3e2cfbd3	0.16892938
253	0x3e8dfeea	0.27733546
254	0x3e9f0fac	0.31066644
255	0xbe1066b2	-0.14101675

mono.1.bias f4 [16]
0	0x3df7d4f8	0.121011674
1	0xbe0b4c15	-0.13603242
2	0x3bfbe534	0.0076872353
3	0x3e6ffced	0.23436327
4	0x3c9dd4eb	0.019266566
5	0x3d4a3d1c	0.049374685
6	0x3e71eb04	0.23624808
7	0xbd870b46	-0.06593947
8	0x3e943588	0.2894709
9	0xbdcfbab4	-0.10143033
10	0x3e1944f3	0.14967708
11	0xbe0c73ca	-0.13716045
12	0x3e262891	0.16226412
13	0x3e28cf4c	0.16485327
14	0x3d3998b8	0.04531166
15	0x3ea753d4	0.32681143

mono.2.weight f4 [16, 16]
0	0x3e7c03e8	0.24610865
1	0x3e2bbdd8	0.16771638
2	0x3e41fa64	0.18943173
3	0xbe6144d1	-0.21998908
4	0x3e05e9ef	0.1307752
5	0x3eb4b49b	0.3529404
6	0x3e7a55b3	0.24446754
7	0x3e5a76d5	0.21334393
8	0xbde5dd80	-0.112238884
9	0x3e6b5641	0.22982122
10	0x3e3f747b	0.18696778
11	0xbdc0c838	-0.09413189
12	0xbe4aaae4	-0.19791752
13	0x3eb3399e	0.35004896
14	0x3e54ef7b	0.2079448
15	0x3e1ad104	0.15118796
16	0xbe09fb66	-0.13474807
17	0x3e104a30	0.140908
18	0x3ea0ad71	0.31382325
19	0x3e1a0f6f	0.1504495
20	0x3d97b2a2	0.074071184
21	0x3ea29901	0.31757358
22	0xbdf287c2	-0.118423
23	0xbd5396d6	-0.05165752
24	0x3e1ad28d	0.15119381
25	0xbe2df9a2	-0.16989759
26	0x3e8a3a2d	0.2699751
27	0x3e593d15	0.21214707
28	0x3e98b3d2	0.29824692
29	0x3e0c5207	0.13703166
30	0x3e2287de	0.15872142
31	0x3e59c355	0.2126592
32	0xbe58cc5b	-0.21171705
33	0x3e411fe2	0.18859819
34	0x3e86f600	0.26359558
35	0xbe325577	-0.17415415
36	0x3ea69446	0.32535
37	0x3e4358b2	0.19076803
38	0xbe4c6cdc	-0.19963402
39	0xbe0f0c6e	-0.13969585
40	0x3e3178bf	0.17331217
41	0x3e639055	0.22223027
42	0x3ea85b73	0.3288227
43	0x3e7e189f	0.2481408
44	0xbd7ece64	-0.06220855
45	0xbc37dad3	-0.011221605
46	0xbe549272	-0.2075899
47	0x3e0469b5	0.12930949
48	0xbcc0ee15	-0.023551026
49	0xbde0b3b9	-0.109717794
50	0x3d847e0f	0.06469356
51	0xbe066a10	-0.13126397
52	0xbdd3dcee	-0.10344873
53	0xbd81a117	-0.063295536
54	0xbd8de4e2	-0.069284216
55	0x3e5513c1	0.20808317
56	0xbe6f3208	-0.23358929
57	0x3e7b7fe5	0.24560507
58	0xbdd7c02a	-0.10534699
59	0x3da5c246	0.08093695
60	0xbe29ff3a	-0.16601267
61	0xbe5e2df1	-0.21697213
62	0x3e0d0a61	0.1377349
63	0x3e8978a8	0.26849866
64	0x3e58e9cd	0.21182938
65	0x3dfdfa43	0.12401249
66	0x3e13cf9a	0.14434662
67	0xbdce24a0	-0.100655794
68	0x3e26351a	0.16231194
69	0xba9e85de	-0.0012094339
70	0xbe5f30b0	-0.21795917
71	0x3ea7deb2	0.3278709
72	0x3e874025	0.26416126
73	0x3e9417a3	0.28924283
74	0x3da67f3c	0.08129737
75	0x3d915053	0.07095399
76	0xbba467a9	-0.00501724
77	0xbe0996f0	-0.13436484
78	0xbcc27764	-0.02373857
79	0x3e5da0a2	0.21643308
80	0xbd12478f	-0.035712775
81	0x3ea4e4b2	0.3220573
82	0x3e8cceb6	0.27501458
83	0x3e8c072a	0.27349216
84	0x3dee9b14	0.116506726
85	0x3e955e0d	0.29173318
86	0x3e9add87	0.30247137
87	0xbe31b2c2	-0.17353347
88	0x3e9f0f19	0.31066206
89	0xbe14e8d6	-0.14541945
90	0x3e03d335	0.12873538
91	0x3ea6be54	0.32567084
92	0xbe58d207	-0.21173869
93	0x3e68551d	0.22688718
94	0xbb1098cf	-0.0022063737
95	0x3e3b1e8c	0.18273371
96	0x3dd6d070	0.10488975
97	0x3e374ac9	0.17899622
98	0x3e8d18cc	0.2755798
99	0x3e6eb1a2	0.23309949
100	0x3ea3bf5d	0.31981936
101	0xbe04016a	-0.12891164
102	0xbe7164f0	-0.23573661
103	0xbd97ff6f	-0.07421767
104	0x3e87f9e6	0.26557845
105	0x3eadb781	0.33929065
106	0x3e7bbef3	0.2458456
107	0xbe02b1dd	-0.12763162
108	0xbe231acf	-0.15928195
109	0xbdf1dba8	-0.11809474
110	0xbe069e65	-0.1314636
111	0xbe05a73a	-0.13052073
112	0xbd07d55e	-0.033162467
113	0x3eab145c	0.3341397
114	0x3ea66c4a	0.32504493
115	0xbe5794ee	-0.21052906
116	0x3e835518	0.2565086
117	0x3e3231b7	0.17401777
118	0xbe1ba199	-0.15198363
119	0xbd947b3c	-0.072500676
120	0x3ded8c9d	0.115990855
121	0xbdb1d31b	-0.08682843
122	0x3dd2ccd1	0.10292972
123	0x3e80150b	0.25016055
124	0xbdbe1c29	-0.09282715
125	0x3d996963	0.07490804
126	0x3e263352	0.16230515
127	0xbe5723e2	-0.21009782
128	0xbe5bad48	-0.2145282
129	0x3e5ab532	0.21358183
130	0xbcb043f8	-0.021516785
131	0x3e1d96da	0.15389577
132	0x3dd8a239	0.105778165
133	0x3e76bc8d	0.24095364
134	0x3e174040	0.14770603
135	0xbe1bf36a	-0.15229574
136	0x3e3bf4ff	0.18355177
137	0x3e4a2ff5	0.19744857
138	0x3e9aa85b	0.3020657
139	0x3e8c1fa9	0.27367905
140	0xbe146969	-0.14493336
141	0xbcb28f07	-0.021796716
142	0x3e2211d4	0.15827113
143	0xbd1f6828	-0.03891769
144	0xbc24be7d	-0.010055182
145	0x3e188e3e	0.14898011
146	0x3e24cdd5	0.16094144
147	0xbd520810	-0.05127722
148	0x3e0aa62d	0.13539954
149	0x3e3457fa	0.17611685
150	0x3e4aad51	0.19792677
151	0x3e5d7949	0.21628298
152	0x3ea23351	0.31679776
153	0x3e98d6a3	0.29851255
154	0x3e9f12a5	0.31068912
155	0xbd7aba11	-0.061212603
156	0xbcda1479	-0.02662109
157	0xbda16404	-0.078804046
158	0x3ea261f6	0.31715363
159	0x3e37102c	0.17877263
160	0x3e988d6e	0.29795402
161	0x3e1f1b34	0.15537721
162	0x3dfad464	0.122475415
163	0x3e92605b	0.28589138
164	0xbb424a29	-0.0029646254
165	0xbe657632	-0.22408369
166	0xbe1c9176	-0.15289864
167	0x3e80dce7	0.25168535
168	0xbdadc5f0	-0.08485019
169	0x3e7726e1	0.24135925
170	0xbdf138b6	-0.11778395
171	0x3e05ffbf	0.1308584
172	0x3e0c7d5b	0.13719694
173	0x3dfba23f	0.12286805
174	0xbd713928	-0.0588924
175	0xbe5dd2a2	-0.21662381
176	0x3ea96702	0.330864
177	0xbe15b265	-0.14618833
178	0x3ea23bd8	0.31686282
179	0xbd9b7ebc	-0.07592532
180	0x3e703198	0.23456419
181	0x3eb2841d	0.3486642
182	0xbc335e0e	-0.010947717
183	0x3de35e9f	0.11102032
184	0x3e4b6252	0.19861725
185	0xbda944b8	-0.0826506
186	0x3dd9883a	0.10621686
187	0x3e96d8b1	0.29462197
188	0xbd978bf0	-0.07399738
189	0xbe4060cf	-0.1878693
190	0x3eb3fedf	0.3515539
191	0x3e150fcd	0.14556809
192	0xbe3f785d	-0.18698259
193	0x3e9c9bdf	0.3058767
194	0x3df70e53	0.12063279
195	0x3e1d446a	0.15358129
196	0x3e2dbbf5	0.16966231
197	0x3eaf792d	0.34272137
198	0x3dd35241	0.10318423
199	0x3ea79b90	0.32735872
200	0xbe05bb18	-0.13059652
201	0x3df140df	0.11779951
202	0xbd605642	-0.05476976
203	0x3e5f6259	0.2181486
204	0x3ea1dd44	0.31614125
205	0x3e64ab90	0.22331071
206	0xbe1b9d52	-0.15196732
207	0xbc00c540	-0.007859528
208	0xbe56fbf4	-0.2099455
209	0x3e835eb6	0.25658196
210	0xbe53e654	-0.20693332
211	0x3e1ebb3e	0.15501115
212	0xbd58bec5	-0.052916307
213	0x3dd9be0f	0.10631954
214	0xbe116f9d	-0.14202733
215	0xbe25f1fd	-0.16205592
216	0x3e140049	0.14453234
217	0x3e611f38	0.21984565
218	0xbe29ef55	-0.16595204
219	0xbe2f3e28	-0.17113554
220	0x3e2783e4	0.16358906
221	0x3ea1d503	0.31607828
222	0x3dddfe55	0.108395256
223	0x3e987125	0.29773822
224	0x3e7bfbab	0.24607722
225	0x3e26c395	0.16285546
226	0x3df8b8a4	0.121445924
227	0x3de255e3	0.11051538
228	0xbd9589f1	-0.07301701
229	0xbd9c2135	-0.07623521
230	0x3d994d2b	0.07485422
231	0x3ea769eb	0.32697996
232	0xbd3f2d80	-0.04667425
233	0xbdf406bd	-0.11915348
234	0xbe55532c	-0.20832509
235	0xbd1806b0	-0.037115753
236	0xbe0dd4cc	-0.13850707
237	0x3e6b1d9b	0.22960512
238	0x3eab37b8	0.33440948
239	0x3e6888c1	0.22708417
240	0xbdd466ee	-0.10371195
241	0x3e86e523	0.26346692
242	0xbe16d6fc	-0.14730448
243	0xbe3c4e6e	-0.18389294
244	0x3ddfb649	0.1092344
245	0xbe631eed	-0.22179766
246	0x3ea8908f	0.3292279
247	0x3e7cf24c	0.24701804
248	0x3eb1ca15	0.3472449
249	0x3e42aae6	0.19010505
250	0x3dd18fb8	0.1023249
251	0x3e8c2eba	0.273794
252	0x3e04bcf0	0.12962699
253	0xbe55f6dd	-0.20894952
254	0x3e154840	0.14578342
255	0x3e190580	0.14943504

mono.2.bias f4 [16]
0	0xbdb3cc2d	-0.08779178
1	0x3d506e01	0.050886158
2	0x3e769f98	0.24084318
3	0xbe2633bd	-0.16230674
4	0x3c1b07ee	0.00946234
5	0x3e61f6ae	0.22066757
6	0x3e1a5acf	0.15073703
7	0x3dbe4c57	0.092919044
8	0x3e5fe8d1	0.21866156
9	0x3e6a99ba	0.22910205
10	0x3e94d958	0.2907207
11	0x3d82a433	0.06378975
12	0x3d8c43e1	0.068488844
13	0x3e8043f3	0.2505184
14	0xbd6f34a6	-0.05839982
15	0x3e75cab4	0.24003106

mono.3.weight f4 [16, 16]
0	0x3de12238	0.10992855
1	0x3e674f75	0.22588904
2	0x3e391a59	0.18076457
3	0x3a940600	0.0011293292
4	0x3bda69bb	0.006665436
5	0x3e570a19	0.20999946
6	0x3e699359	0.22810115
7	0xbdfe21c0	-0.12408781
8	0xbd71ce8e	-0.059034877
9	0xbdc31fa0	-0.09527516
10	0x3e1f4a44	0.15555674
11	0x3bc67680	0.006056607
12	0xbd9119c9	-0.07084996
13	0xbe5b98d2	-0.21445015
14	0xbd95eecb	-0.07320937
15	0x3e7a886b	0.24466102
16	0xbe68547f	-0.22688483
17	0x3e72c606	0.23708352
18	0x3e6eff1e	0.23339507
19	0x3cea9a70	0.028638095
20	0xbe6d4c71	-0.23173691
21	0x3e38443e	0.17994782
22	0x3dbf209c	0.093323916
23	0x3cda4400	0.026643753
24	0x3d27dcf8	0.040982217
25	0xbe189656	-0.14901099
26	0xbd3edc88	-0.046597034
27	0x3e4dd7e0	0.20101881
28	0x3e0840f6	0.1330603
29	0x3e452b7c	0.19254869
30	0x3e52a720	0.20571566
31	0x3e53162a	0.20613924
32	0x3e9a3f45	0.30126396
33	0xbe11c80c	-0.14236468
34	0x3ea63f16	0.32470006
35	0x3deed050	0.11660826
36	0x3e9dc303	0.30812845
37	0x3e2e713b	0.17035381
38	0xbe618f94	-0.22027427
39	0x3eaeb9a5	0.3412601
40	0xbda20330	-0.07910764
41	0x3e4491c1	0.19196226
42	0x3e4d83d5	0.20069821
43	0xbd6fcd3d	-0.05854534
44	0xbe1e8914	-0.15481979
45	0xbe488194	-0.1958068
46	0xbcfe9db1	-0.031081052
47	0x3e9bc37b	0.30422577
48	0x3dea25b0	0.114329696
49	0xbe4b1e8e	-0.19835874
50	0x3ea63467	0.32461855
51	0xbcde0f5e	-0.027106937
52	0xbdc5dea8	-0.09661609
53	0xbd92fc94	-0.07177082
54	0x3ea3a407	0.3196108
55	0x3e0bf5f8	0.13668048
56	0xbe303f46	-0.17211637
57	0xbe2ec70a	-0.17068115
58	0xbe680c12	-0.22660854
59	0x3e13c406	0.14430246
60	0xbe5b2244	-0.2139979
61	0xbc3be900	-0.011469126
62	0x3e96eb3b	0.29476342
63	0x3ea7fa4a	0.32808143
64	0xbbda9ae6	-0.0066712974
65	0x3e5b167a	0.21395293
66	0x3e25aaee	0.16178486
67	0x3cfa40ec	0.030548535
68	0x3e9c2af5	0.30501524
69	0x3e4f4438	0.20240867
70	0xbe0f6872	-0.14004686
71	0xbdb4cc02	-0.08827974
72	0xbe4026b6	-0.18764767
73	0xbe53b4ee	-0.20674488
74	0x3e1f6202	0.15564731
75	0xbe7478f1	-0.2387426
76	0x3e72d831	0.23715283
77	0x3eafb46f	0.34317347
78	0xbaca6116	-0.0015440311
79	0x3e870caf	0.26376864
80	0xbd515041	-0.051101927
81	0xbd27b252	-0.040941544
82	0x3d1c1040	0.038101435
83	0xbe3753da	-0.1790308
84	0x3e0e0464	0.13868862
85	0xbd60d572	-0.054891057
86	0xbd079f98	-0.033111185
87	0xbd8760bc	-0.066102475
88	0xbdbe27c2	-0.09284927
89	0x3dc2400a	0.09484871
90	0x3d9b4945	0.075823344
91	0x3de3c828	0.11122161
92	0xbe1804a0	-0.14845514
93	0x3ba36f71	0.00498765
94	0xbdd1c43e	-0.10242508
95	0x3e4ad8de	0.19809291
96	0x3e498060	0.19677877
97	0x3e045c3d	0.12925811
98	0xbd3995c8	-0.04530886
99	0x3db109e6	0.08644466
100	0x3dece482	0.11567022
101	0x3e71c7b9	0.23611344
102	0xbe609bfd	-0.21934505
103	0x3e708a33	0.23490219
104	0x3e81b04f	0.25329825
105	0x3dd9e960	0.10640216
106	0xbe755446	-0.23957929
107	0xbd49910d	-0.049210597
108	0xbe10e0e2	-0.14148286
109	0xbe121563	-0.14265971
110	0x3e95f771	0.29290345
111	0xbe619ea6	-0.22033176
112	0x3e425cb4	0.18980676
113	0xbe0da7ee	-0.13833591
114	0x3d94a78f	0.07258522
115	0x3daddd48	0.08489472
116	0xbe14cd3b	-0.14531414
117	0x3e8b460f	0.27201888
118	0x3e1a2d32	0.15056303
119	0x3ba6f461	0.00509505
120	0x3e813570	0.25236082
121	0x3da0d00e	0.07852183
122	0xbde24d84	-0.11049941
123	0x3e0925f8	0.1339339
124	0x3de4c0b6	0.11169569
125	0x3c900ff8	0.01758574
126	0x3e446efc	0.19182962
127	0x3e5b4153	0.21411638
128	0xbd872a0c	-0.06599817
129	0x3e61fbfc	0.2206878
130	0x3e2204e2	0.15822175
131	0xbcf5ac06	-0.029989254
132	0x3e09f0d4	0.13470775
133	0x3dd401e8	0.10351926
134	0x3e3a1cf0	0.18175101
135	0xbe3d9fe6	-0.18518028
136	0xbe1a4a4a	-0.15067402
137	0x3d608377	0.054812875
138	0x3dcd27b0	0.100173354
139	0x3e5863f4	0.21131879
140	0x3d9ccfc0	0.07656813
141	0xbdc541d6	-0.09631698
142	0x3c5994a0	0.013280064
143	0x3e07fd6e	0.1328027
144	0xbe451734	-0.19247133
145	0xbdbff807	-0.09373479
146	0xbe4316da	-0.19051686
147	0xbd137926	-0.036004208
148	0x3d96c4c0	0.07361746
149	0xbdb25769	-0.087080784
150	0x3e0e212a	0.13879839
151	0x3d858c3c	0.06520888
152	0x3d8959aa	0.06706555
153	0xbe46fe0e	-0.19432852
154	0x3c643f1f	0.013931065
155	0x3a8a3da9	0.0010546941
156	0xbd8b65d0	-0.068065286
157	0xbe6837dc	-0.22677559
158	0x3cc9f470	0.02465269
159	0xbe2ca642	-0.16860297
160	0x3e99d124	0.30042374
161	0x3e0e58d1	0.13901068
162	0xbdac5e80	-0.08416462
163	0xbe22fc13	-0.15916471
164	0xbe4ee8dc	-0.20206016
165	0x3e343666	0.17598876
166	0x3e2a358a	0.16621986
167	0x3ea3dce6	0.3200447
168	0x3e284d56	0.16435751
169	0xbd8a2860	-0.06745982
170	0xbe5efe98	-0.21776807
171	0x3e5aee90	0.21380067
172	0xbd9763bc	-0.0739207
173	0xbe09c67c	-0.13454622
174	0xbe4ff2a7	-0.20307408
175	0x3e34a7ae	0.1764209
176	0xbe18670c	-0.1488306
177	0x3def7a84	0.1169329
178	0x3e234dbc	0.15947622
179	0xbd85e7dc	-0.06538364
180	0x3e6248b6	0.2209805
181	0xbdfadba8	-0.12248927
182	0x3e1b5d64	0.15172344
183	0x3e2190d3	0.15777902
184	0x3dff2694	0.1245853
185	0xbdd3f9d4	-0.10350385
186	0xbe054a86	-0.1301671
187	0xbda85b72	-0.08220567
188	0x3e60dd7c	0.2195949
189	0xbd468101	-0.04846287
190	0xbdad3372	-0.08457078
191	0x3e52932d	0.20563956
192	0x3e026d98	0.12737119
193	0x3db29304	0.08719447
194	0xbe7a4aa2	-0.24442533
195	0xbc79c380	-0.015244365
196	0xbe4ec4f0	-0.20192313
197	0x3c8430d0	0.016136557
198	0x3dc17138	0.09445423
199	0xbe3bef44	-0.18352991
200	0x3dbc4434	0.09192696
201	0x3e144642	0.14479926
202	0xbe3ff106	-0.18744287
203	0x3e21879c	0.15774387
204	0xbe148b6e	-0.14506313
205	0x3e4cc07c	0.19995302
206	0xbd8bdab0	-0.06828821
207	0x3e250dde	0.16118571
208	0xbe2e8a78	-0.17045009
209	0xbb983765	-0.0046452754
210	0xbd8d04e8	-0.068857014
211	0x3e1e5aa8	0.1546427
212	0xbe0ebba5	-0.13938768
213	0xbe58a5dc	-0.2115702
214	0xbe488036	-0.19580159
215	0x3d77b8fc	0.06047915
216	0xbe2744e2	-0.1633487
217	0x3e8b0951	0.27155545
218	0xbe092908	-0.13394558
219	0xbd205e9e	-0.039152734
220	0xbe6b6791	-0.22988726
221	0xbe0c9d32	-0.1373184
222	0x3e4737fb	0.19454949
223	0xbded859c	-0.115977496
224	0xbe025c48	-0.12730515
225	0xbdd8a6a5	-0.1057866
226	0x3e531e59	0.20617045
227	0xbb47357b	-0.0030396867
228	0x3e38a1b8	0.18030441
229	0x3da11fcc	0.07867393
230	0xbd81d4dd	-0.063394286
231	0x3e18bbdc	0.14915413
232	0x3e7193fe	0.23591611
233	0xbd656590	-0.05600506
234	0x3deb1471	0.11478508
235	0x3db51f54	0.08843866
236	0x3e52543a	0.20539942
237	0x3e68da3f	0.22739504
238	0x397b8000	0.00023984909
239	0x3e730f2d	0.23736258
240	0x3be99140	0.007127911
241	0xbe158e96	-0.14605173
242	0xbccb9f50	-0.02485624
243	0xbda7d5c8	-0.081950724
244	0xbdc1c1cc	-0.09460792
245	0xbe3fed94	-0.18742973
246	0x3e07bcfe	0.13255689
247	0xbdf842a4	-0.12122086
248	0x3e63c024	0.22241265
249	0x3e200c44	0.15629679
250	0xbca7c720	-0.020480692
251	0xbe02fc24	-0.12791497
252	0xbe59cd5a	-0.21269742
253	0xbb840bc0	-0.004029721
254	0x3d9a7150	0.07541144
255	0x3dc9cee8	0.09853917

mono.3.bias f4 [16]
0	0xbe47dc82	-0.19517711
1	0x3dd643e7	0.1046217
2	0xbdcd77b4	-0.10032597
3	0xbe089f7e	-0.13342091
4	0xbe04d4fd	-0.12971874
5	0x3e2facd6	0.17155775
6	0x3df1499e	0.117816195
7	0xbe2debf5	-0.16984542
8	0x3d877103	0.06613352
9	0x3dd66ea1	0.104703195
10	0x3d606b7e	0.054790013
11	0xbe1db728	-0.154019
12	0x3e2291ac	0.15875882
13	0xbe51fad1	-0.20505835
14	0xbd8a408d	-0.06750593
15	0x3e21f702	0.15816882

mono.4.weight f4 [1, 16]
0	0xbe0560ba	-0.1302518
1	0xbc9860c9	-0.018600838
2	0x3e95bb2a	0.29244357
3	0x3e3c06c9	0.18361963
4	0x3e79f71a	0.24410668
5	0xbe101039	-0.14068688
6	0x3e47f916	0.19528612
7	0xbe2bccdf	-0.16777371
8	0xbe4ba809	-0.19888319
9	0xbe4bd201	-0.19904329
10	0x3e5128a4	0.2042566
11	0xb99e5c85	-0.0003020504
12	0xbd21a960	-0.03946817
13	0xbe42cb20	-0.19022799
14	0xbe4d7df6	-0.20067582
15	0xbd2303b8	-0.03979847
